pytorch/Laplace_eq_outputs/model_lr_0_layers_0_lambda_3.pt (torch, 7898 bytes, 5 tensors)

input_layer.0.weight f4 [32, 2]
000000 8b b0 e0 3e 10 aa db 3f a5 2b a7 3f 52 cd a4 bf
       0.43884692 1.7161274 1.3060194 -1.2875159
000010 04 a4 76 be 9e e2 71 bf 8a 6f 93 bf 6c 90 09 bf
       -0.24086004 -0.94486415 -1.1518414 -0.53735995
000020 54 f2 db 3f 83 5e d5 be 5c b3 a6 3e e4 2b 09 bf
       1.7183328 -0.4167367 0.32558715 -0.53582597
000030 a5 3c d1 3d 6a 10 37 3f 61 e8 a3 bf 16 bf a1 3f
       0.10216645 0.7150942 -1.2805291 1.263644
000040 67 67 85 bf 0c c1 81 bf 48 b0 b9 3f 88 fb a2 bf
       -1.0422181 -1.0137038 1.4506922 -1.2733011
000050 4e c9 7b be d1 d7 59 3f 3d 7c 4e bf ef 93 41 3f
       -0.2458851 0.85094935 -0.8065832 0.75616354
000060 6f 8a 2a bf 9b 5b 81 bf 23 d9 19 3f eb 30 9c 3f
       -0.6661748 -1.0106081 0.6009695 1.2202429
000070 5c 25 e5 be bf d8 5e bf 2f 7f d0 3e 10 b0 37 bf
       -0.44755065 -0.8704948 0.40722033 -0.71753025
000080 79 f2 ed bf 80 ed dc 3f a9 19 39 bf 18 4a af 3f
       -1.8589622 1.7259979 -0.7230478 1.3694487
000090 17 5b 2d 3f 4b c9 0e bf be a2 00 bf 28 e0 91 3f
       0.6771712 -0.557759 -0.50248325 1.1396532
0000a0 8b 27 55 3f 81 60 47 bf 37 0b 1a 3f ff aa af 3f
       0.8326346 -0.7788163 0.6017336 1.3724059
0000b0 5b a9 0f 40 c7 77 0a c0 bc 96 23 40 2b 30 24 c0
       2.2447116 -2.1635606 2.556075 -2.56544
0000c0 4c ad d4 bf b9 5e 95 3f 19 9f 6c 3f cb 96 5e 3e
       -1.6615386 1.1669532 0.92430264 0.2173721
0000d0 21 f4 9e bd 60 dc 59 3f b4 ed 73 3f f4 45 7c bf
       -0.07761408 0.8510189 0.9528458 -0.9854424
0000e0 bf 8e 26 3d be 93 ab 3e 06 96 c6 bc 08 60 81 3f
       0.040663477 0.33511156 -0.024241459 1.0107431
0000f0 92 23 3f 3f 30 f0 74 bf b1 d3 04 40 bc 04 fe bf
       0.7466365 -0.95679 2.0754206 -1.9845195

input_layer.0.bias f4 [32]
000000 a1 fb f1 bf 1c 12 8b bb 3b eb 0c bf a5 5e b3 be
       -1.8904916 -0.004244102 -0.55046433 -0.35033146
000010 ab bb b0 bf 09 46 98 3e 24 cc ed be 49 c3 23 3e
       -1.3807272 0.29740933 -0.4644481 0.15992464
000020 87 41 92 3f 7c 38 64 3b b9 4e 4d bf 55 f7 df bd
       1.1426247 0.0034823706 -0.80198246 -0.10935847
000030 d7 d7 c5 bf 60 56 da be fe 4c 53 3e 56 d1 07 3f
       -1.5456494 -0.42644024 0.20634839 0.53053796
000040 16 c9 80 bc 89 ec 95 bf b0 68 f5 3e 8b 2b 4d 3f
       -0.015720885 -1.171281 0.47931433 0.80144566
000050 3c 9d 2b bf e4 3a 7a 3f 4b 15 db bc 68 57 92 3d
       -0.67036796 0.9774611 -0.026743552 0.07145578
000060 30 2c 71 3e 90 7b 4e 3f e4 39 83 bf 5f 48 98 bf
       0.23552012 0.8065729 -1.0252042 -1.1897086
000070 e5 7d 93 3f 56 8a 85 bf 6c d7 9a 3e b9 e1 4f 3d
       1.1522795 -1.0432842 0.3024248 0.050752375

hidden_layers.0.0.weight f4 [32, 32]
000000 3c f0 68 be 33 87 21 3e af fe 8f 3e 48 6e dc bd
       -0.22747892 0.1577423 0.28123996 -0.10763222
000010 32 15 10 3e 41 23 05 3e f4 d5 85 bb 1b 28 d4 3d
       0.14070585 0.1300173 -0.004084343 0.10359212
000020 11 cb 3a 3c 5b 71 9d 3d c7 0b d5 3d 62 c4 2d be
       0.011400954 0.076876365 0.10402637 -0.16969445
000030 5f be c6 3e cb 07 7e bd e5 10 95 be e2 a8 4e bd
       0.38817117 -0.06201915 -0.29114452 -0.050454028
000040 c4 e9 86 3d e8 87 4d be 20 92 8f bd 06 c2 c5 3d
       0.06587556 -0.20071375 -0.07010293 0.09656148
000050 64 95 34 3e b0 43 34 3d 18 bf 97 bc f8 40 70 bd
       0.17635113 0.044009864 -0.018523738 -0.05865571
000060 01 56 9b 3d 8b 25 e8 bd 15 be 99 3d 8b 36 67 bc
       0.07584763 -0.11335286 0.075069584 -0.014112125
000070 2e 28 6f bd ae 17 85 3d 02 ec 8d 3e d3 b9 2e bd
       -0.058387928 0.06498657 0.27719122 -0.042657685
000080 b3 a1 33 be f3 8c bf 3d 53 10 60 bd db d0 a1 bd
       -0.17542152 0.09353056 -0.054703068 -0.07901164
000090 11 be 9b 3e 70 0b a5 bd 32 bf de 3d 72 80 7c bd
       0.30418447 -0.08058822 0.10876311 -0.061645932
0000a0 74 96 08 3d 9d 41 f2 bc 13 bd c1 bd e3 ea 93 bd
       0.03334661 -0.029572302 -0.09459891 -0.072225355
0000b0 44 03 a8 3d 69 b2 72 3d 51 7a 58 be 09 a3 9a bd
       0.08203748 0.059252176 -0.2114041 -0.07550628
0000c0 4a 50 c7 3b e1 fd ea 3d ee f6 20 3e 8b 2d cf 3d
       0.0060825692 0.11474205 0.15719196 0.101161085
0000d0 3b 3a 3e 3e ef 7d 3a be d0 0e fc bd d7 45 a2 3d
       0.185769 -0.18212102 -0.12307513 0.07923477
0000e0 5b 43 dc 3c d8 60 16 bd 9f d5 28 be 04 05 09 3e
       0.026887586 -0.03671345 -0.1648774 0.1338082
0000f0 e5 44 cd bd dc 4c 0c bd ba 91 1d 3e ae 76 0a be
       -0.10022906 -0.034252986 0.15387622 -0.13521835
000100 0d 22 1d 3e 22 3a f2 bd 51 9b ad 3e b2 77 25 3f
       0.1534502 -0.11827494 0.3390756 0.64635766
000110 eb ae 81 3d c7 29 bc 3e 65 f9 2e be 79 0b 93 be
       0.06332191 0.36750624 -0.17087324 -0.2871969
000120 a2 b4 05 be 06 e6 55 3e 03 4a 36 bc 28 4b 05 3c
       -0.13057187 0.20888528 -0.011126044 0.008135594
000130 2b e2 3f 3f 35 90 05 3e 08 0d 21 3e f5 e5 af 3e
       0.7495448 0.13043292 0.15727627 0.3435513
000140 0c 91 0d 3d 8d 0e 7f bd 63 a4 8c be a6 67 85 bf
       0.034562156 -0.062269736 -0.27469167 -1.0422256
000150 e7 9c 9f 3e 9f 91 2d c0 d9 5a be be 5f 84 73 3e
       0.31174394 -2.712013 -0.37178686 0.23780964
000160 76 1c 20 bf c1 b9 bc bf 91 d4 28 3d d6 dd 2f 40
       -0.6254343 -1.4744188 0.041218344 2.7479148
000170 6f fd 40 bf cf a5 20 3e cf 18 23 3e f9 21 68 3c
       -0.7538671 0.15688251 0.15927432 0.014168256
000180 4f 98 b5 3e 0c 7d 9b bf 3c 32 0a be f2 81 eb 3c
       0.35467765 -1.2147536 -0.13495725 0.028748486
000190 14 b4 35 bf 63 f4 f8 be 7a 72 10 bf de 4d 1b 3f
       -0.709779 -0.48623952 -0.5642468 0.6066569
0001a0 a5 20 ca 3e 70 34 56 bf 25 c1 b4 3e cf f7 8c 3f
       0.3947803 -0.83673763 0.35303608 1.1013125
0001b0 7f b0 80 bf b0 75 bb bc b5 45 1e 3e ac d0 12 bf
       -1.0053862 -0.022883266 0.15456279 -0.5734966
0001c0 e2 64 e8 3f 9f 32 c9 3e 83 c0 46 bf a3 4a b3 3e
       1.8155787 0.39296433 -0.776375 0.3501788
0001d0 c7 8d 3a bd 8c 5e 04 3f 82 6a a1 bf ce d3 09 c0
       -0.045545366 0.5170677 -1.2610629 -2.1535525
0001e0 a3 53 63 3f c2 ad 23 3f 1c 45 ed bd 70 ae 76 3e
       0.88799495 0.6393701 -0.11585447 0.2408998
0001f0 fb fd 5f be db f9 9f 3b 6d 7f 15 bf b9 ba be bf
       -0.2187423 0.00488208 -0.5839756 -1.4900733
000200 2a 7e f3 3b 03 0b 43 3f 9f cb 2e 3f 38 93 37 be
       0.0074308114 0.7618868 0.6827945 -0.17927253
000210 61 9b 49 bf ad 23 da 3e 50 45 83 be 0a b9 bd be
       -0.78752714 0.42605343 -0.2563882 -0.37055236
000220 d4 ec 42 3e 0d 72 28 3f 60 33 23 be ad 56 22 bf
       0.19035655 0.6579903 -0.15937567 -0.63413507
000230 95 4b aa 3e 1e d7 2d 3e fc 98 de be 93 ba 7b 3e
       0.3326079 0.16976592 -0.43476093 0.24582891
000240 84 f0 28 bf 7a 45 58 be dd 0f ba 3e dc 6a 1f bf
       -0.65992 -0.21120253 0.36340228 -0.6227243
000250 78 12 0c 3e ef 2a 14 bf 9c 72 f7 3e f6 6c b8 3d
       0.1367892 -0.5787801 0.48329628 0.09005158
000260 76 17 9f be 9e 8f 29 3d f9 23 14 3e cb 78 ab 3d
       -0.31072587 0.04139673 0.14466847 0.08372649
000270 41 62 57 be 6b 4d 0f be 14 c0 d9 3e b4 82 20 3f
       -0.21033575 -0.13994376 0.42529356 0.6269944
000280 6d 67 92 bd 0c b5 13 3e 3b 77 aa be 3d 6d 35 3f
       -0.07148633 0.14424533 -0.3329409 0.7086981
000290 37 4c a7 3e b3 82 96 3d 38 a0 e7 bd de 9d ee bd
       0.32675335 0.07349148 -0.11309856 -0.116512045
0002a0 83 9f 8d bd f6 12 1d 3e 9d 84 1f bd ce f4 06 be
       -0.0691519 0.15339264 -0.03894483 -0.13179323
0002b0 12 87 17 3e 1a 50 41 3e cb 25 01 bd 32 8b 55 3e
       0.14797619 0.18878213 -0.031530183 0.2085388
0002c0 cb a5 d1 3d 07 14 2e be 0f ee a1 3c 3e 54 36 bf
       0.102367006 -0.16999827 0.019766835 -0.71222293
0002d0 16 02 92 bd 1d f7 6a be fa b9 3c 3e 87 38 0e 3f
       -0.07129304 -0.22945829 0.1843032 0.55555004
0002e0 f4 fa c6 3d c2 99 9b be 3c f0 9c bd 55 93 0e 3f
       0.09715834 -0.30390745 -0.076630086 0.5569356
0002f0 01 f0 b1 be 24 4d b7 bd 34 46 00 3e 25 60 64 3e
       -0.3475342 -0.0895026 0.1252678 0.22302301
000300 38 7a 93 bd 76 31 35 be b9 65 a4 3d 39 3f 3a bc
       -0.07201046 -0.17694649 0.080272146 -0.0113676125
000310 97 84 73 3d bb 1b e7 bd 02 44 8d b9 4f 35 70 3d
       0.05945262 -0.11284586 -0.00026944285 0.05864459
000320 f2 9e 2f be 14 07 46 bb b7 b6 a9 3e 5d 87 78 3d
       -0.17150477 -0.0030216621 0.33147213 0.060675967
000330 59 5e 84 3c fe 5b dd 3b 0b 40 79 be de 7d 84 be
       0.01615827 0.006755351 -0.24340837 -0.2587728
000340 48 73 d8 bd 8f a1 df 3d 2e 86 11 be 7b 11 b2 bc
       -0.10568863 0.10919487 -0.14211342 -0.021736851
000350 2f ce 98 3d 26 0e 2c be f7 39 4e bc ee e8 1b 3e
       0.074612014 -0.16802272 -0.012587062 0.15225574
000360 81 59 c6 3c fe dc 6e be 64 76 af 3e ab 28 4c 3e
       0.0242126 -0.2332649 0.34270012 0.19937389
000370 4d 16 26 be 4f 28 c0 3e f2 43 d2 bc c0 70 01 3c
       -0.16219445 0.37530753 -0.025667164 0.007900417
000380 a3 5b 82 be 11 7c 4e 3e 77 08 36 3e 9b dd 26 3e
       -0.25460538 0.20164515 0.17776667 0.16295473
000390 51 64 d1 3d 38 24 e9 bd c1 de aa 3d ee 71 1f be
       0.10224212 -0.11383861 0.08343268 -0.15570804
0003a0 9f 7b 4f be 04 3b 3c bc 77 2c b9 3d de 80 87 bd
       -0.20262001 -0.01148868 0.09041684 -0.06616376
0003b0 7e 1d c1 bc f1 f1 9b bd 6f c8 17 be 58 a5 23 be
       -0.023573633 -0.07614506 -0.14822553 -0.15981042
0003c0 d6 34 ac 3d b7 ae 66 be 97 cf ea 3d d5 2a da 3d
       0.08408515 -0.22527586 0.11465376 0.10652701
0003d0 52 5c e1 3d a0 77 ab ba e3 30 96 bd 6f 5b 30 be
       0.11003937 -0.0013081916 -0.07333543 -0.17222379
0003e0 2f 6f ec bc 38 8c 45 be 4f 77 0b be 5f 17 02 be
       -0.02886161 -0.1929177 -0.13619731 -0.12704228
0003f0 7e 8c ed bd d4 3f 34 3e 7a 07 8a 3e 43 6b f9 3c
       -0.115990624 0.17602473 0.2695883 0.030446654

hidden_layers.0.0.bias f4 [32]
000000 65 d2 33 bc 03 c5 91 3d d4 7d 61 be 8b f7 02 bf
       -0.010975455 0.07117655 -0.22020656 -0.5115897
000010 a4 ea 19 be bf 84 36 be 5f 61 04 bc 60 2a 3b be
       -0.15030915 -0.17824076 -0.008079856 -0.18277884
000020 09 d8 bb bd 0d b0 3c 3e a6 61 43 bb 41 7b f8 bb
       -0.09172065 0.18426533 -0.0029812842 -0.0075830524
000030 a9 4f ca bd fc 6c 1d 3e 5a 79 ff 3d 5b 1a 11 be
       -0.09878475 0.15373605 0.12474318 -0.1417021
000040 2a 28 a6 3e c7 36 c8 3d 41 08 75 bd e9 3b 3a 3e
       0.32452518 0.09776073 -0.059822325 0.18186916
000050 e0 ba 53 be 8e 76 32 be d1 9e 1d be d1 2f 43 3f
       -0.20676756 -0.17428038 -0.15392615 0.7624484
000060 f8 8e b6 bd 17 22 40 3e ed 6c 0b 3d a3 91 4b be
       -0.08913988 0.18763004 0.034039427 -0.19879775
000070 04 6a c4 3d 5b 4b 3a 3e d8 67 bd bd 2a c0 0b be
       0.095905334 0.18192808 -0.09248322 -0.13647524

output_layer.weight f4 [1, 32]
000000 7b b9 ae be d6 61 72 be 4f 79 94 3e 9f d9 a0 3e
       -0.34125885 -0.23670134 0.289988 0.31416032
000010 9e fa 70 be 45 da 8c 3e 72 b7 85 be fe 32 0b bf
       -0.23533103 0.27510276 -0.2611652 -0.5437468
000020 bd 91 ae 3e 7d 01 d0 be 8a 5b f5 be 75 da ca be
       0.34095564 -0.40626135 -0.479214 -0.39619794
000030 1a 09 17 3e de e7 06 3d ac ed 3e be 4c 81 52 3e
       0.14749566 0.03293597 -0.18645352 0.20557135
000040 81 61 44 bf 70 57 79 3e f5 3a a6 be 9f 99 40 be
       -0.7671128 0.24349761 -0.32466856 -0.18808602
000050 ca 73 6e be f4 bd 1f bf 38 0c 42 3e 68 8e 94 3d
       -0.23286358 -0.6239922 0.18949974 0.07253724
000060 6f 74 c1 be 45 1b 8d 3e 67 df 45 be 92 92 9b be
       -0.37784144 0.27559868 -0.19323502 -0.30385262
000070 60 48 a8 be 55 b0 9d 3e b0 73 c2 3e b7 0b 4e 3e
       -0.32867718 0.30798593 0.37978888 0.20121656
