pytorch/Laplace_eq_outputs/model_lr_1_layers_1_lambda_0.pt (torch, 20826 bytes, 5 tensors)

input_layer.0.weight f4 [64, 2]
0	0x3df54d44	0.11977628
1	0xbf2ebcdc	-0.68256927
2	0xbf2b139f	-0.66826814
3	0x3d01061c	0.031499967
4	0xbf1577f0	-0.58386135
5	0x3e6c4af5	0.23075469
6	0x3ed39bc2	0.4132977
7	0x3f43349c	0.7625215
8	0x3e302193	0.17200308
9	0xbf699adc	-0.9125192
10	0xbf5d96d6	-0.8655828
11	0x3ee03bc0	0.43795586
12	0xbedbd4ae	-0.429357
13	0xbf201397	-0.6252989
14	0x3f55d3bf	0.83526224
15	0xbf8608aa	-1.0471394
16	0x3f1ac1f8	0.6045222
17	0xbe80f4a6	-0.25186652
18	0x3f3beb6d	0.73406106
19	0xbec23a6d	-0.379352
20	0x3ef2c715	0.47417513
21	0xbede1a08	-0.43379235
22	0xbe9becc8	-0.30454087
23	0x3f4731e2	0.7781049
24	0x3e3b8853	0.18313722
25	0xbf4735e4	-0.77816606
26	0x3f22bb11	0.6356669
27	0xbf3f150b	-0.74641484
28	0xbef945a9	-0.4868596
29	0x3ecf5e21	0.40501502
30	0x3f0c7062	0.5485898
31	0xbf0becb9	-0.54658085
32	0xbde0921b	-0.109653674
33	0x3f804d8f	1.0023669
34	0x3f7e7665	0.99399406
35	0xbf6b0668	-0.9180665
36	0x3f322692	0.69590104
37	0x3f3834d5	0.71955615
38	0xbc02d441	-0.007985176
39	0xbf2e052f	-0.6797666
40	0xbf57dec9	-0.8432432
41	0x3f583eb7	0.84470695
42	0xbdf31842	-0.11869861
43	0xbf684fd4	-0.9074681
44	0x3e147eee	0.14501545
45	0x3f7227c7	0.94591945
46	0x3cf82369	0.030290322
47	0x3f23367f	0.6375503
48	0xbd90a882	-0.0706339
49	0xbf700fde	-0.9377421
50	0xbf182a5c	-0.59439635
51	0xbcf0bb63	-0.029386228
52	0x3e7febc6	0.24992284
53	0xbf4233ca	-0.75860274
54	0x3f01c2a3	0.5068762
55	0x3ef57847	0.47943327
56	0xbf225211	-0.63406473
57	0x3ef2b097	0.47400352
58	0x3f29edb2	0.6637832
59	0xbf4ca32e	-0.7993649
60	0xbe9bf4d9	-0.3046024
61	0xbee21c9c	-0.44162452
62	0x3eecf23a	0.46278554
63	0xbe06b122	-0.13153508
64	0x3f871dc6	1.0555961
65	0x3d144d95	0.0362068
66	0x3f81e2b6	1.0147312
67	0xbf5cd94f	-0.86269087
68	0xbf3a623b	-0.7280614
69	0x3f21c712	0.6319438
70	0xbf3920c1	-0.72315603
71	0x3e323c3a	0.17405787
72	0x3f02d9c5	0.5111354
73	0xbdb4c563	-0.08826711
74	0x3e0b9c1d	0.13633771
75	0xbf7a4bc1	-0.9777184
76	0x3d8021e8	0.06256467
77	0xbf812de3	-1.0092129
78	0x3ed69898	0.41913295
79	0xbf5279e2	-0.8221723
80	0x3e82085b	0.25397
81	0x3eb1c05c	0.3471707
82	0x3f545cc7	0.82954067
83	0xbf6035cf	-0.87582105
84	0xbe87dc95	-0.26535478
85	0xbf26a452	-0.6509448
86	0xbf6cec62	-0.9254819
87	0xbdea69a3	-0.1144593
88	0xbf4f2e99	-0.8093048
89	0xbf15c80b	-0.58508366
90	0xbf50adc8	-0.8151517
91	0xbf280a54	-0.6564076
92	0xbe047e77	-0.12938868
93	0x3f3b1655	0.7308095
94	0x3e65f1bc	0.22455496
95	0xbebbd376	-0.3668477
96	0x3d8ca2d0	0.068669915
97	0xbf790fb4	-0.97289586
98	0xbc742745	-0.014901941
99	0x3f4cfa0c	0.8006904
100	0x3f281de8	0.65670633
101	0xbec30a03	-0.38093576
102	0x3f3d5cdf	0.73969835
103	0x3f0d91e9	0.55300766
104	0xbb77838a	-0.0037767612
105	0x3f7bbee8	0.98338175
106	0x3eb7e70e	0.35918468
107	0x3ed9f199	0.42567137
108	0xbe979ea4	-0.2961322
109	0x3f4ec8a3	0.807749
110	0x3eae831f	0.34084412
111	0x3e692c7e	0.22770879
112	0xbd52c4bf	-0.051457163
113	0x3f45bc22	0.7724019
114	0xbed8c9c5	-0.42341438
115	0x3f09f8b3	0.5389511
116	0xbd5d5dcc	-0.05404453
117	0x3efd843d	0.49514952
118	0x3f4c0cc6	0.7970699
119	0xbda4b35d	-0.08042023
120	0xbde97d4f	-0.11400854
121	0xbf8fb740	-1.1227798
122	0xbe8f752d	-0.28019086
123	0x3f62c7de	0.88586223
124	0x3e8713a4	0.26382172
125	0x3e83be7f	0.25731274
126	0xbdab03b8	-0.08350319
127	0xbf78480c	-0.96984935

input_layer.0.bias f4 [64]
0	0x3f012790	0.5045099
1	0xbf7f3d30	-0.9970274
2	0x3f05673d	0.52110654
3	0x3e87e6e8	0.26543355
4	0xbf5a1099	-0.85181576
5	0xbf53db27	-0.82756275
6	0x3eb7e62e	0.359178
7	0xbb8c79cc	-0.0042869803
8	0xbf0ded54	-0.5544026
9	0x3f3f05e5	0.7461837
10	0xbf4147a8	-0.75499964
11	0xbf0bdfb4	-0.5463822
12	0x3f62b8f1	0.8856345
13	0x3db4aad5	0.08821646
14	0xbed9fe76	-0.4257695
15	0xbf26e8cd	-0.65198976
16	0x3f50abd1	0.8151217
17	0x3bea0b0b	0.0071424297
18	0x3e912fee	0.2835688
19	0x3f2372e2	0.6384717
20	0x3d1afe33	0.03784008
21	0xbeae4872	-0.34039646
22	0x3e7373a9	0.2377459
23	0xbef62610	-0.48075914
24	0xbf75a63e	-0.9595679
25	0xbf6c239e	-0.9224185
26	0x3f179601	0.5921326
27	0xbe5640bf	-0.20923136
28	0x3f11269f	0.56699556
29	0xbdf3d1fc	-0.11905286
30	0x3f4e0b39	0.80485874
31	0xbd30a3aa	-0.043124832
32	0xbe5cb726	-0.2155424
33	0xbd86c456	-0.06580417
34	0xbec78532	-0.38968807
35	0x3f82116f	1.016157
36	0x3f2ab3a9	0.6668039
37	0x3f440fba	0.76586497
38	0xbf387b8c	-0.7206352
39	0x3f443e73	0.7665779
40	0xbe6ad3e2	-0.2293239
41	0x3d4d0a39	0.050058577
42	0xbf724eb1	-0.94651324
43	0xbeb3b13b	-0.35096154
44	0xbd344d5e	-0.044019096
45	0xbf2890ac	-0.6584575
46	0x3f468555	0.775472
47	0x3e8ba185	0.27271667
48	0x3f76b108	0.9636388
49	0xbf39e92c	-0.7262142
50	0xbf321a5a	-0.6957146
51	0xbeb1124b	-0.3458427
52	0x3f83fec5	1.0312124
53	0xbe0e4bb1	-0.13896061
54	0x3f057ac6	0.5214046
55	0x3ebf3c02	0.3735047
56	0xbf2820b2	-0.6567489
57	0xbf2880c5	-0.65821487
58	0x3e0741d5	0.13208707
59	0xbf83a5d6	-1.0284984
60	0x3f86d449	1.0533534
61	0x3f48242e	0.78180206
62	0x3f0b1e3b	0.54343003
63	0x3f84c3bd	1.0372235

hidden_layers.0.0.weight f4 [64, 64]
0	0x3e81ab22	0.25325876
1	0x3e192de3	0.1495891
2	0x3dbc53f4	0.091957
3	0xbe307f3e	-0.17236039
4	0xbd2db132	-0.042405315
5	0xbe1e1977	-0.15439402
6	0x3e754156	0.23950705
7	0x3e201466	0.15632781
8	0xbd89216e	-0.06695829
9	0x3e16ec86	0.14738664
10	0xbdf9ad50	-0.1219126
11	0xbe99156c	-0.29899156
12	0x3e8d3ab3	0.27583846
13	0x3e6ddbe8	0.23228419
14	0xbe1d3064	-0.15350491
15	0xbe0a7218	-0.13520086
16	0x3e26642d	0.16249152
17	0xbdbf7fcf	-0.093505494
18	0xbe4113aa	-0.18855157
19	0x3f1db237	0.6160006
20	0xbe0f35e1	-0.13985397
21	0x3c7da77f	0.015481829
22	0x3dbe3b84	0.092886955
23	0xbf091305	-0.53544647
24	0xbde7907d	-0.11306856
25	0xbd395893	-0.045250487
26	0x3ec832e6	0.39101332
27	0xbe315dd2	-0.17320946
28	0x3dc7ff04	0.09765437
29	0x3de74242	0.112919345
30	0x3e17051e	0.14748046
31	0xbdfcaa33	-0.123371504
32	0xbdb4ecf6	-0.08834259
33	0x3db96052	0.09051575
34	0xbd2a09a1	-0.04151309
35	0x3d43df58	0.04782042
36	0x3e3c6668	0.1839844
37	0x3e5ccb26	0.2156187
38	0xbd9744e9	-0.073861904
39	0x3df616a2	0.120160356
40	0xbe9f1759	-0.310725
41	0x3cc927a4	0.024555035
42	0xbe345200	-0.17609406
43	0x3d82a601	0.06379319
44	0x3e75d3ac	0.24006528
45	0x3e4e0c4c	0.20121878
46	0x3de555b4	0.11197987
47	0x3eae4df9	0.34043863
48	0x3f18ee96	0.59739053
49	0xbeea3f2e	-0.45751327
50	0xbe4949cd	-0.19657059
51	0xbe5b252e	-0.21400902
52	0x3e4cb4ac	0.19990796
53	0xbec0fe68	-0.37694097
54	0xbd7af617	-0.061269846
55	0xbdad5bdb	-0.08464786
56	0xbf0bb27e	-0.5456923
57	0xbdf473d3	-0.11936154
58	0xbe95b22e	-0.29237503
59	0xbd818b7e	-0.06325434
60	0x3eef273a	0.46709615
61	0x3da85072	0.08218469
62	0x3dcbe310	0.09955418
63	0x3ecbe70e	0.39824718
64	0xbe10b704	-0.14132315
65	0x3db6a910	0.08918965
66	0x3dd90774	0.10597125
67	0x3d7b8242	0.06140352
68	0xbc6d1ec9	-0.014472672
69	0x3e296eb0	0.1654613
70	0x3e23ee2c	0.16008824
71	0x3ad9f3cb	0.0016628442
72	0xbba3edfe	-0.005002736
73	0xbcf15091	-0.029457362
74	0xbb484052	-0.0030555916
75	0x3e05829b	0.13038103
76	0xbddbae28	-0.10726577
77	0x3dc56c12	0.096397534
78	0x3dadf39c	0.084937304
79	0x3d961c60	0.07329631
80	0xbd7047aa	-0.058662094
81	0x3ddc19d0	0.10747111
82	0xbe676f27	-0.22600995
83	0xbc823924	-0.015896387
84	0x3d02e03b	0.031952124
85	0xbe85241f	-0.2600412
86	0x3e983bc0	0.29733086
87	0x3c3020a8	0.010749973
88	0x3e149e1a	0.14513436
89	0x3e202bf0	0.15641761
90	0xbd0556d5	-0.032553513
91	0xbd0a30b8	-0.033737868
92	0x3d61738e	0.055041842
93	0x3e07dcab	0.13267772
94	0x3d55c657	0.052191105
95	0xbe89dc27	-0.26925775
96	0x3e0eb018	0.13934362
97	0x3d712e3a	0.058881976
98	0x3d60fc6a	0.05492822
99	0xbc244301	-0.010025741
100	0xbdb25dfe	-0.08709334
101	0xbe4f3d5c	-0.2023825
102	0x3db05c8e	0.086114034
103	0xbdf32f6d	-0.1187428
104	0xbe290975	-0.16507514
105	0x3db47b02	0.088125244
106	0x3cdd9ba9	0.027051764
107	0x3dd369e2	0.1032293
108	0x3df41570	0.119181514
109	0x3da82b66	0.082114026
110	0xbe4642cc	-0.19361418
111	0xbe1b2b75	-0.15153296
112	0xbd863980	-0.06553936
113	0x3d9cfeab	0.076657616
114	0x3d6da6cd	0.0580204
115	0xbe5f2f3e	-0.21795365
116	0xbe683bae	-0.22679016
117	0xbe5c75ec	-0.21529359
118	0xbde3d5f6	-0.11124794
119	0xbe50d4b7	-0.20393644
120	0x3db6906e	0.089142665
121	0x3de2d543	0.11075833
122	0xbe42f922	-0.19040349
123	0xbdad4d3d	-0.08461998
124	0xbdd3b961	-0.103380926
125	0xbdb46b09	-0.08809478
126	0xbdf42f60	-0.119230986
127	0xbcd9c982	-0.026585344
128	0xbeb78e0a	-0.35850555
129	0x3dc6640f	0.096870534
130	0xbec2801d	-0.37988368
131	0xbd73c425	-0.05951323
132	0x3e69ea37	0.22843252
133	0xbd19cb8a	-0.037547626
134	0xbe9fcab1	-0.3120933
135	0xbe1185f5	-0.14211257
136	0x3e879813	0.2648321
137	0xbcaa0149	-0.020752566
138	0x3e2617f0	0.16220069
139	0x3e75a0be	0.239871
140	0xbea7a063	-0.32739553
141	0xbe407154	-0.18793231
142	0x3db4bdeb	0.088252865
143	0x3e3dfe22	0.18553975
144	0xbe1959b2	-0.14975622
145	0x3d5c70ee	0.053818636
146	0x3db00394	0.085944325
147	0xbedfdd1d	-0.43723384
148	0xba89d233	-0.0010514915
149	0x3dfa8164	0.122317106
150	0xbdea3958	-0.11436719
151	0x3eda6bcc	0.42660367
152	0x3dc61b6b	0.09673198
153	0x3e04f387	0.12983523
154	0xbe920da5	-0.28526035
155	0x3e7ff1df	0.2499461
156	0xbe6966b0	-0.22793078
157	0xbc0c7601	-0.008573056
158	0xbed07bac	-0.40719354
159	0x3dd0ad24	0.10189274
160	0x3e2ed81b	0.17074625
161	0x3ca018be	0.019543048
162	0x3d9fcc4a	0.07802637
163	0xbe97500f	-0.29553267
164	0xbe12328c	-0.14277095
165	0xbed078c3	-0.40717134
166	0x3dc0998b	0.09404286
167	0xbe54f52a	-0.20796648
168	0x3ec866a9	0.39140823
169	0xbce99e25	-0.028517792
170	0x3d8b27ba	0.067946866
171	0xbc5e440b	-0.013566027
172	0xbe8738e2	-0.26410586
173	0xbde3b0c2	-0.11117698
174	0xbcaaddd8	-0.020857736
175	0xbe593c10	-0.21214318
176	0xbf0ce6cd	-0.55039674
177	0x3ed42cb9	0.4144037
178	0x3e9ac37e	0.30227274
179	0x3d994397	0.07483595
180	0xbe4c3d8d	-0.19945355
181	0x3ec1127c	0.37709415
182	0x3db83769	0.08994944
183	0xbdb04d86	-0.086085364
184	0x3f05377b	0.5203778
185	0x3e6a7560	0.22896338
186	0x3e304654	0.17214328
187	0x3e9d5912	0.30732018
188	0xbef58d5a	-0.47959405
189	0xbe1d2eaa	-0.15349832
190	0xbdf9aeea	-0.12191565
191	0xbf10e5a6	-0.56600416
192	0x3ec4d83d	0.38446227
193	0x3db4808d	0.088135816
194	0x3e57bf2b	0.21069019
195	0xbdf97a70	-0.12181556
196	0xbdeb232c	-0.11481318
197	0xbc031791	-0.008001224
198	0x3eb5805a	0.35449487
199	0x3e8c5d8e	0.27415127
200	0x3c4472b3	0.011990237
201	0x3dae6364	0.08515051
202	0xbd694c9c	-0.056957826
203	0xbea70ae6	-0.32625502
204	0x3e98ca20	0.2984171
205	0x3e15cf5c	0.14629883
206	0xbdf949e0	-0.12172294
207	0x3c865e5a	0.016402412
208	0x3dd7a6bc	0.10529849
209	0x3d74caea	0.059763826
210	0xbcf61af2	-0.030042145
211	0x3f0e785d	0.5565241
212	0xbc7d9ba9	-0.015479007
213	0xbe2d47d8	-0.16921937
214	0xbc29b006	-0.010356909
215	0xbef96883	-0.4871255
216	0xbe38f7d6	-0.18063292
217	0xbc260119	-0.010132098
218	0x3ec5e7fd	0.38653556
219	0xbe98b079	-0.29822138
220	0x3cc29a5d	0.023755247
221	0x3e77319c	0.24140018
222	0x3e2b3695	0.1672004
223	0xbdf55dd6	-0.119807884
224	0xbd5d0880	-0.053963184
225	0x3cff01fc	0.031128876
226	0xbdf61494	-0.12015644
227	0x3e34ada0	0.17644358
228	0x3ca4ce59	0.020117925
229	0x3e438c60	0.19096518
230	0xbe23c666	-0.15993652
231	0x3e1121d7	0.14173065
232	0xbeacf796	-0.33782643
233	0x3d5d2ec5	0.05399968
234	0x3bee7f50	0.0072783604
235	0xbd6d0c3a	-0.05787299
236	0x3e0ae2f1	0.13563134
237	0x3e76fd22	0.2412
238	0x3e449bb1	0.19200017
239	0x3e84d78d	0.25945702
240	0x3f12fd5b	0.5741784
241	0xbec9f2f6	-0.39443177
242	0xba46024f	-0.00075534446
243	0xbe23d895	-0.16000588
244	0x3e16e32c	0.14735097
245	0xbe523c30	-0.20530772
246	0x3de2cdf1	0.110744365
247	0xbdff01e2	-0.12451531
248	0xbefa0389	-0.48830822
249	0xbe76e4ff	-0.24110793
250	0xbe08dbbc	-0.13365072
251	0xbdceb95a	-0.10093947
252	0x3ee0f9a9	0.43940476
253	0x3ce08142	0.027405385
254	0x3d4f68ae	0.05063694
255	0x3ef2e390	0.4743924

hidden_layers.0.0.bias f4 [64]
0	0x3e113573	0.14180546
1	0xbc9c086e	-0.019046988
2	0xbe312b88	-0.17301762
3	0x3e1dec8c	0.15422267
4	0x3e5e6402	0.21717837
5	0x3db5ef6d	0.088835575
6	0x3e4dadf8	0.20085895
7	0x3e80fe14	0.25193846
8	0xbe13a9ad	-0.14420195
9	0x3e0512bd	0.1299543
10	0xbd75d5ff	-0.060018536
11	0xbcab4cb6	-0.020910602
12	0x3e46ce52	0.19414642
13	0xbe7a658d	-0.24452801
14	0xbdad99c6	-0.084765956
15	0x3e60483f	0.2190256
16	0x3d7ec4c9	0.062199388
17	0x3d4bd858	0.04976687
18	0xbea8d680	-0.3297615
19	0xbdaa08a0	-0.08302426
20	0xbe06488b	-0.1311361
21	0x3c2792f6	0.010227909
22	0x3bd8aab1	0.006612145
23	0xbe0ec5b8	-0.13942611
24	0x3cb3ef5e	0.021964725
25	0x3e2427fa	0.16030875
26	0xbb1d46cd	-0.00239985
27	0xbc8f0b4a	-0.017461438
28	0x3e051ff2	0.13000467
29	0x3db35bc4	0.08757737
30	0x3d8798a1	0.066209085
31	0x3da00dbc	0.078151196
32	0xbce25f4d	-0.027633334
33	0x3d92ffb4	0.07177678
34	0x3d0a05a4	0.033696786
35	0xbd225c4c	-0.039638802
36	0xbdb48e90	-0.08816254
37	0x3e03b699	0.12862624
38	0xbe113fdd	-0.14184518
39	0x3cafbf96	0.02145366
40	0x3e08d761	0.1336341
41	0x3d692dde	0.056928508
42	0x3d720ff5	0.05909725
43	0x3df37c8d	0.118889906
44	0xbd6f7f39	-0.05847094
45	0x3dbe8cb0	0.09304178
46	0x3c2176d8	0.009854995
47	0x3e33fc86	0.17576799
48	0x3ea127e7	0.31475756
49	0x3c5aab1f	0.0133464625
50	0x3d5190f0	0.051163614
51	0xbe16efdf	-0.14739941
52	0xbd7bb28a	-0.061449565
53	0xbc94b660	-0.01815337
54	0xbe5113ed	-0.20417757
55	0xbde98afc	-0.11403462
56	0x3e002adf	0.12516354
57	0x3da28490	0.079354405
58	0xbd803871	-0.06260765
59	0xbcb66d30	-0.022268862
60	0xbe841b0a	-0.2580188
61	0xbe99249c	-0.29910743
62	0x3e61ee19	0.22063483
63	0x3e43610f	0.19079994

output_layer.weight f4 [1, 64]
0	0x3e865cda	0.26242715
1	0x3e4e7df1	0.2016523
2	0xbe80f16e	-0.25184196
3	0x3e91ff7c	0.28515232
4	0xbe43e1d4	-0.19129115
5	0x3eab812a	0.33496982
6	0x3ea16e20	0.3152933
7	0x3e23cb14	0.15995437
8	0xbe7b1541	-0.24519826
9	0xbe827bcc	-0.25485075
10	0x3e304ab7	0.17216001
11	0x3ecf5a5b	0.40498623
12	0x3e8067c6	0.25079173
13	0x3ec97816	0.3934943
14	0x3e84f122	0.2596522
15	0x3e7ab590	0.24483323
16	0xbe6e73c0	-0.23286343
17	0xbe520c40	-0.20512486
18	0xbe7c3841	-0.24630834
19	0xbece9600	-0.40348816
20	0x3ebbdba9	0.36691025
21	0xbe825df9	-0.2546232
22	0x3ece7c98	0.40329432
23	0x3e9b7960	0.3036604
24	0xbecd0e93	-0.40050182
25	0x3e63a1af	0.22229646
26	0x3e862df2	0.26206928
27	0xbe98179e	-0.29705518
28	0xbe74d207	-0.23908244
29	0xbdd0e133	-0.10199203
30	0xbea38378	-0.3193624
31	0x3e6f0998	0.23343503
32	0x3e0866cb	0.13320462
33	0xbe267135	-0.16254123
34	0xbe69410e	-0.22778723
35	0x3e595fad	0.21227904
36	0x3eb7d151	0.35901883
37	0xbe985bce	-0.2975754
38	0x3e75e1c0	0.24011898
39	0xbea47a8f	-0.32124755
40	0xbea7b5c5	-0.32755867
41	0x3e4ecc7a	0.20195189
42	0x3eb0c5c5	0.34525886
43	0xbe853ef2	-0.26024586
44	0x3e3a0897	0.1816734
45	0x3e52405c	0.20532364
46	0x3e4e3b98	0.2013992
47	0x3ee26532	0.4421783
48	0xbee39560	-0.44449902
49	0xbe4c330e	-0.19941351
50	0x3ec93215	0.39296022
51	0xbe17047a	-0.14747801
52	0xbe60d0c5	-0.2195464
53	0xbe78b346	-0.24287137
54	0xbe1fe11f	-0.1561322
55	0x3e59f600	0.21285248
56	0x3eb9a104	0.36255658
57	0xbe01e662	-0.1268554
58	0xbe912f0d	-0.2835621
59	0xbe823ff3	-0.25439414
60	0x3ea4da14	0.3219763
61	0xbea65f17	-0.32494423
62	0xbe6606c5	-0.2246352
63	0xbe318035	-0.17334063
