pytorch/Laplace_eq_outputs/model_lr_1_layers_0_lambda_2.pt (torch, 7898 bytes, 5 tensors)

input_layer.0.weight f4 [32, 2]
000000 17 25 5f 3f d9 dd 84 be ef cf 4d 3f b6 a1 17 3e
       0.8716597 -0.25950506 0.80395406 0.14807782
000010 11 65 5d 3d e9 0c 55 bf 0d ff 9c be bb a8 1a 3f
       0.054051463 -0.83222824 -0.30663338 0.6041371
000020 9d 8d 06 3d 3c ac 90 bf 24 1c 7e bd 7f ef 8d bf
       0.032849897 -1.1302562 -0.062038556 -1.1088713
000030 6c a4 25 bf f2 c1 76 be 12 45 5e bf 48 04 9a 3e
       -0.6470401 -0.24097422 -0.8682414 0.3008139
000040 43 0e 36 bf a3 9a 40 3f 10 80 9c bf 69 bf 8e 3f
       -0.7111551 0.75235957 -1.2226582 1.1152164
000050 5b 10 a0 3f ef b0 8b bf b9 5b c5 3c f2 9f 9e 3f
       1.2504991 -1.0913371 0.024091588 1.2392561
000060 cc 6e 95 3e 97 fd 6e bf 3e 90 5e 3f 2d 85 1e 3b
       0.29186094 -0.933557 0.86938846 0.0024188266
000070 30 04 b9 be 10 b8 6d 3f c9 c9 50 3f 1b 8a 33 3f
       -0.36136007 0.9285898 0.815579 0.7013261
000080 3a e2 8d bf c7 2d a8 3f cc 05 c8 bd f5 28 5a 3f
       -1.1084664 1.313897 -0.09766731 0.85218745
000090 d1 03 34 bf b1 1f 5d 3f 6f 7c 3c bf 90 5b 39 bf
       -0.70318323 0.8637648 -0.7362737 -0.7240534
0000a0 f5 24 04 3f d0 43 20 bf ff 37 3b 3f b3 93 03 be
       0.5161889 -0.62603474 0.7313232 -0.12849312
0000b0 55 1e a8 bd 45 12 e8 be ae 4d 88 3e bd 4e 60 bf
       -0.082089104 -0.4532644 0.26621765 -0.87620145
0000c0 74 26 fa 3e 84 00 1b bf a2 97 08 be 12 ca a5 bf
       0.48857462 -0.6054766 -0.13339093 -1.2952292
0000d0 3d 65 4b bb 53 ea 6f 3f 53 4c 0c be 7f fd 8d 3f
       -0.0031035685 0.93716925 -0.1370099 1.1092986
0000e0 ec 8f 2d 3e a7 c1 98 bf 38 3f c9 3e b9 23 5b 3f
       0.16949433 -1.1934098 0.39306045 0.85601383
0000f0 73 df 6c 3f f9 9f b4 be c3 24 0b bf 75 ca 58 be
       0.92528456 -0.352783 -0.5435297 -0.21170981

input_layer.0.bias f4 [32]
000000 56 27 89 3f 24 7f 2c bf 2b ad 4f 3f e3 10 53 3c
       1.0715129 -0.673815 0.8112361 0.012882444
000010 c0 c6 81 bf 18 4c 7a 3f 3d a2 8f bf 1a d0 0a 3f
       -1.0138779 0.9777236 -1.1221386 0.5422379
000020 3d 82 cd be d7 33 37 3d 31 e0 b0 bd c0 08 87 3f
       -0.40138426 0.044727173 -0.08636511 1.0549545
000030 d3 78 52 bf 95 f9 44 3f f0 00 7e 3f c0 a0 98 3e
       -0.82215613 0.7694333 0.9922018 0.29810143
000040 c7 14 ee 3d f1 53 72 bf a3 bc 37 3e fc 87 db 3e
       0.11625057 -0.94659334 0.17943053 0.42877185
000050 07 92 32 3e 30 e8 53 bf 4f 92 ec bc 3b d2 73 3f
       0.17438518 -0.82776165 -0.02887836 0.9524266
000060 6a 89 e9 bd d7 65 96 bf 78 74 81 bf 2e 6b 84 bf
       -0.11403163 -1.1749829 -1.0113668 -1.0345209
000070 9f 69 9b bf 03 36 4d 3e 09 09 8f bf 73 a7 0a bf
       -1.2141608 0.20040135 -1.1174632 -0.5416176

hidden_layers.0.0.weight f4 [32, 32]
000000 0a 4f fa be 24 7e d7 3e 57 f6 4b bf 95 fc a9 3e
       -0.48888427 0.42088425 -0.7967276 0.33200517
000010 8f 65 6b 3e ef 66 4a bf 4e 58 3a 3d a7 be 94 be
       0.2298796 -0.79063314 0.04549437 -0.29051706
000020 b1 36 cc bd 93 6f 85 bd 84 c8 ae 3e 4a d0 54 bd
       -0.09971369 -0.06515422 0.34137356 -0.051956452
000030 68 a1 0f bd 4c 87 8a be 9b bc 28 be 76 0b a0 3e
       -0.03506604 -0.27056348 -0.16478197 0.31258744
000040 86 e9 c7 bd 94 1d 4c 3f 1d 69 f0 bc ae 7d 10 bf
       -0.09761338 0.7973263 -0.029346997 -0.5644177
000050 23 f1 97 be 53 27 8b 3e 87 8f dc be 7b 34 49 bf
       -0.2967616 0.2717844 -0.43078253 -0.78595704
000060 5c 37 fe bb 7b 09 46 3e 5a c8 6b 3f cd 46 6f 3f
       -0.007758064 0.19339554 0.9210259 0.9346741
000070 d4 bc 8a 3e 55 20 61 3d 67 01 8a 3e b7 80 34 be
       0.2709719 0.054962475 0.26954195 -0.17627226
000080 e5 cf af bd 4a 87 b6 3b 7c 47 a3 3d 16 7b 76 3e
       -0.085845746 0.005570327 0.07972619 0.24070391
000090 eb 5a 25 bf 66 e1 46 bd f7 a3 d3 be d5 a5 fc 3e
       -0.64591855 -0.0485548 -0.41336033 0.4934527
0000a0 2f f2 d4 3b 6c 84 ab bd e5 00 cd 3d 97 cb 68 3f
       0.006498597 -0.08374867 0.10009936 0.90935653
0000b0 bc 82 19 bf 07 14 81 3e d6 99 0d 3f 2f 56 2c 3f
       -0.5996511 0.25210592 0.5531286 0.67319006
0000c0 fd 9a 5d 3e 33 2e a2 be 82 f9 02 3f 9b 69 7f be
       0.21641155 -0.31675872 0.5116197 -0.24942629
0000d0 3e 1e 8b be e3 5d 07 be 1e ec b5 be 1c 1f 7b 3e
       -0.2717151 -0.13219409 -0.35531706 0.24523586
0000e0 b8 73 7d be 8e a3 7a bf 06 7a b9 bd 11 3a b4 be
       -0.24751174 -0.97905815 -0.09056477 -0.3520055
0000f0 e0 4d 08 bf 86 70 20 3f ce ab 24 be ab 34 a1 be
       -0.5324383 0.626717 -0.16081163 -0.31485495
000100 5f bb bf 3e f0 42 8d be 62 cb 5b 3f d5 b5 ec be
       0.3744764 -0.27590132 0.8585721 -0.46232477
000110 89 39 01 3e 9e e0 42 3f 8e 9e 56 be 61 9d a6 3d
       0.12619604 0.7612399 -0.20958921 0.081354864
000120 a9 b3 34 be 27 aa 0b bd 60 ea c1 3d 88 84 13 3d
       -0.1764666 -0.034097817 0.094685316 0.036015064
000130 a6 8f dd 3d 24 41 11 be ad 61 a9 3e 7e 32 32 be
       0.108184144 -0.14185005 0.33082333 -0.17402074
000140 7c ec 89 3d 28 bf 52 bf 9c 85 13 be 90 e8 2f 3f
       0.06734559 -0.8232293 -0.14406437 0.6871424
000150 11 cc a2 3e f9 b0 f6 be 27 66 1e 3f 97 31 1e 3f
       0.31796315 -0.48181894 0.6187462 0.6179442
000160 a3 ba b3 3e 5e 32 c8 bd 96 53 49 bf f9 64 6f bf
       0.3510333 -0.09775232 -0.78643167 -0.9351345
000170 b0 fe 5e 3d 4b 1a a8 be b2 f8 b1 be 10 c8 6e 3c
       0.054442108 -0.3283256 -0.34760052 0.014574066
000180 e7 ed 5b be ab cc 83 3e 62 4e 50 bf 5e 92 d1 3e
       -0.21477471 0.25742087 -0.813696 0.40931982
000190 4f 2e e3 3d c7 ac 46 bf 2c aa 49 3e d3 34 5e 3d
       0.11092817 -0.7760739 0.19693822 0.054249596
0001a0 bb a5 d7 3e 27 2b ae 3d c8 10 38 3e df c2 1f 3d
       0.4211863 0.085043244 0.17975152 0.039004203
0001b0 6d ef 21 bd 8d 36 be 3c 5b a8 98 be dc d8 05 3f
       -0.039534975 0.023219371 -0.29815945 0.52284026
0001c0 14 10 28 3d 92 83 6d 3f 86 b4 96 3e 5c 9a 47 bf
       0.04103096 0.92778885 0.29434603 -0.7796991
0001d0 c7 c7 dc be d1 ae bd 3e 61 e2 10 bf 09 65 7a bf
       -0.43121168 0.37047437 -0.56595427 -0.9781042
0001e0 22 8a 21 be 6c ae c7 3d 78 22 4f 3f e5 8b 79 3f
       -0.1577535 0.09750065 0.8091197 0.9747909
0001f0 aa 83 d3 3e dc 7d af 3e 67 cf d0 3e c7 63 d2 bc
       0.4131139 0.3427571 0.40783235 -0.025682343
000200 48 b1 64 bd 2b 62 2e 3e d1 4f 63 3d 9f d1 93 be
       -0.05583313 0.17029636 0.05549604 -0.28870866
000210 dd 29 20 3e bd bd 89 3d 06 67 77 3e b5 95 8d be
       0.1564097 0.06725643 0.24160394 -0.2765328
000220 37 7f 35 be 8a 71 a4 3e 50 42 e6 bd 28 1a b0 3c
       -0.1772431 0.32117873 -0.11243117 0.021496847
000230 49 ad 52 3d 5a 0e a3 bd b3 5d 20 bd c0 bd b7 3e
       0.05143479 -0.07961722 -0.03915186 0.35886955
000240 21 59 ce bd 3d b5 c3 bd d7 a3 70 be d4 c8 7d be
       -0.10075594 -0.09556053 -0.235 -0.24783641
000250 85 c0 1c 3e 30 de b3 3e 19 67 b1 3e 2f 5c 03 3e
       0.15307815 0.35130453 0.3464897 0.12828134
000260 39 87 a1 3e 59 f9 93 3d c8 b0 62 bd 78 81 ae be
       0.3154848 0.07225294 -0.055344373 -0.34083152
000270 c1 4a c9 3e a6 c1 ea 3d 6e 8f ab 3e c2 51 8f 3e
       0.39314845 0.11462717 0.33507866 0.27992064
000280 07 9d c0 be a4 b2 4c 3d 8c dd 0e be a4 b4 29 bf
       -0.37619802 0.049975052 -0.13951701 -0.6629126
000290 69 03 5b 3f 74 9d 42 3e 49 a0 1d 3f b0 70 e2 3d
       0.8555208 0.19005376 0.615727 0.1105665
0002a0 1c 43 2a 3e da 24 f5 bc 0e 50 0f bb a5 3e 68 bf
       0.16627163 -0.029924799 -0.0021867785 -0.9072059
0002b0 e1 92 72 3f af 90 0b 3e 52 38 51 bf d5 fa 20 bf
       0.9475537 0.13629411 -0.8172656 -0.6288274
0002c0 ab a9 08 3e 3a 80 a3 3e af e7 90 be 76 ed ec 3e
       0.13345973 0.31933767 -0.2830176 0.46274918
0002d0 17 f9 b5 3e 92 62 90 3e 4e a5 2a 3f 57 77 3a be
       0.35541603 0.28200203 0.66658485 -0.18209587
0002e0 b8 d1 2d 3f 5c 6c 6c 3f e0 39 76 3e 63 95 fb bd
       0.6789813 0.92352843 0.24045515 -0.12284353
0002f0 38 f7 76 3f 48 40 4f bf 07 4e 98 3e eb 1b 3c 3f
       0.96470976 -0.8095746 0.2974703 0.734801
000300 91 02 bc be 2d e2 7b 3e e3 16 66 bf 64 cb e5 3e
       -0.36720708 0.24597998 -0.8987867 0.44881737
000310 66 35 55 3e 4f c1 23 bf fd 3d 9a 3d 53 55 99 be
       0.20821151 -0.6396684 0.075313546 -0.2994791
000320 f1 63 25 3e 31 6e b3 bd 1f 4c bd bd d4 dc 79 be
       0.16151406 -0.08761252 -0.092430346 -0.24400645
000330 74 98 8d 3d f5 18 00 3a 5d 2f 01 bd 72 cc ba 3e
       0.06913844 0.00048865314 -0.03153931 0.36484104
000340 3e 61 04 bc 4d aa 49 3f 1c aa 90 3e 63 3f 41 bf
       -0.008079825 0.78775483 0.28254783 -0.75487345
000350 01 35 a4 be 0d 5c b7 3e 5c 81 f7 be 29 db 36 bf
       -0.3207169 0.35812417 -0.4834088 -0.7142816
000360 cc fa b5 be ec bc 09 3e 7a 76 40 3f 24 7d 4c 3f
       -0.35542905 0.13450974 0.7518078 0.7987845
000370 4c 80 26 3d f8 d1 14 3e e4 43 cd 3e c1 9c 19 3d
       0.040649697 0.14533222 0.4009086 0.037503008
000380 83 61 14 3d 8a 8c fc 3d 19 12 c2 bc 69 2b 61 3b
       0.036225807 0.12331493 -0.02369027 0.003435815
000390 37 78 04 bf a7 54 82 3e 42 44 25 be 57 22 b4 bd
       -0.51745933 0.2545521 -0.1613932 -0.08795612
0003a0 84 13 a2 bd 5b 7b 40 bd 17 b3 18 bd 4d 54 9e 3d
       -0.079138786 -0.04699264 -0.03728017 0.07730923
0003b0 27 e2 97 be 60 82 f1 3d 50 38 ae 3e 3f 44 ce 3e
       -0.29664728 0.11792445 0.34027338 0.40286443
0003c0 7f 4e c2 3e ff 72 a0 3d 35 c2 dc 3e 29 3c 0e be
       0.37950513 0.07834434 0.43116918 -0.13890137
0003d0 89 5b 4e be 3a 21 7b 3e 4a dc cf bd 0d c3 5d 3d
       -0.20152105 0.24524394 -0.10149439 0.054141093
0003e0 b9 1f fb bc 76 97 ef be 25 11 31 be d3 fd 1c be
       -0.030654775 -0.46795243 -0.17291696 -0.15331201
0003f0 5c c7 16 bf 28 61 ad bd c6 1b b2 bd ef 81 c7 be
       -0.5889795 -0.08465797 -0.086967036 -0.3896632

hidden_layers.0.0.bias f4 [32]
000000 ee f5 9c be 77 40 ec 3e 22 27 15 3e d3 cb f2 be
       -0.3065638 0.46142933 0.14565709 -0.4742113
000010 55 a7 1f be c8 fd 7c be 45 57 ed be 44 d0 fb 3d
       -0.15591176 -0.24706185 -0.46355644 0.12295583
000020 c8 a4 0b 3f 48 21 45 3e e8 c8 0f be a7 04 90 3e
       0.5454831 0.19250977 -0.14041483 0.2812855
000030 50 58 07 be f8 fc 4f 3c 5a b3 5b 3d 46 d6 fe 3c
       -0.13217282 0.01269459 0.05363784 0.031108033
000040 08 7a e7 3d 22 8a 17 3e 31 95 13 be 1f 3d 79 3b
       0.113025725 0.14798787 -0.14412381 0.0038030816
000050 3a a1 b0 3c a1 3e 82 3e c0 28 38 be 82 ec 81 be
       0.021561254 0.25438407 -0.17984295 -0.25375754
000060 c1 e9 2f 3e 04 04 bf bd 65 fc 75 bd f5 21 97 3c
       0.17179014 -0.09326938 -0.060055155 0.01844881
000070 be 4c 3a be 2e 2c 3b bd 4a 07 c4 3e 99 f0 3a be
       -0.18193337 -0.04569643 0.3828681 -0.18255843

output_layer.weight f4 [1, 32]
000000 d7 3e be be ee 73 07 bf 28 cc 1b bf 94 87 fa be
       -0.37157318 -0.5291127 -0.6085839 -0.48931563
000010 27 a8 bd 3e 2e 5b 0d bf 62 19 cc be 7c 12 71 be
       0.37042353 -0.55217254 -0.39863116 -0.23542207
000020 75 e4 e7 3e 1b 1b ee be 27 f8 e7 3e 51 92 b5 be
       0.45291486 -0.46505055 0.45306513 -0.35463193
000030 c9 2b aa 3e be db d6 be fb 39 61 3e f4 6e df be
       0.3323653 -0.41964525 0.21994774 -0.43639338
000040 81 ff e9 be 5e 8f bf 3e fd c9 af 3e e0 38 12 bf
       -0.45702747 0.37414068 0.34333792 -0.57118034
000050 01 85 d7 3e e5 92 fb be 19 61 1f 3f 59 d1 e5 3e
       0.4209366 -0.4913551 0.62257534 0.44886282
000060 63 1d 04 3f fd bc c6 3e 0c 36 08 3f 9a 35 c5 be
       0.5160734 0.38816062 0.5320747 -0.38517457
000070 8f 2c 82 be 18 ef b7 3e 09 96 03 bf 5f ca cb be
       -0.2542462 0.35924602 -0.5140081 -0.39802834
