pytorch/Laplace_eq_outputs/model_lr_0_layers_1_lambda_0.pt (torch, 20826 bytes, 5 tensors)

input_layer.0.weight f4 [64, 2]
000000 ca 2b 84 be cc 82 65 bf ba 93 1d bf 50 ea 08 bf
       -0.25814658 -0.89652705 -0.6155354 -0.5348253
000010 04 09 55 3f 4c 82 46 bf 53 7c 4e 3e 76 12 0e bf
       0.8321688 -0.7754257 0.20164613 -0.5549692
000020 7e 2f 19 3d 3c 47 24 bf d9 9d 97 3f 38 ce d3 be
       0.037398808 -0.64171195 1.1845046 -0.4136827
000030 03 3c 54 bf 82 99 53 3f 2a 77 03 bf 86 5a 15 be
       -0.8290407 0.8265611 -0.51353705 -0.14585313
000040 85 9b 03 be c5 f2 82 3f 5f 90 0f 3f b3 62 17 3f
       -0.12852295 1.0230337 0.5607967 0.5913498
000050 f0 e1 e8 3e 16 f4 74 bf 37 7d b0 3c d1 f7 53 bf
       0.45484877 -0.95684946 0.021544082 -0.8280001
000060 b3 bf 7b bf e4 fd 87 3f 20 f3 1c 3d 5e 75 6e 3f
       -0.98339385 1.0624356 0.0383178 0.9314784
000070 e4 9d 12 be 13 8b 43 3f 35 78 85 3e d5 0c 4f 3f
       -0.14318043 0.76384085 0.26068273 0.80878955
000080 fe f0 05 3e 21 25 a5 bf 39 d2 72 bf 6e b3 47 3f
       0.13080212 -1.2901956 -0.94852024 0.7800816
000090 e3 a1 13 bf 61 18 85 3e 82 b1 5a 3f 25 db 39 3f
       -0.57668895 0.25995162 0.85427105 0.72600013
0000a0 f5 67 72 bf 90 85 f0 3e eb 50 cf bb 8a b8 80 bf
       -0.94689876 0.469769 -0.006326785 -1.0056317
0000b0 98 af 90 3f 56 38 97 bf d1 fd d8 3e 61 a4 4c bf
       1.1303587 -1.1814067 0.42381147 -0.7993832
0000c0 cb 69 f8 3d 27 f2 8d bf 41 b6 c6 3d a0 62 4f 3f
       0.121295534 -1.1089524 0.09702731 0.81009865
0000d0 36 0c 6d be 1e 25 d6 be c3 f6 f9 3e 96 c6 f8 bd
       -0.2314919 -0.41825193 0.48821077 -0.12147252
0000e0 2a e2 68 bc 06 07 0a 3e ef e1 79 3f 2c f5 62 3e
       -0.014214078 0.13479242 0.9761037 0.22163838
0000f0 00 4c ec 3e 83 18 59 3f b8 46 f0 3c 9c 08 8a 3f
       0.46151733 0.84803027 0.029330596 1.0783877
000100 eb 40 a1 bf 6b dc 96 3f 25 70 07 3f 77 7e df be
       -1.2597936 1.1786016 0.52905494 -0.43651173
000110 69 33 0f 3f ff 6a fd 3e e2 3e 03 bf 31 b5 34 be
       0.5593782 0.49495694 -0.51267827 -0.17647244
000120 e7 26 d0 3b 24 e6 b0 bf df 0c 03 3f 65 97 39 bf
       0.006352294 -1.3820233 0.51191515 -0.72496635
000130 18 8f ca bd 4c 9c 72 3f af 6b 2b bb d0 65 39 3f
       -0.09890574 0.9476974 -0.0026156714 0.7242098
000140 36 a7 3e bd 83 45 59 bf 99 94 87 3e 71 d6 3d bf
       -0.046546184 -0.8487169 0.2648056 -0.74155337
000150 48 e6 3f bf 53 d6 ca be 65 d3 93 3f 8a 52 28 be
       -0.74960756 -0.3961664 1.1548887 -0.16437736
000160 65 2e f1 be 81 90 c1 3e d2 d9 8d 3f a6 19 8d bf
       -0.4710571 0.3780556 1.1082098 -1.1023452
000170 3a 55 61 3f e9 2f 88 be c0 cd cb b9 9d 09 87 3f
       0.8802067 -0.26599053 -0.00038872473 1.0549809
000180 26 d1 ba 3d 33 4e 93 3f dc 36 f5 bc 48 13 95 3f
       0.09121923 1.150824 -0.029933386 1.1646509
000190 cd 9d 43 3f c7 67 72 3f b5 18 e8 3e bb 48 4e 3f
       0.7641266 0.946896 0.4533135 0.8057973
0001a0 df 53 1d bf 24 06 2e 3f 56 7b 0c 3d a2 fb 2c bf
       -0.614561 0.6797812 0.03429731 -0.6757146
0001b0 9f d3 6b 3f 85 4c ac be c7 41 0d 3f c4 3e 2f bf
       0.92119783 -0.3365213 0.55178493 -0.6845515
0001c0 31 03 21 bf aa 57 07 bf a0 21 36 bf 9a 42 54 bf
       -0.62895495 -0.5286814 -0.7114506 -0.82914126
0001d0 eb 1d 99 bd 3e 91 81 bf 8a 78 8b 3f f5 45 8e bf
       -0.074764095 -1.0122449 1.0896161 -1.1115099
0001e0 ac 15 59 bf 34 84 fd 3e a3 96 63 bf e6 45 4b 3f
       -0.84798694 0.49514925 -0.8890173 0.7940353
0001f0 82 da e3 bc 4c a1 81 3f 12 dd 19 3c 05 0a 71 bf
       -0.027814154 1.0127349 0.009391086 -0.94155914

input_layer.0.bias f4 [64]
000000 73 31 3b bf f5 1a 27 3e f1 b1 a9 bd e3 0c 23 bd
       -0.7312233 0.16318877 -0.08285893 -0.03980721
000010 4e 00 ff be 49 07 e1 be fe eb 2a bf 1b 12 36 3f
       -0.4980492 -0.4395087 -0.66766346 0.71121377
000020 fc 30 84 bf 0b a5 15 3c d1 2c 82 3f c4 b3 65 3f
       -1.0327449 0.009133588 1.0169927 0.89727426
000030 a8 07 55 bf 84 f3 80 3f 55 8d 12 3f 2a 25 50 bf
       -0.8321481 1.0074315 0.57246906 -0.8130671
000040 a5 ef 95 bf 84 29 48 bf 55 d4 6d 3f 33 db 7b 3f
       -1.1713759 -0.7818835 0.9290212 0.98381346
000050 5a 26 f0 3e 96 ff 3d bf 5a 24 a2 bd 51 f2 2d 3f
       0.4690426 -0.7421812 -0.0791709 0.6794787
000060 86 f8 8b 3f 21 99 2e bf 45 f8 62 3f 3e 04 3c 3f
       1.0935218 -0.68202406 0.8866008 0.73443973
000070 7f 0f d0 be 0d 36 87 3f 56 87 2a bf f4 fd 82 bf
       -0.40636823 1.056337 -0.66612756 -1.023375
000080 83 a9 80 3e 36 83 b2 be 41 29 87 3e cd 1e 48 bf
       0.25129327 -0.3486573 0.26398662 -0.78172
000090 46 48 a0 bf 5f a9 52 3f 07 83 62 bf 72 64 b7 3e
       -1.2522056 0.8228969 -0.8848118 0.3581882
0000a0 dc 7e 4f 3f df 91 47 3f f0 75 07 3f 87 58 f7 be
       0.8105295 0.77956957 0.52914333 -0.48309729
0000b0 67 f7 4e bf 56 b8 5b 3d e7 8f 8e bf 76 45 7d 3f
       -0.80846256 0.053642593 -1.1137666 0.98934114
0000c0 5e 2a 97 3f 28 af 76 3f 4d 66 3e bf c6 e1 09 bf
       1.1809804 0.9636102 -0.7437485 -0.5386013
0000d0 e6 b4 6e be bd 69 6a 3f ba 87 98 bf e7 03 31 3e
       -0.23311195 0.91567594 -1.191642 0.17286645
0000e0 3d 7a 6f 3d b1 72 22 3f d5 99 7c 3f c0 77 05 be
       0.058466185 0.63456255 0.9867223 -0.13033962
0000f0 c2 22 2c bf 84 55 b8 3e aa 80 3a 3f ff b2 79 3f
       -0.67240536 0.36002743 0.72852576 0.9753875

hidden_layers.0.0.weight f4 [64, 64]
000000 5a f8 dd bc ab 1a be be 2b e2 9e bd 52 2d ab be
       -0.027095962 -0.3712972 -0.07757982 -0.33433014
000010 e3 a8 35 be 6f 7d c0 3c 86 cc 6c 3e 53 b0 f9 bc
       -0.17740206 0.023497311 0.23124894 -0.030479586
000020 cb dd ba 3f 73 33 b1 3e 0d 78 10 bf 10 30 e3 bf
       1.4598936 0.34609565 -0.5643318 -1.7749043
000030 ed 3a 0a 3f 4e f4 8c bd 33 09 07 3e e1 29 48 3f
       0.53996164 -0.06882535 0.13187103 0.781889
000040 7a 58 8f 3d d9 0c 44 3e 2c fc 99 3d 5c 5d 91 be
       0.069992974 0.19145526 0.07518801 -0.2839154
000050 5d a1 71 3d 63 65 59 bd 05 97 38 3d 31 3c 2a bf
       0.05899178 -0.053075206 0.0450659 -0.66498095
000060 91 ef d0 bf 6d 71 c7 3f b4 0f 8d be 4c 49 1d be
       -1.632311 1.558149 -0.27551043 -0.15359992
000070 9a 02 3d 3f 59 10 9a be 24 dd 2b 3f be 3f 25 40
       0.73832095 -0.30090597 0.6713431 2.5820155
000080 7c 84 8d be fd d3 38 bd 7b 67 b7 3e 0c 09 03 3d
       -0.2764014 -0.045124043 0.35821137 0.03199105
000090 73 1e e1 3d 04 d7 cf be a0 12 bd 3f f4 c0 e2 3e
       0.10992136 -0.4059373 1.4771309 0.44287837
0000a0 5a 00 02 c0 cf 14 4b bf e7 2e 4d be d3 78 9b 3d
       -2.0312715 -0.79328626 -0.20037423 0.07591405
0000b0 7c bb 96 3e 37 1e 25 bd 01 f9 0c be 83 74 0b be
       0.29439914 -0.04031202 -0.13766862 -0.13618664
0000c0 bf 90 9e bd 12 ca 8d bd 3a e1 5d 3f be 14 32 3f
       -0.07742452 -0.069233075 0.86671793 0.695629
0000d0 aa 30 79 3e 63 4b ac bf b7 13 10 be f6 b7 be be
       0.2433497 -1.3460506 -0.1407002 -0.37249726
0000e0 b3 6c b5 be c8 36 35 bf 9e a4 e0 bf 88 be 44 3d
       -0.35434493 -0.70786715 -1.7550237 0.048033267
0000f0 f0 f6 18 3d fb 0d 61 3e 53 22 2d 3e 80 12 11 c0
       0.037344873 0.2197799 0.16907625 -2.2667542
000100 63 33 d7 3e 08 a5 c9 bd d7 07 50 3d 65 78 21 3e
       0.42031392 -0.0984593 0.050788727 0.15768583
000110 7a ee 7d 3e 57 e6 e4 3c 0c a6 12 3d e5 4f 83 bd
       0.24798003 0.027941866 0.035802886 -0.06411723
000120 02 8d ad 3c a6 43 3f 3d 92 67 2f bc 0f 89 9a bd
       0.021185402 0.046695374 -0.010705845 -0.07545673
000130 bf 31 bc 3d b5 17 c8 be ef 74 a4 be e1 6c 11 bb
       0.09189176 -0.39080587 -0.32120463 -0.002219014
000140 09 f4 9c 3e 3b 18 05 3e 3c 02 9e be 9d cd c3 bd
       0.30654934 0.12997524 -0.3086108 -0.09560702
000150 20 f1 fa bd 6a 2c 00 3f a7 ef 11 bd be 66 0f 3e
       -0.12253022 0.5006777 -0.03562894 0.14004037
000160 c1 b6 06 3e d2 f1 38 bd b2 e7 c8 3b 10 d4 1d bd
       0.13155653 -0.045152493 0.006131136 -0.038532317
000170 a6 30 95 bd f4 5e bd bd 50 86 6a bd 5c da c7 bd
       -0.072846696 -0.092466265 -0.057256997 -0.097584456
000180 bf 35 28 3e a0 03 c9 3d 82 5a 2a bd a0 71 86 bd
       0.16426753 0.098151445 -0.04159022 -0.06564641
000190 52 ed c3 3e 4e 41 9a 3d f4 d5 64 bd 3b de d6 be
       0.38267 0.07531987 -0.055868104 -0.41966423
0001a0 37 ba 58 3d a8 b8 0f 3e 43 10 ec bd cd 1d 0f bd
       0.052911963 0.14035285 -0.11526539 -0.03494053
0001b0 4d 5e cf 3c 83 3e bd bd c6 63 a1 3e c6 4e cd be
       0.02531352 -0.09240439 0.31521434 -0.40099162
0001c0 e4 f2 01 bf 89 b4 ec be ce a2 56 3d 0d 38 4d bd
       -0.50761247 -0.46231487 0.052401356 -0.050102282
0001d0 76 08 73 bd 84 14 82 3d 7f 7e 14 3f 25 05 61 bd
       -0.05933424 0.06351569 0.5800552 -0.054936547
0001e0 03 1d 5a be bd 47 9a bd 1f ca 7e bd 21 30 3f bd
       -0.2130013 -0.07533214 -0.062204476 -0.04667676
0001f0 ba 2e a1 3c 1f 62 f3 3d 8f 9e cd be 84 7d 99 3d
       0.019675601 0.118839495 -0.40160033 0.07494643
000200 40 ac e4 bd 9f 58 81 bd 4b af 34 3e 74 a4 0c 3e
       -0.111656666 -0.06315731 0.17644994 0.13734609
000210 af a7 fe 3d 9e d2 db bc dc d6 cb be 51 2b f5 3d
       0.12434327 -0.026833829 -0.39812362 0.119711526
000220 02 66 f7 bd 6d fa 95 bd b8 95 06 3e f7 db a1 3d
       -0.12080003 -0.073231556 0.1314305 0.07903283
000230 44 c0 c6 be e6 f9 44 3d d2 34 27 3d 12 ce 4e 3d
       -0.38818562 0.048089884 0.040821858 0.050489493
000240 1f fe e9 bc ee 9e 1d be ea 53 64 3d 84 87 31 3e
       -0.028563557 -0.15392658 0.05574409 0.17336851
000250 92 ec d5 bd 40 06 43 be 63 18 b2 3d 27 aa d1 3d
       -0.10445513 -0.19045353 0.08696058 0.10237532
000260 a9 3e 5c 3e 6c 8b 31 be 30 91 8f bd 82 e2 07 3e
       0.21508278 -0.17338341 -0.07010114 0.1327
000270 af d0 39 3c f5 d6 6f 3e ec 18 f4 3c 99 b7 2b bd
       0.011341258 0.23421843 0.02979704 -0.04192314
000280 70 eb f0 bc 48 4c 19 3e bb a7 ef bd a0 44 de bc
       -0.02940914 0.14970505 -0.11701914 -0.027132332
000290 e7 f0 be bd 47 b7 4a 3e 59 96 65 be 8d de 6f 3d
       -0.09323292 0.19796477 -0.22420634 0.05856185
0002a0 77 e5 93 3d 56 34 99 3d d1 02 d9 bd e5 cd ce bc
       0.07221501 0.074806854 -0.1059624 -0.025244663
0002b0 11 34 06 bd 1c 48 ca 3d ce 59 80 bd 6e cd 01 be
       -0.0327645 0.09877035 -0.06267129 -0.12676021
0002c0 80 7b 94 3d 12 71 90 3d 2b f4 a0 3d 64 29 d7 3a
       0.07250118 0.070528165 0.07859071 0.0016415534
0002d0 cc 55 4d be ac 45 5e bb 72 be ab bd 75 6d 69 3e
       -0.2005226 -0.003391604 -0.08385934 0.22795661
0002e0 0c b7 a7 3d 6f a3 13 3d c2 3f 27 bd 84 d0 0d 3e
       0.0818921 0.036044534 -0.04083229 0.13849074
0002f0 84 9c 90 be d9 da 39 bd bf 05 bf 3d db 51 e6 3d
       -0.28244412 -0.045374725 0.09327268 0.112460814
000300 f5 96 80 3d ac cc 38 bd 52 32 82 3a ec 53 9e bd
       0.06278793 -0.045117065 0.000993321 -0.077308506
000310 46 57 1c 3e fc 9a 3e bd 8c 65 46 3f 66 4b 03 3f
       0.15267667 -0.046534523 0.774987 0.51286924
000320 c7 8b d7 3e 8b 42 4e 3c 4b 33 0f bf fc 5d 36 3d
       0.4209883 0.012589107 -0.5593764 0.044523224
000330 38 7b 0f 3f 8a 13 7a be 8f fc 29 bd 80 f9 0e be
       0.5604739 -0.24421516 -0.041500624 -0.13962364
000340 13 0d 69 3e c3 96 7b 3f 9f 2d 20 be 2e 0e 03 bf
       0.22758894 0.9827692 -0.15642403 -0.5119351
000350 ad 32 05 be ef 54 fd 3d d8 b5 96 bd a8 f0 4c bf
       -0.13007613 0.123697154 -0.07358903 -0.8005471
000360 df 2e 0c bf ad d8 13 bd 0d b8 10 3f 0d 50 7b bf
       -0.5475902 -0.03609531 0.5653084 -0.9816902
000370 5b fa 03 be e9 58 0c bf 65 8c a7 3e 0d 8d 89 3e
       -0.12888472 -0.54823166 0.327243 0.26865426
000380 4f c2 1d bc 5c 0b a0 bd 72 ca 2e be 75 27 42 3f
       -0.009628846 -0.07814667 -0.17069414 0.75841457
000390 65 48 bb 3e 2b 66 ac bf 15 12 e2 3e 2d e2 ca 3c
       0.3657867 -1.3468679 0.4415442 0.024766052
0003a0 ee 12 29 be c5 32 02 bf ab 00 10 3f f3 45 81 be
       -0.16511127 -0.5085872 0.5625102 -0.2524868
0003b0 f8 46 9d 3f d7 ef 91 bd b8 1d 3c ba 59 1b 2b be
       1.2287283 -0.07125824 -0.00071760593 -0.16709651
0003c0 bd 80 9f be 15 c1 80 be 61 b6 40 bc 22 41 31 3d
       -0.31152907 -0.2514731 -0.0117622325 0.043275006
0003d0 75 33 93 3e 96 27 fb 3e ed cc ac bb 74 60 25 be
       0.28750196 0.4905364 -0.0052734525 -0.16150075
0003e0 9a 09 87 3d 06 7d 17 be 32 c3 9f be 04 01 2b 3e
       0.06593628 -0.14793786 -0.3120361 0.16699606
0003f0 e3 34 4f 3f 63 7c e4 bd 22 a1 5d be 10 0d d1 bd
       0.80940074 -0.111565374 -0.21643499 -0.102075696

hidden_layers.0.0.bias f4 [64]
000000 73 66 64 be 8d 95 45 3c 8f 4d 8c bd ee 4d 1f be
       -0.22304706 0.0120595815 -0.06850731 -0.15557072
000010 61 62 28 3d 7b 14 0a 3d 18 ba 1f be 1c 95 b0 bc
       0.041109446 0.033710938 -0.15598333 -0.021555476
000020 7a 11 a3 bd e2 66 df bc 4f 7d fa 3e 00 c3 fd 3c
       -0.07962318 -0.027270738 0.48923728 0.030976772
000030 f3 40 b5 3d c5 44 25 3e 7a 6c 58 bc 26 0b 79 bd
       0.08850279 0.16139515 -0.013209457 -0.060801648
000040 b2 c4 6f be 16 48 df bb bc cc 3b bd 80 83 f0 bd
       -0.23414877 -0.0068140132 -0.045849547 -0.11743832
000050 e8 92 16 bf 87 dc 21 be fa ed 34 3e f3 d6 14 be
       -0.5881791 -0.15806781 0.17668906 -0.14535122
000060 23 ed 8b 3e 5f 54 c4 be 54 5b dc bc 0d 5e ed bd
       0.27329358 -0.3834562 -0.026899017 -0.115902044
000070 38 0d 87 bd 9d 54 ae bd b3 55 22 be 75 12 3c ba
       -0.06594318 -0.085122325 -0.15853004 -0.0007174381
000080 ef 4c bd 3e 01 3a 11 be d1 e5 d7 3c 2f 31 4f 3e
       0.36972758 -0.14182283 0.026354702 0.20233606
000090 d6 cd 87 bd 48 6a 7c be 90 15 c4 be 82 3a da 3c
       -0.06631057 -0.24649918 -0.382977 0.026639227
0000a0 ae fe 35 3d b0 0a 4a 3f f3 bb 8d be 82 0f 12 3c
       0.044432335 0.7892256 -0.27682456 0.00891483
0000b0 1c d4 07 3d fe 1c e9 3e 32 af d7 be 94 7f 65 be
       0.033161268 0.45529932 -0.4212585 -0.22411948
0000c0 4f 66 ca 3d 7f fa cb be 48 5a 21 bf 2a 5e ac bd
       0.09882795 -0.3983955 -0.63028383 -0.08416398
0000d0 5f 7e ac 3d e2 80 c1 3d 74 b9 c4 3b 19 68 eb bd
       0.08422541 0.094484106 0.006003553 -0.114944644
0000e0 07 43 c3 3d 48 80 26 be 4c d5 eb bc 56 7f e7 bc
       0.09534269 -0.16259873 -0.028788231 -0.02825896
0000f0 b8 57 f1 3c 8b 04 7c 3d b0 ba 95 3e 8e e6 f9 3d
       0.029460773 0.06152777 0.29243994 0.12202178

output_layer.weight f4 [1, 64]
000000 a2 d0 8c 3f ee 03 98 be 70 59 3e 3e 24 10 07 3e
       1.100117 -0.29690498 0.18588805 0.13189751
000010 39 20 6d 3e 1b 68 23 3e 00 eb fa 3d ff b4 09 bf
       0.23156823 0.15957682 0.12251854 -0.53791803
000020 04 57 92 be dd 61 6b be 54 c8 83 3e f8 31 3d 3e
       -0.28582013 -0.2298655 0.25738776 0.18476093
000030 65 18 b2 3e e9 6b 4d 3f 0f 47 13 be e2 66 2c 3e
       0.34784237 0.8024278 -0.14382575 0.16836122
000040 e0 af bd 3e c8 a3 43 3e 5a 2d a8 be 27 9b 3b 3e
       0.37048244 0.19105446 -0.328471 0.18320905
000050 f0 f0 96 bf 9f 59 89 3e af 5b e7 be f4 2b 6f be
       -1.1792278 0.26826188 -0.45187137 -0.2335661
000060 72 c8 6f bf ed 24 22 3f b1 2b 00 bf 61 2c 4a 3e
       -0.9366523 0.63337594 -0.5006667 0.19743492
000070 04 02 55 3e f2 6c b3 3e 62 18 ba be 08 3c 48 3e
       0.2080155 0.35044056 -0.36346728 0.1955415
000080 46 10 69 3e 03 51 83 3e 6e 58 05 3f b6 b2 32 be
       0.22760114 0.25647745 0.5208806 -0.17450985
000090 bb 78 6a be a4 39 68 be 00 0b 70 be 6f 67 9d bd
       -0.22897618 -0.22678238 -0.23441696 -0.07685744
0000a0 44 a7 5e be 73 bb f6 3d 74 5c e9 3e 52 cc e3 3e
       -0.21743494 0.12047472 0.4557835 0.44491822
0000b0 fa cc 80 3e 09 15 aa be 53 f5 ef be 80 ac 49 bf
       0.25156385 -0.33219174 -0.46866855 -0.7877884
0000c0 82 ee 0c bf 45 cb 07 3f 4e 0e f2 be 21 3a 62 3e
       -0.55051434 0.5304454 -0.4727654 0.22092487
0000d0 96 08 9a be 96 d4 d0 be 60 a9 26 3e bd 6f a9 be
       -0.30084676 -0.4078719 0.16275549 -0.33093062
0000e0 fe 40 27 be 79 21 a7 be 98 e4 3a be 58 60 63 3e
       -0.16333386 -0.32642725 -0.18251264 0.22204721
0000f0 86 cd 48 be 6f 0b 9a be c5 b2 f8 be c8 c3 14 be
       -0.19609651 -0.30086848 -0.4857389 -0.1452781
