pytorch/Laplace_eq_outputs/model_lr_1_layers_0_lambda_0.pt (torch, 7898 bytes, 5 tensors)

input_layer.0.weight f4 [32, 2]
00000000: ee91 103d 6237 753f cbb9 bd3e 9fa7 e23e
00000010: 7c54 f5be 8690 e9be baf6 f5be fc52 acbe
00000020: 65ba 8a3f 56be 74bf e7cb ed3d 87cd a0bf
00000030: bd65 27bf bada 61bf ae1f 803e 4180 113f
00000040: e7c3 1f3e 4f5c 68bf 55b4 243e 3757 7c3f
00000050: 210f 973f 1576 8ebf e5f8 51bc 64cd aa3f
00000060: ad4d 5d3f fa84 303e fe39 f53e 5361 f2be
00000070: 8a43 7a3d 2153 7fbf d731 573e 72f4 bb3e
00000080: e32f 36bf 0790 453e fcfb 2a3c e418 223f
00000090: ff68 b4be 2a7d 343f 485a b43d d6c0 27bf
000000a0: 9e69 39bf 41b4 af3d cd6d ef3c a1fc 743f
000000b0: 297d 933f 3383 93bf 536d af3e c7e2 f0be
000000c0: e5e5 60bf 1047 5a3f 6952 98bf ce7c 883f
000000d0: 0893 bbbe 6194 0c3f 9789 e9bd 96eb 66bf
000000e0: 34c0 11bf 84ce 513f db6c 8fbe eeec 623f
000000f0: c254 d4be 0fdd ee3e aa14 0bbe 2d47 6b3f
0.03529542 0.9578763 0.3705581 0.4426851 -0.4791602 -0.45618075 -0.480398 -0.33657062
1.0838133 -0.9560293 0.11611157 -1.2562722 -0.65389615 -0.88224375 0.2502417 0.56836325
0.15602075 -0.9076585 0.16084416 0.9857058 1.1801492 -1.1129786 -0.012815689 1.334393
0.8644665 0.17238227 0.47895807 -0.47339877 0.061099567 -0.9973622 0.21015106 0.36709934
-0.7116682 0.19293223 0.010436054 0.6331923 -0.35236356 0.70503485 0.08806282 -0.6552862
-0.72426784 0.085793026 0.029227162 0.9569798 1.1522571 -1.1524414 0.34263095 -0.47048017
-0.8785079 0.8526468 -1.190015 1.0663087 -0.36635613 0.5491391 -0.11403196 -0.90203226
-0.56933904 0.8195574 -0.28012738 0.88642776 -0.41470915 0.4665303 -0.13582101 0.9190548

input_layer.0.bias f4 [32]
00000000: d979 713f e32c 5c3f 59c9 fe3e 7642 073f
00000010: 94b4 9abe 7335 92bf c648 1cbe e636 203f
00000020: a4a3 2bbf 21b1 9fbf d432 ae3c e301 893f
00000030: 5fc7 143e 64e1 793f d81d 733f 02b5 8fbd
00000040: 9870 603f 39b4 5e3f 0e4a d13e 9c86 d23e
00000050: fc5a 8dbf 1e34 8ebf d871 523d 6806 bf3e
00000060: c5bc 74be 4f51 db3d 321a 503e 7779 843f
00000070: 0952 a13f d173 5abf cedb 8dbe 7688 16bf
0.9432655 0.8600599 0.4976299 0.52835786 -0.30215895 -1.1422561 -0.15262136 0.6258377
-0.6704657 -1.247593 0.021264471 1.0703701 0.14529179 0.97609544 0.9496741 -0.070169464
0.87671804 0.8699375 0.40876812 0.41118324 -1.1043391 -1.1109655 0.0513781 0.37309575
-0.23900135 0.10708868 0.20322493 1.0349568 1.260316 -0.8533297 -0.2770676 -0.5880197

hidden_layers.0.0.weight f4 [32, 32]
00000000: b57f 17be d4e2 553e 9299 4fbe 61e7 e4be
00000010: dcd3 a5bd 80d0 013c 99b1 2fbe e6b8 703e
00000020: f063 863e d768 6ebd 31e8 94be 045d 9d3e
00000030: 3acf 823e acc3 c93e 4716 603e 31a2 a3bc
00000040: 9697 263c f24c fa3c 8a69 12be 2dea c33e
00000050: 7a66 13bf 018b 98be e729 06bd b9af d53e
00000060: 511b 093d 0c24 fb3d a453 eebe 53b5 eabc
00000070: 6b43 46be 1efd edbe 826f 14bf a09f 03be
00000080: eb73 a43d 6331 82be 7511 11be f81d 58bc
00000090: a8fd cebd 89d7 263e 9393 bf39 003e 77be
000000a0: ebec 7bbe 4753 343e 170d 9bbe ebb4 7b3e
000000b0: 930b 12be 9412 d43d 2967 00be 9054 44bd
000000c0: 1e88 d7bd 6662 ff3d 3aa5 ac3d 4c7b babd
000000d0: c24e 553d 6f56 2c3d c2e6 c6be 41e6 b5bd
000000e0: 0fd7 773e 19ca 8f3e 6765 cc3d 2308 bd3d
000000f0: 7b3d 9b3e bce1 fd3d 041f 113e 095d b7bd
00000100: 2d42 7d3d 6b2f 143f ecf4 2cbf 92a0 10bf
00000110: 5703 8ebe f3d9 f2bd e4da a4be 467a da3e
00000120: 3c5b 8b3e 8b38 80be e552 d4be ef3d f13e
00000130: 8fab 293f 562d 503f 4c99 e33e 3774 933c
00000140: f8d4 42bc fac0 5cbd b607 cabe 169b 043f
00000150: 2bd7 6abf 1b71 0abf a285 54be 14b5 5d3f
00000160: fdcc c5be 8b05 903e fcb1 0fbf 7ac6 5e3e
00000170: 3067 91bd 6073 5bbf ff51 53bf 32d3 17bf
00000180: 28c1 c6be f3f9 1bbe e21d 10bf b3bd f2be
00000190: 746e b73d 5541 d13e 8ca2 44be a63a 653e
000001a0: c028 4e3f 99f5 593e dbfa 9dbe 47b6 d83a
000001b0: c6e8 103f b8f5 09bc 9c82 5e3e dd35 bb3d
000001c0: 7954 51bf 9415 62be 5eae 22bf 3c25 3d3c
000001d0: 94f5 afbd b590 21bd d9d8 7abe fd45 433e
000001e0: 7924 f73d 3e72 e23e 9a37 03bf 5c14 8bbe
000001f0: 0939 4fbf e07f 50be 9cc7 3cbe 1b72 83be
00000200: 4909 b6bd af94 5ebe d82a a6be d006 93be
00000210: f5d2 0d3e 5cdb f73d dc31 1cbf e855 823e
00000220: b5f7 84be 39d8 0a3f 93ca 003e 52d8 88bc
00000230: a4fa 233e a5c9 c0be 1bf4 7abf e9f4 303f
00000240: 2dac 45be 8d40 9abe afa9 b83e 696c fdbe
00000250: 4d7a 713e 6254 523f da94 6dbd aa00 02bf
00000260: 032d febd e86e 9b3d a5c2 d03e d74a 5bbf
00000270: c309 dabd f663 173f 9f34 f83e 6caa 503f
00000280: 74a8 29be 6d39 273c c703 25bf d561 bfbe
00000290: a5c7 02bd 897f 933e e551 ffbe 4171 5d3e
000002a0: df3e b63b 375f 293f 2cd3 1d3e a5a9 6ebe
000002b0: c692 c73d 9749 ccbe f403 6bbf c70e 1b3f
000002c0: 9c67 97be 8a9e 56be 5889 de3e 97ea 4dbf
000002d0: 8423 9f3d 3ef1 503f 78cc 05be c660 0cbf
000002e0: 6ef9 bf3d 93dc fc3d 1f83 b03e 30ca 50bf
000002f0: 28f3 c1be 658f 413f 40dd 8b3e 27a9 263f
00000300: 18ba 383e ea4f 633e 4038 033d 4cc9 0f3e
00000310: 868f 2ebe 02ef 08bf 7e80 213e c15f d0bd
00000320: 85f0 b3be 6f96 a9be f8fb 57be fd41 de3d
00000330: 82ad 2ebe acd7 8d3e aa5a 3e3e dd45 01bf
00000340: 9bc0 043f 49fd 123f ab0d 963e 83b9 2b3e
00000350: 75dc dcbd efd2 b8be 46c5 3e3d 53d9 b2bd
00000360: f164 0d3e 68ca 5d3e ad30 fc3e 2484 2f3e
00000370: e331 383f c7bc 1cbc 43be fb3d 4d9f 0b3e
00000380: 2894 e73e 0644 803e c89c e73e 94bb 843e
00000390: 6eab 653d 45da 91be 6ce2 753e 523c 54bc
000003a0: f3b9 55be bcb6 0fbe d02c 1dbc 869c da3c
000003b0: 932c 92be 43c3 613c ae51 9dbe c1c3 dd3c
000003c0: 0de7 c63e bb8d 143d e7a8 973e 8dc3 b0bd
000003d0: 66db a1bd aeb2 d23b e5b9 ba3d 7aed b9be
000003e0: 29c3 323e 686c c3be a5e1 a13e ebe8 9a3e
000003f0: ce9c 093d 7303 833e d783 723e 534f 1c3e
-0.1479481 0.2088731 -0.20273426 -0.44707778 -0.080970496 0.007923245 -0.17157592 0.23508033
0.2624812 -0.05820545 -0.29083398 0.30735028 0.25548726 0.39407098 0.21883498 -0.0199748
0.010167977 0.030554269 -0.14298072 0.382646 -0.5757824 -0.29793552 -0.032754805 0.41735628
0.033473317 0.12262735 -0.46548188 -0.028650915 -0.19361655 -0.46482176 -0.5798265 -0.12853861
0.08029922 -0.25428304 -0.14166816 -0.013190739 -0.10106975 0.16293158 0.0003654031 -0.24144745
-0.24602096 0.17609893 -0.30283424 0.24580733 -0.14262228 0.10355106 -0.12539352 -0.047932208
-0.10524009 0.1246994 0.08429952 -0.09105548 0.052077062 0.042074617 -0.3884793 -0.08881808
0.24203132 0.28083876 0.099802785 0.092300676 0.30320343 0.12396571 0.14171988 -0.08953292
0.06183069 0.57884854 -0.6756122 -0.5649501 -0.27736923 -0.11857977 -0.3219825 0.42671412
0.27218044 -0.2504314 -0.41469494 0.47117564 0.662774 0.8131918 0.44452894 0.017999751
-0.011891596 -0.053894974 -0.39459008 0.5179914 -0.9173457 -0.54078835 -0.20754102 0.8660443
-0.38632956 0.2812923 -0.5613096 0.217554 -0.070997596 -0.85722923 -0.8254699 -0.59306633
-0.38819242 -0.15232067 -0.562956 -0.47410354 0.08956614 0.40870157 -0.19202632 0.22385654
0.8053093 0.21285094 -0.3085545 0.0016533815 0.56605184 -0.0084204 0.21729511 0.09141133
-0.8176952 -0.22078544 -0.63547313 0.011544522 -0.08591762 -0.039444644 -0.24496783 0.19069667
0.120675035 0.44227785 -0.51256716 -0.2716397 -0.80946404 -0.2036128 -0.1843552 -0.25672993
-0.0888849 -0.21736406 -0.32454562 -0.28716135 0.13850005 0.12102386 -0.6101358 0.25456166
-0.25970235 0.5423618 0.12577276 -0.016704712 0.1601358 -0.37653843 -0.98028725 0.69123703
-0.19303961 -0.30127373 0.36066958 -0.49496773 0.2358181 0.8216001 -0.058003284 -0.50782263
-0.12410929 0.07589513 0.40773502 -0.8566107 -0.10646393 0.59136903 0.48477647 0.81510043
-0.16568166 0.0102065625 -0.6445889 -0.37379327 -0.031928677 0.2880824 -0.49867168 0.21625234
0.005561694 0.6616091 0.15412587 -0.23306902 0.09744792 -0.39899895 -0.91802907 0.60569423
-0.29571235 -0.20958915 0.4346416 -0.8043608 0.07770446 0.81618106 -0.1306628 -0.54835165
0.09373747 0.12346759 0.34475037 -0.81558514 -0.37880826 0.7560943 0.27317238 0.65101856
0.18039739 0.22198454 0.032036066 0.14041632 -0.17046937 -0.53489697 0.15771672 -0.101745136
-0.3514444 -0.33122584 -0.21092212 0.1085243 -0.17058375 0.27703607 0.18589273 -0.5049723
0.5185639 0.5741773 0.29307303 0.16769986 -0.10784236 -0.3609843 0.046574853 -0.087328576
0.13808037 0.21659243 0.49255887 0.17140251 0.7195112 -0.009566492 0.12292149 0.13634987
0.45230222 0.25051898 0.45236802 0.2592436 0.05607169 -0.2848684 0.24012154 -0.012953835
-0.20871715 -0.14034551 -0.009593204 0.026685964 -0.28549632 0.013779464 -0.3072638 0.027070882
0.38848153 0.036267977 0.2962105 -0.08631048 -0.07903175 0.0064299917 0.09117488 -0.36313993
0.1745726 -0.38168645 0.31617466 0.30255827 0.033596806 0.2558857 0.23683105 0.15264635

hidden_layers.0.0.bias f4 [32]
00000000: 9c21 c7ba c75c 98bd 5535 923e 35b3 7dbe
00000010: 5fc5 17be 4bb0 c7be 6bb3 bb3e 9269 41be
00000020: 90ed a33e 723c a13d ab56 083f 7804 073e
00000030: 7f01 253e c8d1 f13d 1f05 e9be bed8 2cbe
00000040: 5385 a33e b3b2 1f3e eff3 7ebb cc6d f33e
00000050: ad75 773d 8b23 753e 944b 66be 0b80 cc3e
00000060: 905f 95be a6cd 8abc fd9c 04be 4875 433e
00000070: 9536 edbe 0aba ecbe 108c e0bc 94ba d03c
-0.0015192511 -0.07439571 0.28556314 -0.24775393 -0.14821385 -0.39001688 0.36660323 -0.18887928
0.32017183 0.07872857 0.53257245 0.13185298 0.16113852 0.11807591 -0.4551172 -0.16879556
0.31937656 0.15595512 -0.003890272 0.47544706 0.06041496 0.2393934 -0.22489768 0.3994144
-0.2917447 -0.016943764 -0.12950511 0.19087708 -0.46330705 -0.46235687 -0.027410537 0.025479592

output_layer.weight f4 [1, 32]
00000000: 30f7 dd3e 0fbb b73e 6102 e93e 991e bc3e
00000010: 6149 013f bfd2 07bf e622 e33e b62c e4be
00000020: 5a59 0abf 61db 0ebf 00d5 233f 05a7 8abe
00000030: f1e7 bdbe 3868 073f 6c27 123f 6deb ea3e
00000040: 3d1e e23e fb10 fd3e 0a24 3b3f af24 05bf
00000050: d6dc ee3e ea3b 0a3f 20da 90be 2c20 c03e
00000060: 1bae 123f 7227 b43e 0e58 d73e 4b9a d9be
00000070: 9d07 f2be dd89 bbbe 066d 153f 470c 4d3e
0.43352652 0.35884902 0.45509627 0.36742094 0.5050259 -0.5305595 0.44362563 -0.44565362
-0.5404259 -0.55803496 0.6399689 -0.2708055 -0.3709102 0.528934 0.57091403 0.4588274
0.44163695 0.49427018 0.73101866 -0.520091 0.4665286 0.5399767 -0.28291416 0.37524545
0.57296914 0.35186344 0.42059368 -0.4250053 -0.47271433 -0.3662862 0.5836948 0.20024215
