pytorch/Laplace_eq_outputs/model_lr_0_layers_0_lambda_1.pt (torch, 7898 bytes, 5 tensors)

input_layer.0.weight f4 [32, 2]
0.02596591 1.128538 0.57139033 -0.89668566 -1.6055696 0.26871514 0.11041821 0.72353333
0.000906835 -0.94023156 1.0985657 -0.51798475 0.7242293 -0.09323328 0.11683155 0.852534
0.9329009 0.43130893 0.0065994896 -0.95897394 -0.04525977 -1.2399364 0.15573968 -0.8824798
1.3480027 -1.6041825 0.80082935 -0.023600541 -0.008846737 1.2785795 -1.5631508 1.6802784
0.26065868 -1.395561 2.2389436 -2.2000089 1.0061916 0.91910267 0.7965229 -0.680584
0.018423047 -1.008461 -0.005988756 1.1230724 -0.7749131 0.9472776 0.08381143 1.425242
0.35862747 0.91379225 0.9765566 -0.05275434 0.28510317 -0.73750573 -0.010974624 0.9125714
0.2585015 -0.9513782 -0.00021895213 -1.2302973 0.98996955 -0.38817164 -0.92675793 0.48710898
00000000: 76b6 d43c ef73 903f a346 123f 318d 65bf
00000010: 4e83 cdbf 0895 893e f122 e23d 7b39 393f
00000020: abb8 6d3a 04b3 70bf cd9d 8c3f a69a 04bf
00000030: 1767 393f 17f1 bebd 6145 ef3d ab3f 5a3f
00000040: 98d2 6e3f 86d4 dc3e 8840 d83b 517f 75bf
00000050: 4f62 39bd 3cb6 9ebf 397a 1f3e 32ea 61bf
00000060: 5a8b ac3f da55 cdbf 2703 4d3f ec55 c1bc
00000070: e8f1 10bc 7ea8 a33f 5315 c8bf 5d13 d73f
00000080: 0e75 853e bea1 b2bf da4a 0f40 f2cc 0cc0
00000090: e3ca 803f 504a 6b3f ede8 4b3f c13a 2ebf
000000a0: eeeb 963c 4015 81bf 543d c4bb d6c0 8f3f
000000b0: b460 46bf c980 723f 54a5 ab3d 546e b63f
000000c0: 059e b73e 4aee 693f 9dff 793f ef14 58bd
000000d0: 0bf9 913e 2dcd 3cbf e9ce 33bc 479e 693f
000000e0: 4f5a 843e 868d 73bf 8496 65b9 627a 9dbf
000000f0: a56e 7d3f 6fbe c6be 0240 6dbf 5966 f93e

input_layer.0.bias f4 [32]
-1.0985733 0.96032494 -2.3884048 0.6465863 0.86438537 1.1943754 -1.0922214 1.1992046
0.8307944 -0.95311 1.135293 0.72879225 -0.07967647 -0.90077037 -1.1710818 0.2780421
-1.1830803 -0.07624878 -0.14705113 -1.3267888 0.8884174 1.15029 -0.55691206 -1.3126152
-0.67255044 -0.42198965 -0.158652 0.93917537 -1.2198843 1.2046787 -1.4744276 0.3004019
00000000: 0d9e 8cbf dbd7 753f a0db 18c0 ae86 253f
00000010: 5c48 5d3f 4be1 983f e9cd 8bbf 897f 993f
00000020: f1ae 543f 04ff 73bf 4851 913f 2192 3a3f
00000030: 6b2d a3bd e398 66bf 02e6 95bf 895b 8e3e
00000040: 2d6f 97bf 5228 9cbd 9294 16be 37d4 a9bf
00000050: 536f 633f b43c 933f ca91 0ebf c603 a8bf
00000060: 442c 2cbf 070f d8be ab75 22be cc6d 703f
00000070: 2b25 9cbf e932 9a3f 0bba bcbf 47ce 993e

hidden_layers.0.0.weight f4 [32, 32]
0.6936968 -0.3197224 0.08883428 -0.1389482 -0.51976633 0.17717725 -0.17311919 -0.12328321
0.26133522 -0.018279735 -0.6261921 -0.2821054 0.33869207 -0.12931907 0.9320675 0.081863336
-0.20591521 0.1168602 0.41141915 -0.12081016 -0.20057668 0.1523559 -0.25972503 0.59392935
-0.3512676 -0.05848561 0.22593059 -0.1587979 0.121221535 -0.98766696 0.10462189 -0.062385574
0.04335676 0.104087554 -0.15431926 0.15169579 0.16680795 -0.4231507 0.3450227 0.19365682
0.15962897 -0.022119315 0.09225795 0.41419214 -0.015434608 0.33020207 -0.20918703 0.08722499
0.09853191 0.15803939 -0.12190984 -0.058455754 0.38175938 0.057990238 0.0745582 -0.1382498
-0.16213775 -0.15064307 -0.09992051 0.24917395 -0.1287863 0.091060095 0.17248972 -0.26560402
2.0958612 0.14195788 0.47213367 -0.053612433 -1.8829088 -0.19138992 0.62150073 -0.18025081
-0.23799133 0.2104703 -1.5201831 -2.2040465 -0.70550585 1.5296092 1.8476074 0.8021874
0.4238745 0.23449968 0.068471424 0.103548974 -1.3447436 -0.20658423 -0.32437235 1.175101
0.6544317 0.56987846 0.1082999 -0.1956637 0.38434443 -2.3325307 0.24596514 -0.83787525
0.17384976 -0.25303957 0.121341735 -0.027784089 -0.29617688 -0.33020446 0.077745825 -0.124894425
-0.16483282 -0.24338873 0.07045562 -0.109953485 -0.43097672 0.17170207 0.19434437 0.31865725
-0.008123196 0.03703112 -0.021665988 -0.04260236 0.053744234 0.24961933 0.4751728 0.21181509
-0.7011715 -0.42252028 -0.11918974 -0.09459083 -0.03007276 -0.26186982 0.024114862 0.068934955
-0.0073515642 -0.19618364 -0.020806821 -1.6502583 0.041428957 0.21905828 0.122485474 -0.82684463
-0.45903537 2.5136461 -0.17066075 0.373817 -0.22025293 0.07246823 -0.39410093 0.19327746
0.862605 0.070014864 -0.7284688 0.7436789 0.30063704 -2.2871516 -0.2960847 0.2706685
-0.38364577 -0.12867105 0.9915194 -1.3713808 1.0511957 -0.062056586 -0.16807897 0.21068783
-0.785245 0.7259637 -0.12993565 0.39655694 0.85719043 0.40132126 0.14930491 0.2931824
0.25498357 -0.27236003 0.6409732 0.4850553 0.10598406 0.03570049 -0.63917893 -0.14302748
-0.23990686 -0.01089922 -0.12746927 -0.063160576 0.49425855 0.063313425 -0.116491064 -0.6378808
-0.39402795 0.31699786 -0.024281634 0.14254968 -0.16523135 0.9429622 0.033822697 -0.26026964
-0.0022722299 -0.03388606 -0.13255098 -0.12373655 -0.039409757 0.08705282 -0.20231022 0.2305116
0.33404988 -0.4771521 -0.018395998 -0.12561439 -0.03086929 -0.14076859 0.13370617 0.18224478
-0.530314 0.06775406 0.10131527 -0.32549495 -0.009328117 0.63455325 0.03797492 -0.1850533
-0.096804775 0.5366681 -0.33948317 0.32303077 -0.1726485 0.16424401 -0.12482562 0.06722066
-0.34007078 0.19243868 0.074959 0.0032137423 0.022457467 -0.17015597 0.24679501 0.13849887
-0.13948694 0.40214217 0.036906146 0.34745476 -0.30878174 0.23083735 -0.18466301 0.76017046
-0.41625434 0.097189195 0.033620402 0.17562996 0.25413254 -0.4537417 -0.11558703 -0.084231235
0.1574056 0.0023373275 0.03726108 -0.032220084 0.22990659 0.10355619 -0.11093826 -0.109946266
00000000: 1d96 313f a8b2 a3be bfee b53d 7048 0ebe
00000010: 680f 05bf f46d 353e 2846 31be e87b fcbd
00000020: bbcd 853e 62bf 95bc 204e 20bf 1e70 90be
00000030: 0c69 ad3e 386c 04be fa9b 6e3f f7a7 a73d
00000040: 70db 52be 6754 ef3d 88a5 d23e 516b f7bd
00000050: f963 4dbe 2f03 1c3e aefa 84be c10b 183f
00000060: 59d9 b3be 9b8e 6fbd 595a 673e eb9b 22be
00000070: ff42 f83d bed7 7cbf 0044 d63d 0488 7fbd
00000080: dc96 313d db2b d53d de05 1ebe 2456 1b3e
00000090: b4cf 2a3e 35a7 d8be d1a6 b03e f94d 463e
000000a0: c775 233e 9133 b5bc bcf1 bc3d fe10 d43e
000000b0: 70e1 7cbc 3f10 a93e 2035 56be 04a3 b23d
000000c0: 19cb c93d 14d5 213e deab f9bd 4d6f 6fbd
000000d0: f775 c33e 2c87 6d3d f8b1 983d 5b91 0dbe
000000e0: 7007 26be 2d42 1abe 20a3 ccbd 7527 7f3e
000000f0: 8ee0 03be b77d ba3d 25a1 303e 40fd 87be
00000100: 9722 0640 685d 113e 81bb f13e b698 5bbd
00000110: 2803 f1bf b8fb 43be ac1a 1f3f ab93 38be
00000120: 00b4 73be 8785 573e 5c95 c2bf 190f 0dc0
00000130: 089c 34bf 3cca c33f 667e ec3f 275c 4d3f
00000140: 1406 d93e af20 703e bf3a 8c3d 7c11 d43d
00000150: 8f20 acbf d18a 53be 2214 a6be b669 963f
00000160: d688 273f 8ee3 113f 57cc dd3d 115c 48be
00000170: cbc8 c43e 2f48 15c0 49de 7b3e fe7e 56bf
00000180: ac05 323e 678e 81be 0482 f83d 759b e3bc
00000190: 7fa4 97be 8f10 a9be 3439 9f3d a6c8 ffbd
000001a0: efc9 28be e53a 79be 094b 903d 4b2f e1bd
000001b0: fba8 dcbe abd2 2f3e 3602 473e 0b27 a33e
000001c0: 2717 05bc f2ad 173d df7c b1bc d07f 2ebd
000001d0: ea22 5c3d 369c 7f3e d949 f33e 0ee6 583e
000001e0: fa7f 33bf 9454 d8be c019 f4bd d6b8 c1bd
000001f0: 265b f6bc cd13 86be 888c c53c c52d 8d3d
00000200: 64e5 f0bb 5de4 48be 1173 aabc aa3b d3bf
00000210: 69b1 293d d050 603e aad9 fa3d 17ac 53bf
00000220: af06 ebbe 94df 2040 b1c1 2ebe f164 bf3e
00000230: fc89 61be 396a 943d 99c7 c9be 87ea 453e
00000240: aed3 5c3f f463 8f3d ee7c 3abf be61 3e3f
00000250: 19ed 993e b160 12c0 6a98 97be 1095 8a3e
00000260: 386d c4be 58c2 03be 37d4 7d3f 6889 afbf
00000270: 958d 863f 0c2f 7ebd e51c 2cbe 8dbe 573e
00000280: d105 49bf c2d8 393f da0d 05be 8309 cb3e
00000290: d570 5b3f fb79 cd3e 63e3 183e 011c 963e
000002a0: 358d 823e c672 8bbe d216 243f 2b59 f83e
000002b0: 2c0e d93d ad3a 123d 3ba1 23bf cc75 12be
000002c0: 25aa 75be a492 32bc 4e87 02be 555a 81bd
000002d0: 750f fd3e 78aa 813d de92 eebd 284c 23bf
000002e0: 08be c9be 8b4d a23e 47ea c6bc 8bf8 113e
000002f0: 6832 29be f965 713f ab89 0a3d 1042 85be
00000300: b1e9 14bb 1ccc 0abd 72bb 07be 9769 fdbd
00000310: 206c 21bd c048 b23d 692a 4fbe 3c0b 6c3e
00000320: 9608 ab3e 484d f4be 34b3 96bc 0fa1 00be
00000330: 98e1 fcbc a425 10be 45ea 083e 609e 3a3e
00000340: a9c2 07bf a4c2 8a3d 617e cf3d 46a7 a6be
00000350: f5d4 18bc 1572 223f 978b 1b3d 9d7e 3dbe
00000360: 9541 c6bd 1563 093f bdd0 adbe 4a64 a53e
00000370: c5ca 30be 952f 283e 93a4 ffbd fcaa 893d
00000380: c21d aebe a50e 453e 1b84 993d a69d 523b
00000390: b9f8 b73c 5e3d 2ebe d5b7 7c3e a6d2 0d3e
000003a0: aad5 0ebe 94e5 cd3e e62a 173d 97e5 b13e
000003b0: a418 9ebe a060 6c3e 4d18 3dbe 889a 423f
000003c0: 4a1f d5be 210b c73d 8cb5 093d 57d8 333e
000003d0: a91d 823e d550 e8be e5b8 ecbd 6d81 acbd
000003e0: ef2e 213e d92d 193b 139f 183d 35f9 03bd
000003f0: a26c 6b3e 4515 d43d 9933 e3bd 822b e1bd

hidden_layers.0.0.bias f4 [32]
0.05227581 0.10143178 -0.37723568 -0.102458596 -0.6485893 0.031491075 0.16047394 -0.10054426
-0.16358218 -0.41726738 0.16793415 -0.21077712 -0.13885048 0.0013351559 -0.05906309 -0.5679436
-0.22511679 0.15157142 -0.14391813 -0.12794757 -0.15646884 -0.24443994 0.001600932 0.32869098
-0.41997868 -0.4048371 -0.2743965 -0.027872544 0.29213127 0.19890063 0.17828257 0.2602694
00000000: 291f 563d 77bb cf3d 0925 c1be d0d5 d1bd
00000010: f309 26bf c9fc 003d 4853 243e 26ea cdbd
00000020: 1682 27be 12a4 d5be eef6 2b3e f5d5 57be
00000030: d22e 0ebe 6600 af3a 23ec 71bd c064 11bf
00000040: 0485 66be 8a35 1b3e 465f 13be b004 03be
00000050: 5e39 20be 774e 7abe 5dd6 d13a 2f4a a83e
00000060: 7207 d7be cf46 cfbe b37d 8cbe f654 e4bc
00000070: 3b92 953e 9bac 4b3e b58f 363e 0842 853e

output_layer.weight f4 [1, 32]
0.8482737 -0.7621509 -0.8109414 0.6381544 -0.51976603 -0.8963054 0.70107335 -0.39350134
0.35971257 0.3332881 -0.18806423 0.56785506 0.98848796 0.5057691 -1.2760199 0.69595236
-0.4184187 -0.19695055 0.22264174 0.24938117 0.060937945 -0.2988842 -1.4063058 -0.18851395
0.23028459 -0.9829147 1.0166242 -0.267529 0.77882725 -0.32849452 0.51596797 -0.50073326
00000000: 7728 593f 521c 43bf db99 4fbf 165e 233f
00000010: 630f 05bf 4574 65bf 8b79 333f 0279 c9be
00000020: 3f2c b83e bda4 aa3e e993 40be f35e 113f
00000030: 8c0d 7d3f 157a 013f 9f54 a3bf ef29 323f
00000040: fa3a d6be 68ad 49be 32fc 633e c75d 7f3e
00000050: 119a 793d 5a07 99be d401 b4bf cd09 41be
00000060: b9cf 6b3e 4ca0 7bbf be20 823f 90f9 88be
00000070: 3961 473f 6f30 a8be 7a16 043f 0e30 00bf
