pytorch/Laplace_eq_outputs/model_lr_1_layers_0_lambda_3.pt (torch, 7898 bytes, 5 tensors)

input_layer.0.weight f4 [32, 2]
0.22603801 0.31920096 -0.47072145 0.73915136 0.96991956 -1.0661167 1.0385743 -0.4390679
0.08413995 0.72946525 0.14701301 -0.44273305 0.77588403 -0.13436009 0.99743044 -0.34210747
0.42701226 -0.6742494 0.06311597 0.28558624 0.4693644 0.6205099 -0.8992565 0.95933497
-0.23495564 -0.99442685 0.80482715 -0.722588 0.02651675 0.47529006 0.5673136 0.4536965
-0.08983464 -0.89290124 -0.22872493 -0.3876169 0.07318902 1.0561906 -0.38517165 0.58931494
0.6929415 0.13424975 -0.13512221 0.7990124 -0.90140575 0.2112885 -1.0068868 0.46097708
-0.1250118 0.41458675 0.05615667 -0.83032143 0.07569673 -0.8935105 0.83146656 -0.8384012
0.24617071 0.8669552 0.11810631 0.5868205 0.11515107 0.5207422 1.1887223 -1.2370741
00000000: 8276 673e 4f6e a33e 6702 f1be 0639 3d3f
00000010: a64c 783f 8376 88bf 01f0 843f 82cd e0be
00000020: 9151 ac3d 3cbe 3a3f 948a 163e e8ad e2be
00000030: 56a0 463f b195 09be 9a57 7f3f b628 afbe
00000040: 5aa1 da3e 9c9b 2cbf f242 813d 5c38 923e
00000050: 8850 f03e bdd9 1e3f ad35 66bf fa96 753f
00000060: 3698 70be c292 7ebf 2709 4e3f 87fb 38bf
00000070: a839 d93c 3859 f33e 773b 113f e84a e83e
00000080: 39fb b7bd 2d95 64bf de36 6abe b975 c6be
00000090: 20e4 953d 4131 873f 3835 c5be 58dd 163f
000000a0: 9d64 313f c478 093e 7a5d 0abe 148c 4c3f
000000b0: 87c2 66bf 035c 583e abe1 80bf 3005 ec3e
000000c0: 1803 00be b744 d43e 8904 663d f28f 54bf
000000d0: e306 9b3d 1bbd 64bf feda 543f 76a1 56bf
000000e0: 2d14 7c3e c7f0 5d3f b9e1 f13d de39 163f
000000f0: 53d4 eb3d 5c4f 053f 0d28 983f 7258 9ebf

input_layer.0.bias f4 [32]
0.38121375 0.6302633 0.07936573 0.6826036 -0.8474126 0.12013312 -0.517438 -0.72541994
0.4425063 0.7236954 -0.06798136 -0.13468063 -0.73143 0.0008093019 -0.3159803 -0.04353787
-0.43573764 0.59236956 0.589929 0.22207889 1.0159839 -0.68407845 -1.1505014 0.034536418
0.38037091 0.7664855 -0.71103454 -0.046318956 -0.7183476 -0.4977961 0.6829731 -0.11307785
00000000: 732e c33e f058 213f 808a a23d 1cbf 2e3f
00000010: 08f0 58bf 5a08 f63d d176 04bf 1fb5 39bf
00000020: 3090 e23e 1a44 393f d039 8bbd b8e9 09be
00000030: ff3e 3bbf 5527 543a 2bc8 a1be c454 32bd
00000040: 0119 dfbe 88a5 173f 9605 173f a668 633e
00000050: c30b 823f c41f 2fbf a143 93bf 0f76 0d3d
00000060: fabf c23e 6538 443f 5c06 36bf f2b8 3dbd
00000070: a1e5 37bf 21df febe 53d7 2e3f 5c95 e7bd

hidden_layers.0.0.weight f4 [32, 32]
0.09885294 0.049885176 0.007633455 -0.07848335 0.8222919 -0.19808117 0.23670608 0.22652909
-0.33941096 -0.13614814 0.092318825 0.24666922 0.15239573 -0.046588648 0.679581 0.17693914
-0.18797654 -0.46414015 0.013346948 0.2641896 -0.22606014 0.6291526 0.2802253 -0.031071847
-0.19144629 -0.79638475 -0.044799153 -0.3091062 0.8315426 0.8647793 -0.19772393 0.025342712
0.053200915 -0.33846375 -0.5053648 -0.12599723 0.96629393 -0.60661644 0.5248241 0.20265198
-0.5047068 -0.48270136 0.3838063 0.4473659 0.21929492 -0.24888527 0.82987696 0.6267965
-0.07403054 -0.777324 -0.09614644 0.06995111 -0.16265877 0.8792185 0.3058266 0.0011553438
-0.120041534 -1.0227754 0.22712928 -0.10426248 0.97506505 0.92732054 0.05416833 -0.212999
-0.07791949 -0.55256516 0.25372067 0.13539709 0.21646939 -0.17108873 0.40654415 0.6015218
-0.062671825 -0.27828416 -0.14708205 -0.24167228 0.1602735 0.22782914 0.113635115 -0.1512743
0.14622182 -0.06057353 -0.06429405 -0.012155826 0.05154013 -0.17618255 -0.15886146 0.38328275
-0.2253306 -0.0736064 -0.10990941 0.28968868 -0.11297482 0.25389448 -0.09604383 0.10486002
-0.18149857 0.15353566 -0.051717613 0.21563198 -0.2940587 0.16146602 0.08677609 -0.015552345
0.3295719 0.12542626 -0.18633585 -0.20738468 -0.037138473 0.11285528 -0.38079962 0.0076356563
-0.046763636 0.15286979 0.122648515 -0.129799 -0.036659297 -0.3105067 -0.13556601 0.08982292
0.075918496 0.30794623 0.0483083 0.16126232 -0.19725677 -0.39788187 0.0042045168 -0.19787231
0.19166301 0.068374544 0.037589733 0.10562736 0.29180935 -0.31070653 -0.0062585487 0.057613708
-0.102146246 0.23927028 -0.13872397 0.025253493 0.36199886 0.046383012 0.2873288 -0.14354068
0.16373353 0.09431478 -0.15970802 0.27846184 -0.26092145 0.28042656 0.20713663 0.19257976
0.34494236 -0.3073965 -0.042855933 -0.018714327 0.059267938 0.16239293 -0.08669363 -0.18166378
0.27292565 0.06726292 0.017414039 -0.13627614 0.10628705 0.029403318 -0.19357406 -0.012685266
-0.0017191484 0.14182556 0.24515702 -0.11066935 0.0057505877 0.13648939 -0.060797427 0.07626493
0.32696658 -0.030521465 -0.104025364 0.018962404 -0.042028982 0.0439417 -0.11680025 -0.12072365
0.2352028 -0.27665475 0.08063702 -0.038738288 0.11296772 -0.031133013 0.24046652 0.0013750315
-0.06548508 -0.09414022 0.028336005 0.03035103 -0.06846083 0.1480505 0.1249923 -0.045642696
0.035791714 -0.18987451 0.0030687014 0.11712608 0.038470622 -0.22637995 -0.29250044 0.2507562
-0.15418534 -0.13821763 0.123105966 -0.18520883 0.1419126 0.13990963 -0.23074445 0.13178667
-0.18091851 0.30202276 0.0442303 0.073931426 0.23002338 -0.0033243755 -0.10094419 0.12529786
0.13228579 -0.22087838 0.2116938 0.36138254 -0.120820515 -0.04074567 0.15251665 0.283296
7.0155605e-05 0.1193491 -0.2554751 -0.043224182 0.106594816 0.37545234 0.07109929 -0.029556982
0.11391578 0.07544236 -0.079048485 -0.19540791 0.12593311 -0.3145342 -0.09907914 -0.27285585
0.08895821 0.27803263 -0.050496418 0.25083372 -0.15115768 0.01644846 -0.14484105 0.2888609
00000000: 6973 ca3d 6654 4c3d 1022 fa3b e1bb a0bd
00000010: b981 523f cad5 4abe 1463 723e 3ef7 673e
00000020: 46c7 adbe 6b6a 0bbe a711 bd3d db96 7c3e
00000030: a00d 1c3e bdd3 3ebd 05f9 2d3f 892f 353e
00000040: ec7c 40be c7a3 edbe 28ad 5a3c dc43 873e
00000050: 4f7c 67be 2510 213f b179 8f3e 638a febc
00000060: 7f0a 44be dfdf 4bbf 517f 37bd 2b43 9ebe
00000070: fadf 543f 2d62 5d3f 2478 4abe 859b cf3c
00000080: 34e9 593d 1f4b adbe 965f 01bf 6b05 01be
00000090: 0a5f 773f 374b 1bbf df5a 063f 0084 4f3e
000000a0: 7734 01bf a224 f7be 4282 c43e 250d e53e
000000b0: d98e 603e c8db 7ebe d172 543f bc75 203f
000000c0: 539d 97bd b5fe 46bf 6de8 c4bd 8742 8f3d
000000d0: 0590 26be 7714 613f 4e95 9c3e e86e 973a
000000e0: 56d8 f5bd 4eea 82bf 9494 683e 9187 d5bd
000000f0: dd9d 793f e164 6d3f 9cdf 5d3d 691c 5abe
00000100: 4194 9fbd e974 0dbf ade7 813e 89a5 0a3e
00000110: 27aa 5d3e e231 2fbe 8e26 d03e 55fd 193f
00000120: 165a 80bd 437b 8ebe ad9c 16be f078 77be
00000130: bd1e 243e 0b4c 693e 87b9 e83d a6e7 1abe
00000140: 2cbb 153e f31b 78bd 99ac 83bd 3b29 47bc
00000150: be1b 533d 3369 34be 94ac 22be a33d c43e
00000160: 11bd 66be f4be 96bd 2f18 e1bd 1352 943e
00000170: 585f e7bd 75fe 813e a1b2 c4bd dac0 d63d
00000180: c3da 39be 7438 1d3e d9d5 53bd a1ce 5c3e
00000190: dd8e 96be 5957 253e aab7 b13d 43cf 7ebc
000001a0: a6bd a83e be6f 003e d3ce 3ebe a65c 54be
000001b0: 831e 18bd ab20 e73d 2bf8 c2be 8734 fa3b
000001c0: 3a8b 3fbd e689 1c3e 252f fb3d 07ea 04be
000001d0: 0f28 16bd bcfa 9ebe d1d1 0abe 14f5 b73d
000001e0: 287b 9b3d 21ab 9d3e edde 453d f321 253e
000001f0: aefd 49be 2cb7 cbbe 0bc6 893b 0a9f 4abe
00000200: 4f43 443e f407 8c3d b1f7 193d 2853 d83d
00000210: 0968 953e ed14 9fbe 8314 cdbb 5afc 6b3d
00000220: 0d32 d1bd 4503 753e a80d 0ebe 6ae0 ce3c
00000230: ea57 b93e 1dfc 3d3d c31c 933e 54fc 12be
00000240: c3a9 273e 1b28 c13d 808a 23be 8d92 8e3e
00000250: 7f97 85be 1294 8f3e a01b 543e a133 453e
00000260: 499c b03e 1363 9dbe b489 2fbd ca4e 99bc
00000270: f0c2 723d 554a 263e 6e8c b1bd 1206 3abe
00000280: e9bc 8b3e 24c1 893d e3a7 8e3c f98b 0bbe
00000290: 06ad d93d 3adf f03c 4738 46be ddd5 4fbc
000002a0: 0c55 e1ba b83a 113e 710a 7b3e 9da6 e2bd
000002b0: 6d6f bc3b e0c3 0b3e b906 79bd ca30 9c3d
000002c0: 2a68 a73e 2708 fabc 400b d5bd 0b57 9b3c
000002d0: 9526 2cbd 36fc 333d f834 efbd f63d f7bd
000002e0: 01d9 703e b1a5 8dbe 0625 a53d 0aac 1ebd
000002f0: 9f5b e73d a90a ffbc db3c 763e 673a b43a
00000300: 0b1d 86bd 96cc c0bd e920 e83c b9a2 f83c
00000310: 3135 8cbd 8d9a 173e f7fb ff3d d6f3 3abd
00000320: 559a 123d 776e 42be 441c 493b ccdf ef3d
00000330: 5f93 1d3d 25d0 67be 9ec2 95be 1e63 803e
00000340: c3e2 1dbe ec88 0dbe fb1e fc3d 62a7 3dbe
00000350: 8951 113e 7844 0f3e 4648 6cbe 16f3 063e
00000360: b442 39be baa2 9a3e d52a 353d 5c69 973d
00000370: 408b 6b3e c4dd 59bb d4bb cebd 154e 003e
00000380: ed75 073e f12d 62be 42c6 583e 2207 b93e
00000390: bf70 f7bd efe4 26bd 532d 1c3e 2c0c 913e
000003a0: 8120 9338 4d6d f43d a2cd 82be d70b 31bd
000003b0: 624e da3d 4a3b c03e 819c 913d 7c21 f2bc
000003c0: ad4c e93d 8681 9a3d 2ce4 a1bd 0319 48be
000003d0: 9cf4 003e a00a a1be 01ea cabd c3b3 8bbe
000003e0: b92f b63d 4b5a 8e3e 55d5 4ebd 476d 803e
000003f0: 14c9 1abe ecbe 863c 3651 14be 93e5 933e

hidden_layers.0.0.bias f4 [32]
-0.062096186 -0.50507843 0.0954913 0.24768248 -0.011515157 0.18420641 -0.020903727 -0.07470643
0.059791368 0.13318543 0.10187731 -0.29962915 0.2858337 0.13958536 0.123828925 -0.07408238
0.029248778 -0.25900152 -0.1268098 0.0658137 -0.2967949 0.035284396 0.156023 -0.18883567
0.06693202 -0.33243975 0.26576602 0.1291196 -0.01665608 0.10776602 0.123259954 0.039036743
00000000: 9258 7ebd d24c 01bf f190 c33d 7aa0 7d3e
00000010: 12aa 3cbc 9ba0 3c3e 4b3e abbc afff 98bd
00000020: cbe7 743d c361 083e 0da5 d03d fe68 99be
00000030: cb58 923e 77ef 0e3e 059a fd3d 81b8 97bd
00000040: 229b ef3c d99b 84be 6eda 01be 55c9 863d
00000050: 80f5 97be 5f86 103d 7ec4 1f3e 235e 41be
00000060: a813 893d 8b35 aabe 7c12 883e ee37 043e
00000070: 5572 88bc 6eb4 dc3d b76f fc3d fee4 1f3d

output_layer.weight f4 [1, 32]
0.31707448 -0.33242458 -0.28727317 0.27022502 -0.24228781 -0.30560586 0.30953625 -0.3291883
0.25328615 0.25959018 0.2657966 -0.19509979 -0.19128895 -0.2867904 -0.34848568 -0.31356707
0.2444704 0.29209167 0.28046992 0.2779078 0.3031616 -0.34735298 -0.24520114 0.29557565
-0.32685894 0.3489289 0.24467386 -0.32316577 0.22228226 -0.16235459 -0.32740173 -0.2835186
00000000: 9657 a23e 8e33 aabe 7815 93be ef5a 8a3e
00000010: 4c1a 78be 5f78 9cbe 897b 9e3e 5e8b a8be
00000020: b9ae 813e 01e9 843e 7e16 883e 3dc8 47be
00000030: 40e1 43be 31d6 92be b76c b2be dd8b a0be
00000040: 7356 7a3e 0a8d 953e c199 8f3e ee49 8e3e
00000050: ff37 9b3e 40d8 b1be 0216 7bbe b155 973e
00000060: 0e5a a7be cfa6 b23e c98b 7a3e fc75 a5be
00000070: f69d 633e 4840 26be 33a1 a7be 5a29 91be
