pytorch/Laplace_eq_outputs/model_lr_0_layers_2_lambda_0.pt (torch, 71258 bytes, 5 tensors)

input_layer.0.weight f4 [128, 2]
00000000: 9293 d33e 8624 97be 80bd fabe a37f acbe
00000010: 4d83 f63e 18ae fbbc f881 673f 20ee 293f
00000020: 26d2 a03e c576 6c3e a611 8a3d cacf d33e
00000030: e5f6 7dbf caf1 4bbe d320 a93d b2af 7d3e
00000040: bc36 67bf e5ba 5a3f 5fe4 22bd e2a9 383f
00000050: a1d1 afbd 6f96 51bf fcc3 b4bd 4846 0f3f
00000060: fb69 ffbe d1d3 01bf 1873 dbbe a7d0 11bf
00000070: 880e e03e e119 b63e 71ff 05bd 1f94 4cbf
00000080: 35a6 453f 42b7 37bf be83 a4be 53a3 143f
00000090: 5d87 94be d362 a4be 8e42 e13e fcb1 71be
000000a0: 5dc3 81be 8ce7 10bf d4bc 05be ec41 17bf
000000b0: dc67 1fbc a910 73bf 47e5 c0bd 9061 c0be
000000c0: d248 cd3c 2878 81bf 3609 2bbf f737 213f
000000d0: d036 5cbe a9b2 0c3f 2463 a6be f2c8 c93e
000000e0: 600a 4b3f 232e 08bf fdf1 53be 74a2 1c3f
000000f0: c11a 333f 7d2c 0f3f 2042 b3bd 374b 4d3f
00000100: 3583 b43e 19e6 863e c451 e03e 2cec e7be
00000110: 56cc aabf 8062 1ebe e016 1cbf 574c 103f
00000120: dbec c5be a729 533d 6654 ddbc 4151 8ebf
00000130: 5a74 81bf 3a35 503f 9578 463e b26a 58bc
00000140: 8128 ebbd 2649 1bbf 48cc 1f3f b75b d0be
00000150: de08 84bf d5e2 85bf 8a7b 85be 7921 37bf
00000160: be41 dfbd cd53 2f3f e04f 13bd 8943 00bf
00000170: 03e2 99bd 72cf 38bf aa0e 32bf c822 1e3f
00000180: 11f7 223e 226f 713e 5736 263f f3e4 013e
00000190: 99ec 72bf 8380 5f3f 4ea5 723e 6492 a33e
000001a0: 753a c4be f7b5 59be c46b bcbd e8ae 26bf
000001b0: b8f6 dbbd eac2 0b3f 0500 aebe 97d6 103f
000001c0: 23db 48bf 86ec d4be a38b 363d fa14 0b3f
000001d0: f9c2 b0be 0bcc 0c3f 2dd6 563e d108 df3e
000001e0: eb99 cd3e 3de6 3ebf e206 af3d 69ec 563f
000001f0: 28f1 9fbf 6b9a 4f3e a2ff 2abf 3408 45be
00000200: 8a3c 773f b6a9 59bf 0a2e a5bd 1cea c73e
00000210: c5d3 21bf a6da 0abf aa22 e73c edcd 32bf
00000220: 930b c4bd 8c7d 95be 770b 54be 3520 e73e
00000230: b1f7 953e 324e f23e a230 b1be eb86 0b3e
00000240: 3236 b2be cabb 2a3f 6e20 2dbd 17c6 2abf
00000250: 56f4 48be 2ba3 04bf f739 ce3d 4709 31bf
00000260: f5cf 79be 4b77 0d3f a200 8e3d f794 603f
00000270: 8904 09be 37ea 2a3f 1030 943f a121 4f3f
00000280: 0f4d ef3c fea6 773e 3797 29bf f104 16bf
00000290: 203d e8bd c673 6cbf 9f4a be3d 0d57 21bf
000002a0: 1a77 1a3f e62f febe a3bd 9bbe 4e62 ad3d
000002b0: 2417 2dbf f597 3c3f f87c 7cbe 9ac8 47bf
000002c0: de9d 4d3e 634f b93d 6066 e4bd 5931 f73e
000002d0: 0bed 32bf c7dc 15bf 77b6 7e3d fa52 20bf
000002e0: 10bd 173d 6ba6 173f 7b85 cb3d 0373 023f
000002f0: 6a52 3c3d 1e6c 29bf 4e90 87bd ccf4 30bf
00000300: 06cd 8abd 0b68 e1be b26e 34bf eea0 ee3d
00000310: 92ec 733f eac2 60bf 112b 823e f368 fdbe
00000320: 23f1 97bc e4eb 64bf d60b df3e d497 b03e
00000330: 12e0 213f 7ae3 f73e 76bd cbbe 0fce 4a3e
00000340: bdae 443e 4a46 fc3e 9cf0 153f 26fd 22bf
00000350: 361e 893e c82e 09bf d8ce 593f ffaa 35bf
00000360: 5e3c f6bd 000b 343f 93b0 353d c78f 4ebf
00000370: 5d26 8b3f 930e 34bf 2813 e5be 9c6e eb3d
00000380: f21a dd3e b0fb 6ebe e111 c33e 1ed5 d83e
00000390: 2aea 5f3e 11b0 9fbe efec 4d3f a363 50bf
000003a0: 5808 803f 2ffe 323f 9ed8 813e 39b3 05bf
000003b0: 79ac c6bd 687e 76bf fadf 01bf 1e05 a83e
000003c0: 217e 9f3e c11e 033f 4615 c9be d35e f03e
000003d0: 97f9 e4be 35a4 aabe c8fc ecbc cc35 4dbf
000003e0: 6732 a8be 5bcb ff3e de40 393f 9935 c3bd
000003f0: 88c0 89be 51d1 743e 5471 c9be 46e3 1e3f
0.41323525 -0.29520053 -0.48972702 -0.3369113 0.4814705 -0.030722663 0.9043269 0.66378975
0.3141033 0.23092182 0.067416474 0.41369468 -0.99204856 -0.19916454 0.08258214 0.24774054
-0.90317893 0.8544143 -0.039768573 0.7213422 -0.085849054 -0.8187017 -0.088264436 0.55966616
-0.49885544 -0.5071383 -0.42861247 -0.56959003 0.43761086 0.3556662 -0.03271431 -0.79913515
0.77206737 -0.71764004 -0.3213176 0.58061713 -0.29009524 -0.32106647 0.4399609 -0.23603052
-0.25344363 -0.5660331 -0.13060313 -0.59084964 -0.009729352 -0.94947296 -0.09418731 -0.37574434
0.025059137 -1.0114794 -0.6681093 0.6297602 -0.21505284 0.54960114 -0.32497513 0.39411122
0.79312706 -0.531954 -0.2069778 0.61185384 0.699627 0.5592726 -0.08752847 0.80192894
0.35256353 0.26347426 0.43812382 -0.45297372 -1.3343608 -0.15467262 -0.60972404 0.56366485
-0.3865727 0.051553395 -0.027017783 -1.1118547 -1.0113633 0.8133122 0.19381936 -0.013209032
-0.11482335 -0.6065849 0.62421083 -0.40694973 -1.0315206 -1.0459849 -0.26070815 -0.7153545
-0.10901211 0.68487245 -0.035964847 -0.5010305 -0.075138114 -0.72191536 -0.69553626 0.6177182
0.15914561 0.2357755 0.64926666 0.12684993 -0.9489227 0.8730547 0.23695871 0.31947625
-0.3832585 -0.2126082 -0.09200242 -0.65110636 -0.10740417 0.5459429 -0.3398439 0.5657744
-0.78459376 -0.41586703 0.04456676 0.5432888 -0.34523752 0.54998845 0.20980139 0.43561414
0.40156493 -0.74570066 0.08546235 0.83954483 -1.249547 0.2027375 -0.66796315 -0.1924141
0.9657675 -0.85024583 -0.08065422 0.390458 -0.6321376 -0.5423988 0.028214771 -0.6984547
-0.0957252 -0.29197347 -0.20707498 0.4514176 0.29290536 0.47325283 -0.34607416 0.13625686
-0.34806973 0.66692793 -0.042267255 -0.6670851 -0.19624457 -0.51811475 0.1006965 -0.6915478
-0.24395736 0.5526015 0.069337144 0.877273 -0.13380636 0.66763633 1.1577168 0.8091069
0.02921155 0.24184796 -0.6624636 -0.5860129 -0.11339784 -0.92364156 0.092915766 -0.63023454
0.60337985 -0.4964592 -0.3041812 0.08466016 -0.67613435 0.7366937 -0.24657047 -0.7804047
0.20079753 0.09048345 -0.11152339 0.48279837 -0.6989295 -0.58540004 0.06218573 -0.6262661
0.03704554 0.5923831 0.09937569 0.50956744 0.045977034 -0.661806 -0.06619321 -0.6912353
-0.06777386 -0.4402469 -0.7048141 0.11651789 0.9528285 -0.87797415 0.25423482 -0.49494132
-0.0185476 -0.8942244 0.43563718 0.34490836 0.6323253 0.48415738 -0.39792985 0.19805168
0.19207282 0.49272376 0.58570266 -0.63667524 0.26780862 -0.5358701 0.85081244 -0.70964044
-0.12023233 0.70329285 0.044357847 -0.80688137 1.0871083 -0.7033474 -0.44741178 0.114957064
0.4318462 -0.23338199 0.38099578 0.42350096 0.2186667 -0.31189016 0.80439657 -0.81402034
1.0002546 0.69919103 0.25360578 -0.522266 -0.09700865 -0.9628663 -0.50732386 0.32816404
0.31150916 0.512188 -0.39274043 0.46947345 -0.44721672 -0.33328405 -0.02892913 -0.8016021
-0.32850954 0.49959835 0.72364604 -0.09531707 -0.26904702 0.23907973 -0.39344275 0.6206554

input_layer.0.bias f4 [128]
00000000: e349 443f 1970 af3e 67fd 6b3f 077a 363f
00000010: 0302 c33d 9786 dd3e 31e8 843c a5d5 153f
00000020: 2251 e23e 8aed 233f 8623 6abf 9842 f3be
00000030: 0359 023b 27f6 c5be 3be5 61bd d6e9 bfbe
00000040: c22d 69bd 9200 f83c b1f6 653f 1208 663f
00000050: 4e04 cfbe 1553 3dbf e4b0 44bf d354 c6bd
00000060: 25e0 73bf 82c8 6d3e e15c f03e 5f5d 423f
00000070: fa9e 3a3f 5c84 61bf d32e 533e f046 40bf
00000080: 194d 3abf fa26 73bf 0028 32bf 7826 423f
00000090: d11f 8ebe cf7a 7bbf 76c0 59bd a0a4 ea3e
000000a0: 0aa1 433f 8462 133f 9e2c 06bf 2260 fbbd
000000b0: 5850 433f cad7 ff3e cca8 47bf 72ae 6f3e
000000c0: 82c9 54bf db98 f4bd 3880 1abe db98 d63e
000000d0: c139 2cbf d5ec 653f 61db ebbe a061 ac3e
000000e0: 8e05 2e3f 6f51 38bf d335 bb3e 9821 213f
000000f0: 4b6a 9bbe 0932 853e 00ee 92be fd0a 913d
00000100: 0c71 c4be e33e d83c d728 703f 2c31 9f3e
00000110: 0aac 45bf 6a5b e93c ea30 59be 8b7d 0d3f
00000120: 34b3 893a 9d25 4e3f cdd5 26bf 6cd5 24bf
00000130: 2b0a ab3e 1823 503e 1707 423f 0a86 073c
00000140: b379 483f eb16 cbbe fe01 a9be 84ec 153f
00000150: 1beb 14bf c49b 31bf 57ea 303d 0ffb 42bf
00000160: 147a 4d3f 9ba3 213f 3945 9cbd 578d 2ebf
00000170: 4294 e6be 326d 15bf 5250 21bf ba6f 4a3f
00000180: 463f 823e 148e 4fbf af8f 0c3e 3a1e 713e
00000190: 61e6 5abf c7c6 3fbe 55c8 0c3e 1618 3ebf
000001a0: cb9b 243f 9f6a 153f 6048 123d ed36 e3bd
000001b0: d607 bd3e f480 c5be 734d 73be ed23 343f
000001c0: 6bc0 2ebf 4237 513d 1c84 373f 099e f6bc
000001d0: 4456 39bd 4db1 bb3e a44c 1a3f c9a8 043f
000001e0: 5d82 d03e 480a 2b3f 0e04 0bbf 819f 09bf
000001f0: c67e c13c ef44 1e3f 35c1 2dbf 8d7e d93d
0.7667524 0.3426521 0.92183536 0.7127995 0.09521868 0.43266746 0.016223999 0.5852912
0.44202524 0.6403433 -0.91460454 -0.47511744 0.001988948 -0.38664362 -0.05515025 -0.3748309
-0.056928404 0.03027371 0.89829546 0.89856064 -0.40432972 -0.739549 -0.76832414 -0.09684148
-0.9526389 0.23221019 0.4694586 0.75923723 0.7289883 -0.8809259 0.20623331 -0.7510824
-0.7277389 -0.9498135 -0.69592285 0.7583995 -0.2775865 -0.98234266 -0.05316206 0.45828724
0.764176 0.575722 -0.5241183 -0.12274195 0.7629447 0.4996932 -0.7799194 0.2340639
-0.83119977 -0.11943217 -0.15087974 0.41913494 -0.67275625 0.898145 -0.4606581 0.33668232
0.67977226 -0.7199926 0.36564502 0.62941885 -0.30354533 0.26014736 -0.28697205 0.07082174
-0.38367498 0.026397174 0.93812317 0.31092203 -0.77215636 0.028485972 -0.21210065 0.5526969
0.0010505677 0.80526143 -0.65169984 -0.64388156 0.33406195 0.20325887 0.7579207 0.0082717035
0.783107 -0.39665923 -0.33009332 0.5856402 -0.5817124 -0.69378304 0.043192234 -0.76164335
0.802644 0.6314027 -0.07630391 -0.6818442 -0.45034987 -0.58369744 -0.63013184 0.7907673
0.254389 -0.8107617 0.13726686 0.23546687 -0.8550778 -0.18728171 0.13748296 -0.742555
0.6430022 0.58365816 0.035713553 -0.11094461 0.3692004 -0.38574946 -0.23760013 0.7036732
-0.68262357 0.05107809 0.7168596 -0.030104654 -0.045248285 0.36658707 0.60273194 0.51820046
0.4072446 0.6681256 -0.5430306 -0.5375901 0.02362002 0.61823934 -0.67872936 0.10619841

hidden_layers.0.0.weight f4 [128, 128]
00000000: e3d7 89bd 3099 17be 98e8 66bd dbd0 a33d
00000010: 8ee4 6b3e bb67 b93b 20db a3bc a6cf 1b3d
00000020: 2ae6 b53d 0cec e3bc a8c0 fbbc 8bdf a53e
00000030: 1041 1ebd 752f f03c 7686 0b3e 7fa8 3dbc
00000040: 3f1f b5bd 0ca1 e63d 3576 2dbd 5483 febc
00000050: 5987 c0bd 5420 a23c b39b a23d dc41 34bd
00000060: cb7a 123d 2248 563c f16d 713d 482d af3d
00000070: 66c8 43bd 0994 153d ca56 143d 4744 9b3e
00000080: 622f ef3b 4a8c 63bd b2da 05bd c801 483d
00000090: 0c16 50bb 5b0a 29bd 1465 a7bd ce7b 843d
000000a0: 4513 67bd ce14 ca3c ce41 18bc af52 9cbd
000000b0: b392 c73d 3d52 4dbe 704a 76bb 1186 bd3c
000000c0: 61ca c03d c7ee 6abc d892 32bd 5663 f83d
000000d0: 5ce7 3a3d 9790 c3bd 8651 853e 6622 6bbc
000000e0: d0cd 59bd 5115 593e 8fb1 fe3c b6e2 4a3d
000000f0: b8af acbc 7daa 93bd b829 023e 7070 d4bd
00000100: 94a8 30bd f760 bf3d 965c babd 07ec 95be
00000110: 0b3c dfbd a601 483d 1217 e03d 3e47 013c
00000120: 1333 7e3d 88e4 1abe c2ac aebc 37cd 01be
00000130: d949 293a 40b1 0fbd 667b 4fbd 8b84 cbbd
00000140: 1616 d9bb 9a2d debd 51b2 4cbd e6de 77be
00000150: 8c5c 62bd d3fc 51bb 63ee 383d 294b 8c3d
00000160: a4f0 62bc 1e09 873d bbb1 e6bd effd febd
00000170: b48b c73e 7011 333e 0b65 ecbd 5e1d d3bd
00000180: 6b58 dfbe d122 423d 172e 0a3b 2c09 60be
00000190: 358f 9b3b fa44 4d3e aaaa fa3c 61fa 87bd
000001a0: c469 30bd 24c0 86bc 5d07 16be b6c7 7fbd
000001b0: 4729 afbc 427f 293d 498d 623d d5b6 a03d
000001c0: 4d7d 4fbb fc47 bc3d e951 9d3c 2135 d53c
000001d0: 13b7 02bd 85c1 3cbe 08bf a9be 90a3 103d
000001e0: 2676 1dbd e032 993b 9299 9abd 1698 61bd
000001f0: c64e e03d d55f 0fbd 7dbe 043d 43e4 193e
00000200: 94be 77be e597 86be c0b4 b6bd e50e 35bd
00000210: 9eb8 40bc b92e a5ba e73c debd e4a6 1bbd
00000220: 0859 443d 5c85 3b3d 6e9f 85bc fe45 263f
00000230: 2a1f a7bd b5e7 a0bc a5e2 fd3d 5e84 9cbd
00000240: a19a 91bd db22 da3d 9313 bfbd 0d5a 8bbd
00000250: 9eae efbd 62c2 fbbc d2ec 8dbd 71fd bdbd
00000260: 71b6 32bd 9129 b9bd 89fb f03c 0c76 26bd
00000270: 72cf 0ebe 88f0 9a3e ff74 223d 720a 1f3f
00000280: 5753 833e 58fd ec3d e536 853d 95f8 53bd
00000290: 8488 233e d4dc 45bd 49a2 10be ef2a dcbd
000002a0: 6220 d1be fcea 08be aaed d53d 06b3 02be
000002b0: 8525 c7bd ad5b 1bbf deda c8bc 4ab1 02bd
000002c0: 925a ba3d 2291 9f3e 06f9 08be b692 aa3d
000002d0: 2941 3c3c 8590 a3be 04a3 2d3f 934f 843d
000002e0: 15ad d0be 8146 933e 2ec4 1a3d 6628 debc
000002f0: f721 1abe c294 063e d259 60bd eb86 f4bd
00000300: e123 b53c a57b 263e 4c68 a4be d7eb d6be
00000310: 9931 1f3d d133 003e 2b26 a73e 53c6 9cbd
00000320: 22a7 5b3e 0960 c4be 8ac9 123d 0637 a8bd
00000330: a764 bc3d 40f6 bb3d 5835 60bd cec0 053d
00000340: 6d64 17be 6b8e 033d ab3d 50bd 06ff 0fbf
00000350: 423f aa3b 57e6 313e 12a6 bc3d 9bc9 3f3b
00000360: f22f 13be c51a 413d a702 a6bd dfa5 80bd
00000370: 844a 1b3f 82e9 af3e b33c 673d b97b c5be
00000380: a79a a8be f32c 6e3d 5095 3a3d 1efd f9be
00000390: 62d2 84bd af6a 6b3e 8956 393d 1ec2 403e
000003a0: dfd6 bfbc b46e 18be d8d1 91be 4be7 80bc
000003b0: c54c b83d 5e61 8c3c f8af 533d e371 3ebd
000003c0: ca49 893d d89f 133e 3bec 3dbe 0dc3 4abd
000003d0: 9446 133e 2a24 fcbe 86f5 7fbe 5c51 a7bd
000003e0: 8fa3 883d a48e 31ba 35e3 df3d 7bff d7bd
000003f0: 69fb fe3d 9c2c 15be 5d07 2d3e 272a fa3d
-0.0673063 -0.1480453 -0.056374162 0.079988204 0.23036405 0.0056581176 -0.020001948 0.038039826
0.08881791 -0.027822517 -0.030731514 0.32397112 -0.038636267 0.029319504 0.13625512 -0.011575817
-0.0884385 0.11261186 -0.04234906 -0.031068482 -0.094008155 0.019790806 0.079398535 -0.04400812
0.035761636 0.013078721 0.05894274 0.085535586 -0.047798537 0.03651813 0.03621558 0.3032553
0.0072993496 -0.055553712 -0.032679267 0.048829824 -0.0031751422 -0.04126964 -0.08173576 0.06468926
-0.05641486 0.024668124 -0.009293033 -0.07632958 0.097447775 -0.20050903 -0.003758099 0.023135217
0.09413601 -0.0143391555 -0.043597072 0.12128322 0.045630798 -0.09549063 0.2603876 -0.014351463
-0.053174794 0.21199538 0.031090526 0.049532615 -0.021079883 -0.072102524 0.12711227 -0.10373008
-0.04312952 0.093446665 -0.090996906 -0.29281637 -0.10900124 0.048829697 0.109419 0.007890521
0.062060427 -0.1512624 -0.021322612 -0.1267594 0.00064578425 -0.03508115 -0.05065479 -0.0993739
-0.0066249473 -0.108485416 -0.049974743 -0.24206123 -0.05526404 -0.0032041564 0.04514922 0.06850273
-0.0138513185 0.06593536 -0.11264368 -0.12450778 0.38973773 0.1748712 -0.1154271 -0.10308336
-0.43622145 0.047396485 0.00210846 -0.21878499 0.004747296 0.20045844 0.030598957 -0.06639553
-0.043069616 -0.016449042 -0.14651246 -0.06244632 -0.021381987 0.041381128 0.05531052 0.078473724
-0.0031660378 0.091934174 0.019204097 0.02602631 -0.031912874 -0.18433197 -0.33153558 0.035312235
-0.038442753 0.004675254 -0.075488225 -0.05507668 0.10952525 -0.035003502 0.032408226 0.15028481
-0.24193794 -0.2628776 -0.08921194 -0.044203658 -0.011762766 -0.0012602425 -0.1085146 -0.038000956
0.04793647 0.04578148 -0.016311374 0.6495055 -0.08160241 -0.019641737 0.12396745 -0.076424345
-0.07109571 0.106511794 -0.09329905 -0.06804285 -0.117032275 -0.030732337 -0.069299355 -0.09276856
-0.04363102 -0.09041131 0.029416816 -0.040639922 -0.13946322 0.30261636 0.039662357 0.62125313
0.2564952 0.11571759 0.06504611 -0.05175074 0.15970045 -0.0483063 -0.14124407 -0.107503764
-0.4084502 -0.1337089 0.104457214 -0.12763605 -0.09723953 -0.6068676 -0.024518427 -0.031907357
0.09099306 0.31165415 -0.13376245 0.08328764 0.011490145 -0.31946197 0.6782687 0.0646049
-0.4075705 0.28764728 0.037784748 -0.027118873 -0.15052019 0.13142684 -0.05477316 -0.11939796
0.022111835 0.16258104 -0.32110822 -0.41976807 0.03886566 0.12519766 0.32646307 -0.07655015
0.21450475 -0.3835452 0.035836734 -0.0821362 0.091988854 0.09177828 -0.054738373 0.032654576
-0.14784403 0.032118242 -0.05084006 -0.5624851 0.005195529 0.17373024 0.09211363 0.0029264453
-0.14373758 0.04714467 -0.08105975 -0.062816374 0.60660577 0.3435784 0.05645437 -0.38570955
-0.3293049 0.058148336 0.04555255 -0.48825926 -0.0648544 0.22989915 0.045248542 0.1882405
-0.023417888 -0.1488598 -0.2848041 -0.01573529 0.089990176 0.017136272 0.05168149 -0.04649533
0.06703527 0.14416444 -0.18547146 -0.04950242 0.14382392 -0.4924634 -0.24996004 -0.08169815
0.06671821 -0.0006773269 0.10932008 -0.10546776 0.124502964 -0.14567798 0.1689734 0.12215071

hidden_layers.0.0.bias f4 [128]
00000000: 4398 c43d 2f62 14bd 15b8 24be 6e17 e73b
00000010: df37 873e 13fb 81bd a254 f6bd e7ea 62bc
00000020: e87a 88bc c454 b5bd f44e fc3d 182a b13c
00000030: bff7 e43d 4966 e13d b06f d9bc cc15 33bc
00000040: 140d 86bb 2f78 343d a8e8 efbc 2eb6 a73d
00000050: 33c2 a43c 6f34 84bd 9f34 75bc 56cc 423d
00000060: d5b6 e3bd f192 c03d 78a3 28be e348 d2bc
00000070: 2484 363e 453a 2b3d be55 91bd e475 633d
00000080: ef1e cf3d b74a b3bc e27e 213b 8d2d 6dbc
00000090: 495f 4fbd f04f 1abd 8704 8a3b caf6 93bd
000000a0: 6dae 2bbd c9d7 0abd ae53 863d 74bc 203e
000000b0: 2674 453d a21f 5e3d b8b0 7ebd 8f8a cf3c
000000c0: 4171 2e3d 0320 17bd 862e a23d 8682 db3d
000000d0: fb27 da3d 4c08 633d 279e 5cba d4ed 9b3c
000000e0: 5e07 663d fb27 6f3d 01e5 68b9 3974 973d
000000f0: bd2b e3bd 74cd 983a 8150 6abd 016e 56bc
00000100: 19bf abbd f649 16bd 7748 a2bd 7816 0339
00000110: 531f 273d b27e cb3b 9c72 1e3e 5dd6 dc3a
00000120: 610f 3f3d 27d6 00be f722 34bd dbb4 843d
00000130: e875 f73d d366 abbd 7e44 de3e 880f bcbc
00000140: fe56 ff3e 4b40 5dbd d848 2cbd 2711 6dbc
00000150: a9d5 833d d180 2dbd e9cb 223d 034a d5bc
00000160: bc7f 1a3d ddce 993e 0415 033e 0dc5 d9bd
00000170: 00dd 64bd 8e92 2f3c b319 033c b304 a93c
00000180: 1b45 80bd 944c 1a3d 061f 163d ffcd 903d
00000190: 4657 85bd 7260 10bd e42d 4dbd 1113 13bd
000001a0: 061e b13e cee4 0a3d 962f abbd d3d2 5c3d
000001b0: 018b 76bd 7b5d f63d 6bc8 34bd d8cd a6bc
000001c0: 29f1 a4bd 9239 73be ca33 efba 9aa1 a03d
000001d0: 116a 5e3c 394b bcbd 4648 99bd cd53 f6bc
000001e0: 3c4e dfbd 735c ffbc fdca ce3d 3c28 c0bc
000001f0: 761a c63c 279e 76bd 964b 0a3b 0160 7cbd
0.09599354 -0.036226448 -0.16085847 0.0070523536 0.26409814 -0.06346717 -0.12027861 -0.01384995
-0.016660169 -0.088540584 0.123197466 0.021626517 0.11180066 0.110058375 -0.026542515 -0.01093049
-0.0040909145 0.04405993 -0.029285744 0.08189045 0.020112133 -0.064553134 -0.014966159 0.04755815
-0.11118857 0.09403027 -0.16468608 -0.02566952 0.17823845 0.041803617 -0.07096432 0.05553235
0.10113322 -0.021886213 0.0024642278 -0.014476192 -0.05062798 -0.03767389 0.0042119655 -0.07224806
-0.041914392 -0.033897195 0.065589294 0.15696889 0.04820647 0.054229386 -0.06218025 0.025334625
0.042588476 -0.036895763 0.0791903 0.10718255 0.10652157 0.055427834 -0.00084159005 0.019034304
0.05615937 0.058387738 -0.00022210555 0.073952146 -0.11092327 0.001165791 -0.05720568 -0.01308775
-0.08386058 -0.03669163 -0.07923978 0.00012501504 0.040801357 0.0062101716 0.15473408 0.0016848553
0.046645526 -0.12581693 -0.043978658 0.06479808 0.12083036 -0.083692215 0.4341163 -0.022956625
0.49871057 -0.054016393 -0.042061657 -0.0144694215 0.06437237 -0.042359177 0.039745245 -0.026036268
0.037719473 0.30040637 0.12800986 -0.106332876 -0.055874825 0.010716094 0.008001733 0.020632124
-0.06263181 0.037670687 0.03665068 0.07070541 -0.06510787 -0.035248227 -0.050092593 -0.035906855
0.3459322 0.03390961 -0.08358686 0.053911995 -0.06019116 0.12029549 -0.044136446 -0.020361826
-0.0805381 -0.2375243 -0.0018249687 0.07843323 0.013575093 -0.09194035 -0.07484488 -0.030069256
-0.10903594 -0.031172013 0.10097311 -0.023456685 0.02418254 -0.06020942 0.0021102182 -0.061614994

output_layer.weight f4 [1, 128]
00000000: 96c6 0fbe 0f0a 4e3e d8fe 853f 7da5 e6bd
00000010: b823 8a3e f596 073e ea46 703e af16 623e
00000020: c292 eb3d 5db7 933d 01cf 553e 6088 d73d
00000030: 6dd5 d9be 02c7 91be bb72 9e3d 90a0 3cbe
00000040: 1725 9f3d 02dd eebd 8f6c abbd 56d7 c8bd
00000050: 9093 373e 7f09 c3be 9441 353e 53c1 503e
00000060: dd61 21be 7bb0 0abe 3ddd 8bbe fe44 733e
00000070: f903 493e 8866 9d3d ff0d 5dbe da61 83be
00000080: b0ae dbbd 04bc 123e 2305 a7bd 6bc8 92bd
00000090: efb4 efbd 5043 633e ab7a f7bd dae5 083e
000000a0: 35b7 d73e 9f19 3d3e bef3 cfbd 8eb8 8b3e
000000b0: be2a ca3e 2c0c 06be 3f76 d4bd 9a65 50be
000000c0: 7d3d e73c e89e f7bd 4299 b5bd 2b35 2dbe
000000d0: c19f 33be d6e3 d03d 4165 d73d 9900 373e
000000e0: c681 c63e 2b25 ce3d ff9c 573e 8597 57bd
000000f0: e15a bb3d bc07 cb3d 23c6 1cbe 7f07 b2bd
00000100: 7c18 c73e ddcb 83be 921a 193e f786 de3d
00000110: 6313 173e dd08 73be 5d14 0e3f c0c0 1cbe
00000120: c13f 50be 6fe9 8bbe 1251 fbbd 9566 cebd
00000130: dde4 14be 8c05 1ebe 47c4 8dbe 20be b33d
00000140: 3b3b ddbe cdac 2abe 7854 e63d 77c2 663e
00000150: 7126 1cbe 0da8 cbbe 1047 ba3d e68d 04be
00000160: eb1d cdbe da95 25be 5d1f 253e ca1f 083e
00000170: 8ac2 ecbd 9787 cfbd c889 11be 8fdb cd3e
00000180: 1629 ca3d 9338 f73d d4ff fabd 6f86 63be
00000190: 10f3 a43d 66e4 b6bd 9c54 0ebe f06c 563e
000001a0: c965 4dbd 91cd 12be 7c87 babe abfc 9fbd
000001b0: 836b 593e da74 96be 57a6 003e eecd 3fbe
000001c0: 5f92 1ebe ccc9 30bf 397a 033e 2801 2bbe
000001d0: 41dd 61be 5580 91bd 79e7 543e 2122 0f3e
000001e0: 9f03 383e 1f40 e33d 94f2 4dbe bd3f d9bd
000001f0: 3b45 0ebe 4aa4 30be 62ee 0abe 46dc f03d
-0.14040598 0.20121025 1.0468397 -0.11262033 0.26980376 0.1324118 0.23464552 0.22078966
0.11502601 0.07212708 0.20879747 0.10524058 -0.42545643 -0.28472143 0.07736727 -0.18420625
0.07770746 -0.11663248 -0.08370315 -0.09806697 0.17927384 -0.38093182 0.17700797 0.20386247
-0.15759988 -0.13543884 -0.2731723 0.23756787 0.19630422 0.07685572 -0.2158737 -0.25660592
-0.10726678 0.14329535 -0.081552766 -0.07167133 -0.11704432 0.22193646 -0.12083944 0.13368931
0.42131963 0.18466805 -0.10153912 0.27289242 0.39485735 -0.1309058 -0.10374116 -0.20351258
0.028227562 -0.12090856 -0.08867122 -0.16914813 -0.1754141 0.10199706 0.105173595 0.17871322
0.38770884 0.10065683 0.21055983 -0.052634735 0.09148193 0.099135846 -0.15309958 -0.08692836
0.38885868 -0.25741473 0.14951542 0.10865586 0.14753489 -0.2373385 0.5549982 -0.15307903
-0.2033682 -0.27326533 -0.12271322 -0.1007816 -0.1454043 -0.15431803 -0.2768881 0.08776498
-0.43209252 -0.16667481 0.1124658 0.2253512 -0.15249039 -0.3977665 0.09095585 -0.12944755
-0.40061888 -0.16170445 0.16125245 0.13293377 -0.11560543 -0.101332836 -0.14212716 0.40206572
0.09871118 0.120713376 -0.122558266 -0.22219251 0.08054173 -0.08930282 -0.13899463 0.20939994
-0.050145898 -0.1433623 -0.3643149 -0.078118645 0.21232419 -0.29386026 0.12563454 -0.187309
-0.15485524 -0.6905792 0.12839593 -0.1669966 -0.22057058 -0.071045555 0.20791425 0.13977863
0.17970131 0.110962145 -0.20112067 -0.1060786 -0.13893597 -0.17250171 -0.13567498 0.11760764
