pytorch/Laplace_eq_outputs/model_lr_1_layers_0_lambda_1.pt (torch, 7898 bytes, 5 tensors)

input_layer.0.weight f4 [32, 2]
00000000: f050 7abf 9243 393e 5b21 6f3f 20b1 0a3f
00000010: 4f11 9cbe bcce 603f 7195 05be 47c3 803f
00000020: ef22 4ebf 3ab8 84bf f392 9b3c 511f 813f
00000030: 0964 fbbd 2506 7e3f 501f b1be ac9d 3fbf
00000040: cd0a 72be 6216 313f 209b 5abf 68e9 653f
00000050: 7649 67bf 3ab4 853f d699 623e 6aa6 88bf
00000060: b77c 32bf a802 9e3d b7b5 0dbf 16e2 de3e
00000070: e8c9 88be 67c6 5c3f 4029 60bc 606f a63f
00000080: e9c2 f63e 040f 56bf e3b6 cdbe 9703 e6be
00000090: 1c6c 833c 9ffa 913f 19aa 1dbf 4d7e 0ebf
000000a0: e57a 3f3f 7f35 033e 155e 89bf 9baf 113f
000000b0: 1a31 a53e 5e59 4cbf 7e6b 733f bbd2 e7be
000000c0: 0ca1 b93f 1299 b0bf 2e6f 373f 8cc1 82be
000000d0: a568 6dbe 70a6 663f fbe1 ae3d 9d9a 453f
000000e0: b47b 193f 55b8 fa3e 1da8 883e 8ba4 4fbf
000000f0: cf55 47bf 32c1 d83e 4cfc 183f 79eb d03e
-0.9777975 0.18092182 0.9341027 0.5417652 -0.30481955 0.8781545 -0.13045289 1.0059594
-0.80522054 -1.0368721 0.01899097 1.0087682 -0.122749396 0.99228126 -0.34594202 -0.74849963
-0.23636933 0.6917478 -0.8539295 0.89809275 -0.9034647 1.0445626 0.22128996 -1.0675786
-0.6972155 0.077153504 -0.553554 0.43531865 -0.26716542 0.8624024 -0.01368171 1.3002739
0.4819558 -0.8361666 -0.40178594 -0.44924614 0.016042762 1.1404608 -0.61587673 -0.5566147
0.747969 0.12813376 -1.0731837 0.5690858 0.32264024 -0.79823864 0.95085895 -0.45277962
1.4502273 -1.3796713 0.7165402 -0.2553829 -0.2318445 0.90097713 0.08539196 0.77189046
0.5995438 0.4896876 0.2669076 -0.8111045 -0.7786531 0.42334896 0.59759974 0.4080465

input_layer.0.bias f4 [32]
00000000: bd66 cd3e 6df2 84bf 7803 433f 2412 7fbf
00000010: 4159 b7be 719e a83e 329d 97bf 5eaa 5f3f
00000020: 64ef a03e a85e 82be c4bb 15be 6e09 a83f
00000030: d5da 603f 2097 4a3f 3acb 75bf 8277 9c3f
00000040: 16cc b43d 7010 333f 0746 90bf c9bf c5bb
00000050: 165c 9f3f 78e2 7fbf 14e8 513f 7d58 66bf
00000060: 624b 67bd c99c 26bf 7865 5a3f b5c4 7b3f
00000070: 48ea 41be 51ab 03bf e730 4bbf d39d 363f
0.40117446 -1.0386482 0.7617717 -0.99637055 -0.35810283 0.3293338 -1.1844847 0.87369335
0.3143264 -0.25462842 -0.14622408 1.3127878 0.8783391 0.7913685 -0.96013224 1.2223971
0.08827989 0.69946957 -1.1271371 -0.0060348255 1.2449977 -0.9995494 0.8199475 -0.8997877
-0.056468375 -0.65082985 0.8531108 0.98347026 -0.18937027 -0.51433283 -0.79371494 0.7133457

hidden_layers.0.0.weight f4 [32, 32]
00000000: 354c 3c3e a9f9 6f3e d53e 61be c668 97be
00000010: 76ed b33d 9110 f2be c9f3 313d 7987 44be
00000020: 507a 34be cce0 cf3c ba21 81be 1c64 3b3e
00000030: fa0b 08be 06e9 e23c 41c1 31bd 35ab ffbe
00000040: f8bd cc3d 02a4 4cbe 4bcf 003d bc13 543e
00000050: 0441 a0be e984 a9bd 320c b73e 44b8 573c
00000060: e09a 45be 77fa 1abd 70da 52bc 2f8a 10be
00000070: e22f 153e 14c7 153e 5a92 6b3d 4528 c1be
00000080: 7d0c 30be 10da a03e 7356 8dbe 9d3b 723f
00000090: ca3c 04bf 760e a0bc 71d9 1d3f dc62 18bf
000000a0: 9872 833e cae5 b03e 7124 503e b6d0 54bf
000000b0: d98a aabe 9d06 b4be a34b 283f 6420 06bf
000000c0: f2d3 aabe b7f0 39bf 6505 4d3f 44cc 03bf
000000d0: e331 88bd a841 523e 8a12 3bbf 85bd a93e
000000e0: b74f 6e3d 87d6 b43e b89c e4bd b043 89be
000000f0: 9a7d 073f 3f30 79be e54d 883e 2580 803e
00000100: 66b5 c2bd ad73 953e 2188 01bc 6e95 853f
00000110: a048 43bf fe3e 0cbd 7639 793f 31e9 52bf
00000120: 3724 f83e 512e ee3e 3325 f63e ca7b 87bf
00000130: 0206 18bf 96ef 4fbe b701 873f 551a fdbe
00000140: ed25 00bf 34c0 15bf f694 593f e143 1ebf
00000150: 277f c3bc 2274 8e3e 7423 55bf 6318 6e3e
00000160: 740a 29be e90f b13d 51ef 5ebe 4dbd debe
00000170: 5381 4f3f af35 e4be 4cb5 973e 6261 dc3d
00000180: 88fa 183e aadd 973e a7a9 803e c403 973d
00000190: 9a66 dfbd fecc e63e bc4a c53e 502c 0e3e
000001a0: 2cef aebd 4edd ce3e b964 733e 047c e0be
000001b0: 2010 2e3e f881 ebbd be2f 6c3e 3101 5d3e
000001c0: 05a4 8bbe facc bc3d 4384 66bd 81d0 113e
000001d0: 9dc0 01bf f470 d03e 1b9a d0bd 2358 1dbe
000001e0: 465d 7dbe e516 77be 79b8 2bbe c09b 51be
000001f0: 2dc6 19be 2e54 0cbe 8300 a23e 0b97 7cbe
00000200: 78e1 1d3f 363b 15bf 08b6 b6bd 4697 d23d
00000210: 46ed b1be c68c 813e 9bf6 d53e 8137 513e
00000220: 4413 94be 9a8b 223e 48d4 45bc 15c2 a2be
00000230: 40e0 39be c0d6 b9bb 4cfa 3a3e 07c1 d2be
00000240: eebf 78bd 60ba 9abc 1ee5 293d 04c1 acbd
00000250: b753 1dbf c76a 5d3e 7770 b8bd acdd 6b3e
00000260: 7f2c 92be 7097 b3be 8390 87be 1789 e8be
00000270: 6dbf c33d d2d0 3c3e dcc6 113f 12af 1bbe
00000280: d611 debd 9330 23be db9a 9cbe b837 3abd
00000290: 2130 32bc 4526 98be d12f d03d 5c0b 133e
000002a0: 4e06 73be ac74 69be 6187 42be a252 463e
000002b0: 8a27 a3be 8dac ddbe c579 c3bd 0247 a43c
000002c0: f217 ac3e f796 88be b1f9 613d 1df7 823d
000002d0: 9018 c73e 236e 82be 6fff a43d b18b d83e
000002e0: 1f41 773e b1fe 823e ac63 77be cad7 1a3e
000002f0: 7c15 853e 602f bb3e 598e c8be b364 873e
00000300: 9e41 febe f11a 153f 4d08 d9bd 35a0 6c3f
00000310: e533 21bf 10c0 033e d84f 683f c535 29bf
00000320: ab9e 9b3e dd4f 8d3e e65a ea3e b4d1 1abf
00000330: 2735 94be 154d 57be d6f8 5b3f 124a cbbe
00000340: 3e71 f8be 4602 e5be 5d98 643f 56d0 39bf
00000350: 4d29 22be 02b2 a23d 70ae 53bf bfd2 76bd
00000360: 217d 2fbe 9fd3 74bd 441f 2ebe 63f5 96be
00000370: 755d 1e3f 6f1d 31be 0933 283e 8c80 8c3e
00000380: 706e 71be 8060 ebbd 5588 ebbe ef47 693e
00000390: dc85 e13e 7663 9dbe 9929 803c 569e fc3b
000003a0: 8d4d efbd 4886 82be c289 05be 35a1 a1be
000003b0: 04fa 133e f347 92be f509 2ebd 5b2f 42bf
000003c0: 22e3 be3e 15e0 243e 66a6 863e 8376 873e
000003d0: 04f8 01bf 3005 653e 76b7 9abd cdb2 8e3e
000003e0: 8c1f e43d ed24 103e 75a9 33bf 9a3a 3fbf
000003f0: 4d65 d0be ef67 f43e e0ed 633e dd18 01bf
0.18388446 0.23435082 -0.21996625 -0.29572123 0.087855265 -0.47278264 0.043445382 -0.19192304
-0.17624784 0.025375746 -0.25221044 0.18299907 -0.13285819 0.027699005 -0.043397192 -0.49935308
0.09997171 -0.19984439 0.03144769 0.20710653 -0.31299603 -0.08277304 0.35751492 0.013166491
-0.19297361 -0.03783652 -0.012869462 -0.14115213 0.14569047 0.14626724 0.05751262 -0.37726036
-0.17192264 0.31416368 -0.27605018 0.9462221 -0.51655257 -0.019538146 0.61659914 -0.5952585
0.25673366 0.34550315 0.20326401 -0.8313097 -0.33309057 -0.35161296 0.6574041 -0.52393174
-0.33364826 -0.72632927 0.80086356 -0.5148356 -0.0665014 0.20532858 -0.73075163 0.33152404
0.05818149 0.3531992 -0.11162704 -0.26809454 0.5292603 -0.2433481 0.2662193 0.25097767
-0.09507255 0.29189816 -0.007905991 1.0436227 -0.7628269 -0.03423976 0.97353303 -0.8238707
0.4846513 0.46519712 0.48075256 -1.0584652 -0.5938417 -0.20306239 1.0547398 -0.49434152
-0.5005787 -0.58496404 0.8499292 -0.61822325 -0.023864342 0.27822977 -0.8325722 0.2325149
-0.16507894 0.08645613 -0.2177098 -0.435038 0.8105671 -0.44572207 0.29630506 0.10760762
0.1493932 0.29661304 0.25129434 0.07373765 -0.109082416 0.45078272 0.3853358 0.13884091
-0.08541712 0.40403217 0.23768891 -0.43844616 0.16998339 -0.11499399 0.23065087 0.21582486
-0.27273574 0.09218784 -0.05627848 0.14239694 -0.5068453 0.40711176 -0.10185643 -0.15365653
-0.24742612 -0.24129827 -0.1676959 -0.2046957 -0.15017004 -0.13703987 0.31641015 -0.24666993
0.61672163 -0.58293474 -0.089214385 0.10282759 -0.34751338 0.25302714 0.41789708 0.2043133
-0.28920949 0.15873566 -0.012074538 -0.31788698 -0.18151951 -0.005671352 0.18259543 -0.41162893
-0.060729913 -0.018887699 0.04147827 -0.08435252 -0.61455864 0.21622764 -0.09005826 0.2303378
-0.28549573 -0.35076475 -0.2647744 -0.4541709 0.09557996 0.18439034 0.5694406 -0.15203503
-0.10843246 -0.15936498 -0.30586895 -0.045463294 -0.010875733 -0.29716697 0.1016537 0.14359802
-0.23732874 -0.22798413 -0.18996955 0.1936746 -0.31866103 -0.43295708 -0.0954471 0.02005339
0.3361202 -0.26677677 0.055169765 0.06394789 0.38885927 -0.25474653 0.080565326 0.42294076
0.24145935 0.2558494 -0.24159116 0.1512138 0.25992954 0.36559582 -0.39171103 0.26444015
-0.49659437 0.58244234 -0.105972864 0.92431957 -0.6296981 0.12866235 0.9074683 -0.6609767
0.30394492 0.27599993 0.45772475 -0.6047623 -0.28946802 -0.21025498 0.8592657 -0.3970495
-0.48523897 -0.44728297 0.8929499 -0.7258352 -0.15836067 0.079441085 -0.82688046 -0.060259577
-0.17137577 -0.05977213 -0.17004114 -0.2948409 0.61861354 -0.17296384 0.16425718 0.27441823
-0.23577285 -0.11493015 -0.4600245 0.22781347 0.4404744 -0.30739945 0.015644835 0.007709305
-0.116847135 -0.25493073 -0.13040832 -0.31568304 0.14450842 -0.28570518 -0.042489965 -0.7585351
0.37282664 0.16101106 0.26298827 0.26457605 -0.50769067 0.2236526 -0.07554524 0.2787079
0.111388296 0.14076586 -0.70180446 -0.74698794 -0.40702286 0.47735545 0.22258711 -0.50428563

hidden_layers.0.0.bias f4 [32]
00000000: 0bd2 29bd d15f e1be 6e3a f9be 9a12 06be
00000010: c67f c6be 2f94 4dbe a298 01bf 9449 a3be
00000020: a10f 2d3e c88a 67be 38d9 c5bd 7bcd 93bd
00000030: 0425 413d 4f1b e83e 926d 0fbd 7010 2fbe
00000040: 8f93 cabe b439 e63e 99f9 a4be 3338 843e
00000050: 7abe 72be 7ea6 3abe 0855 0cbd cec6 13bd
00000060: 7c39 b53d 265d 3fbe 4011 0c3f ca89 923e
00000070: 63e0 4abe d04a 833e b4fa 843e a9cd 803e
-0.04146008 -0.44018415 -0.4867739 -0.13093033 -0.38769358 -0.20076059 -0.50623524 -0.31892073
0.16900493 -0.22611535 -0.09660572 -0.07216927 0.04715444 0.45333335 -0.035016604 -0.17096114
-0.39565703 0.449659 -0.32221678 0.25824127 -0.23705474 -0.18227574 -0.03426078 -0.036078267
0.08848855 -0.18687877 0.5471382 0.2862075 -0.19812159 0.25643015 0.2597252 0.25156906

output_layer.weight f4 [1, 32]
00000000: 2c33 e7be ca79 c4be aa4e c9be 728c a73e
00000010: d06f 763e 7e04 efbe c557 bbbe a3fe 173f
00000020: 4a45 2ebf df18 073f d1fd f0be ddbe 45bf
00000030: 07b1 053f e334 643e 0b9d f3be 5c8d e0be
00000040: 0472 f6be 2af1 d43e 6adf 173f 48d2 6c3e
00000050: 08a4 7a3d 8e3f fd3e 3557 8e3e d733 1dbf
00000060: 5f31 bb3e b753 1e3f bc73 a73e fce7 f8be
00000070: 1033 ee3e 5f9a febe e759 11bf dff1 1f3f
-0.4515623 -0.38374168 -0.39317828 0.3272434 0.2406609 -0.46683115 -0.365904 0.5937292
-0.68074477 0.52772325 -0.47068647 -0.7724436 0.5222325 0.222858 -0.47580752 -0.4385785
-0.48133862 0.41590244 0.5932528 0.23127091 0.06119159 0.4946255 0.2780091 -0.61407226
0.36561105 0.6184649 0.32705486 -0.4861449 0.46523333 -0.4972715 -0.56777805 0.6247844
