pytorch/Laplace_eq_outputs/model_lr_1_layers_2_lambda_0.pt (torch, 71258 bytes, 5 tensors)

input_layer.0.weight f4 [128, 2]
00000000: 72df 23be 7670 58bf ef52 19bf 7b20 123f
00000010: d4da debd 34a8 213f 21b8 ef3e 0ac2 c4be
00000020: 7cd7 f2be 7350 083e 9664 8ebe e06d 0bbd
00000030: 7ea5 b13e c854 43be 4d82 2e3f 2878 26bf
00000040: e14a 6f3e b2f9 5bbf b847 303f a20a 18bf
00000050: 873a 36bd c6fd 943e 13c2 3f3f 7347 4b3f
00000060: 631d 893e 312e 963e b7e1 18bd 6ac7 21bf
00000070: 38bd 1fbf 23e6 453f 8da4 2fbd 9fd3 ee3e
00000080: e6c4 2c3d 82f9 29bf 1183 2d3f 70c7 3b3f
00000090: dc3e 063f 187c 86be c4ca 02bf b68d 123f
000000a0: 5b05 45be 559d 31be 7534 a33e 5980 59bd
000000b0: 46af 543e 6fdb 28bf 6c51 383f 9031 41bf
000000c0: e905 96bd 08f1 15bf 21bf b7be e848 3d3f
000000d0: cdd4 1bbf fb70 0e3f b0a4 debe 376a 2a3f
000000e0: 15cc 4c3e f463 583f 4457 d1bd 6890 1f3f
000000f0: f914 3b3e b299 3d3f f836 28bf b679 ae3b
00000100: 67b1 6dbe 5ca8 eabe 4643 e9be 9e5b fd3e
00000110: f6a8 4abe 2965 7a3f 9785 c8be 60fd 72bf
00000120: e397 47be fd5e bdbe 8a10 a33e 098c bd3e
00000130: 4dd2 f0bc 52eb 37bf b292 48bf 4429 913e
00000140: 0968 e43e c8aa f2be 2544 06be 1bab 493f
00000150: 8096 e4be 1595 1a3f 7955 7bbe 3257 09bf
00000160: fc32 1fbf 4140 a43e fb12 323f 061c 3ebf
00000170: 4cbe ec3e f47f 1b3f 61b0 7b3e ee9e 3abf
00000180: ec16 ae3e 452c 9c3e a822 e9bc 5856 4d3f
00000190: ec4f 4f3e 47cd 153f 2d45 273f 751d 4bbf
000001a0: 83db ce3e 73be 20bf 5d6b 05bf fcf5 dfbd
000001b0: ec5c 36bf 372c 1f3f fc39 453e fac0 6cbf
000001c0: 6824 ef3e 6783 583f 3327 98bc c760 27bf
000001d0: 1f67 ea3d c757 3fbf 1eb4 e9bd 027b 14bf
000001e0: a10b 59bf 2c97 ccbe afde 923e 5e98 2abf
000001f0: 8205 b1be 8c20 9c3e 52ad 1d3e 2de0 41bf
00000200: 7264 7bbd c80b 6e3f 9dc0 3b3e 12c8 13bf
00000210: 9bda a4be 20bd 613f 040e 8b3e 052f 193f
00000220: 80c7 e9be f6a8 0fbf a959 bd3d 9f6d 473f
00000230: 2aba 02be 5def a1be e87c c23c b153 253f
00000240: b56e 35be 0d69 f3be c081 a53e 443c 0c3f
00000250: a35c b33e 74f2 1ebf 5d45 eb3e 634c 93bd
00000260: b71d 2c3f c70f 9fbe 1c9e 2fbf 5977 e63d
00000270: a31c 9cbe 0308 50be a11a bd3e 99d7 813e
00000280: d6cd a33d e336 52bf 9d80 693f 3979 4fbf
00000290: d114 48bf 7dc8 823e 3897 533f 2ff1 093f
000002a0: 51e2 193f 4f1a 2fbf 4da5 3bbf 3f30 533f
000002b0: cd9b 5b3f dab2 4abf 2c54 e0be 0d3b bf3e
000002c0: 8dad 1cbf 00aa 4f3e be57 453f 0f09 4dbd
000002d0: 3811 1cbf 4fc2 f73e b522 d1be 1976 d4be
000002e0: e8b7 bc3e 25dd 45bf 9bc2 bbbd 7f46 30bf
000002f0: 956d 17bf eb78 d43c 197e 1bbe e783 12bf
00000300: ec8d 3ebf 2310 54bf 970b 243f fed6 b9be
00000310: fb9b 66bf a3b6 08bf 17cf 0bbe 10bb 5f3f
00000320: f229 51bf e067 91be dac4 7bbe c3ba c3be
00000330: d66d c23e 3c4d 46bf 8f58 0fbf 92b1 35bd
00000340: 77db 5dbe 9c1e 84bf 337d ddbd 23c4 2d3f
00000350: 3433 203f f0bc 8bbe 2914 843e 960c 933e
00000360: df8b d83c 42f7 473f 7513 46bf d5f9 1f3f
00000370: 0fb5 c03e 50c6 e23e 50bf 6b3e 0bf8 443f
00000380: dafc 87be 1e7a 37bf c0d1 4f3d 8e77 433f
00000390: 6c47 34bf 467a 233e 4e4c a5be eb52 f53e
000003a0: 9612 803f 8f11 773e 26c5 ad3e 313f 05bf
000003b0: cb0c 22be 02f1 a0be 5a20 b1bd d7df efbe
000003c0: 9167 c33d 9586 53bf 9710 4dbe 0eb1 603f
000003d0: 6326 343f 4e26 f2be d0d9 9f3e 062e 47bf
000003e0: 263a 4abf 8907 403d 20c7 42bf 10ff e4be
000003f0: abb7 dcbe 0f95 6c3c b246 f2be 9ce2 993e
-0.16003206 -0.845466 -0.5989217 0.5708081 -0.10881582 0.6314728 0.46820167 -0.3842929
-0.47430027 0.13311939 -0.27811116 -0.03404033 0.34696573 -0.1907531 0.68167573 -0.65027094
0.23368408 -0.8592788 0.68859434 -0.59391224 -0.04448941 0.29099864 0.7490551 0.794059
0.26780233 0.29332116 -0.037324633 -0.63194907 -0.623981 0.77304286 -0.042881537 0.4664583
0.042179964 -0.66396344 0.67778116 0.7335119 0.52439666 -0.2626655 -0.51090646 0.57247484
-0.19240324 -0.17345174 0.3187596 -0.053100917 0.20769987 -0.6595983 0.7199924 -0.7546625
-0.07325346 -0.5857091 -0.35888007 0.7393937 -0.60871583 0.55641145 -0.43485022 0.6656832
0.19999726 0.84527516 -0.10221723 0.6232972 0.18269719 0.74062645 -0.65708876 0.0053245677
-0.23212205 -0.45831573 -0.45559138 0.4948396 -0.19791016 0.9781061 -0.3916442 -0.9491787
-0.19491534 -0.36986533 0.31848556 0.370209 -0.029397154 -0.71843445 -0.7834884 0.28351796
0.44610623 -0.4739592 -0.13111933 0.7877671 -0.44646072 0.6038373 -0.24544324 -0.53648674
-0.6218717 0.32080272 0.6956021 -0.7426151 0.46238935 0.60742116 0.24579002 -0.7289876
0.34001863 0.30502525 -0.028458908 0.80209875 0.20245332 0.58516353 0.6533993 -0.7934182
0.4040185 -0.627906 -0.5211695 -0.1093559 -0.7123554 0.6217684 0.192604 -0.9248196
0.46707463 0.84575504 -0.01857338 -0.65382046 0.1144545 -0.7474331 -0.11411308 -0.58000195
-0.8478337 -0.39959085 0.2868552 -0.66638744 -0.34574515 0.3049358 0.15398148 -0.7573269
-0.06137509 0.92986727 0.18335195 -0.5772716 -0.32198033 0.88179207 0.2715913 0.5983737
-0.4566002 -0.5611719 0.09245617 0.77901644 -0.12766328 -0.31627932 0.0237412 0.6458083
-0.17718013 -0.47541085 0.32325554 0.5477946 0.35031614 -0.62088704 0.45951357 -0.07192304
0.6723284 -0.31066725 -0.6860063 0.112532325 -0.30490598 -0.20315556 0.3693438 0.253598
0.079982445 -0.82115 0.91211873 -0.81044346 -0.78156763 0.25543585 0.82652617 0.5388364
0.60110956 -0.6839952 -0.73299104 0.8249549 0.8578461 -0.79179156 -0.43814218 0.3734974
-0.6120232 0.20279694 0.7708701 -0.050057467 -0.60963774 0.48390433 -0.40846792 -0.4149635
0.3685906 -0.77290565 -0.091679774 -0.6885757 -0.59151584 0.025936564 -0.15184821 -0.57232517
-0.74435306 -0.8283712 0.64080185 -0.3629684 -0.9008176 -0.5340368 -0.13653217 0.8739481
-0.8170463 -0.28399563 -0.24586812 -0.38228425 0.37974423 -0.774616 -0.55994505 -0.044358797
-0.2166575 -1.0321841 -0.108148955 0.67877406 0.6257813 -0.27292585 0.2579663 0.2872054
0.026433883 0.7811166 -0.7737344 0.6249059 0.37638137 0.44291925 0.23022199 0.76940984
-0.26560098 -0.7167071 0.050737143 0.763543 -0.7042148 0.15964612 -0.32284778 0.47914824
1.0005672 0.24127792 0.33939475 -0.5204955 -0.15825193 -0.31433874 -0.08648749 -0.46850464
0.09541238 -0.8262723 -0.2002586 0.87770164 0.70371073 -0.4729485 0.31220865 -0.778046
-0.7899498 0.046882186 -0.7608509 -0.44725847 -0.43108878 0.014439835 -0.4731956 0.30055702

input_layer.0.bias f4 [128]
00000000: ea4a 11bf 97ff 91be f84a fe3e 0c80 39bf
00000010: 2f3f da3e 8c47 08bf 9946 b03e 72e0 97be
00000020: 7cd0 34bf 8165 45be ea4e 203f 0df5 5e3e
00000030: 8d6a e2be 712c 16bf aa6e febe 1c11 f23e
00000040: 246f 2abf 5711 a63d 8ff9 843e bcbd 073f
00000050: 57f2 83be b2fa e7bc 8257 053f 9c76 2b3e
00000060: ff6c 4c3f 3046 2d3f b3d1 46bf 23e5 503f
00000070: 0c6b 54bf b633 ee3e 8d69 a1be 0f1a 86be
00000080: e686 38bf 8a35 7abe 1061 5dbf 3fba 3cbf
00000090: f7d6 2c3f d166 f33e c4f3 b8be cac3 6bbf
000000a0: aff9 1c3f 1c49 3dbf 9bdd 1bbe f9cc 55bf
000000b0: 6708 043f 56a9 34bd d86d b2be 5d36 3a3f
000000c0: 1103 c53e 18a9 573f f6de 54bf 1b71 63bc
000000d0: c67d ad3e da49 543f 4d49 5e3f e860 5abf
000000e0: a6a4 31bf 7137 c33e bba6 cf3e f81f 1a3f
000000f0: d5ca 063f 4db1 17bf 14dc ae3e c035 1e3f
00000100: 0072 513f df8d 353f f4ff 56bf 917d 603f
00000110: bde9 50be 47bb b03e 95c0 43bf 1f19 1e3d
00000120: ceeb a43e d7ac 4abf 721a d9be a70f 21bf
00000130: 4f9a 313f 3b49 8fbe 6178 5a3d da70 063e
00000140: b2be 033f 065d 43bc adcb 373f 0f5c 05bf
00000150: b5ce 243e 3398 2bbd 28b6 5d3d 7565 69be
00000160: e3ed 5d3f 066e 2b3e 24c1 3c3f 3171 493f
00000170: 85be 2dbf dbdc 133f bf94 39bf 7c91 f5be
00000180: 738d 80be 41ae 603f bf62 abbe fb00 4abf
00000190: 0d12 9abe 562d 023f 7597 063f 985a 313f
000001a0: 83d1 7e3f 7999 67be 10f3 023f 0834 23be
000001b0: 23eb 32bf 1b25 41bc 37f3 42bf 68c0 01bd
000001c0: 0932 073f 2533 873d a5a5 023e ff9b 2f3e
000001d0: 099c 1cbf 24e8 a6bc a9b6 fcbe a4ba 2fbf
000001e0: c534 2e3f fbbf 42bf f1eb 67bf a236 53bf
000001f0: 1815 3ebd 9cf0 53be c2ef 9f3d 4949 14bf
-0.56754935 -0.28515312 0.49666572 -0.7246101 0.4262633 -0.5323417 0.34428862 -0.29663426
-0.7063062 -0.19277002 0.62620413 0.21773167 -0.44221917 -0.5866156 -0.49693805 0.47278678
-0.6657584 0.08108776 0.25971648 0.53023887 -0.25770828 -0.028317783 0.5208665 0.16744465
0.79853815 0.6768522 -0.77663726 0.81599635 -0.8297584 0.46523827 -0.3152584 -0.26191756
-0.7208084 -0.24434486 -0.8647623 -0.7372169 0.6751551 0.4753938 -0.36123478 -0.92095625
0.61318487 -0.7393968 -0.15221255 -0.8351589 0.5157532 -0.044106804 -0.3484943 0.727392
0.38478902 0.8424239 -0.8315271 -0.013881947 0.3388502 0.8292519 0.868306 -0.8530412
-0.6939186 0.38128236 0.40556893 0.6020503 0.5265325 -0.59254915 0.3415228 0.61800766
0.81814575 0.70919603 -0.83984303 0.876916 -0.20401664 0.3451788 -0.7646573 0.038598176
0.32211155 -0.7916998 -0.4240299 -0.6291451 0.6937608 -0.27985558 0.05333746 0.13128987
0.5146285 -0.011924034 0.7179516 -0.52093595 0.16094477 -0.041893195 0.054128796 -0.22792609
0.8669111 0.1674119 0.7373221 0.7868834 -0.67868835 0.57758874 -0.72492594 -0.47962558
-0.25107917 0.8776589 -0.33473775 -0.78907746 -0.30091897 0.5085043 0.52574855 0.6927886
0.9953844 -0.22617139 0.51152134 -0.15937817 -0.6989004 -0.011788632 -0.76152366 -0.031677634
0.5281072 0.06601552 0.12758501 0.17149352 -0.6117559 -0.020374365 -0.4935811 -0.68644166
0.6804927 -0.7607419 -0.90594393 -0.8250524 -0.046406835 -0.20697254 0.07809402 -0.57924324

hidden_layers.0.0.weight f4 [128, 128]
00000000: f38d 02bd 16de 8f3d 72a1 593d ee5b 86bd
00000010: 088e 833d 8759 0d39 3a23 07bd 1ca2 82be
00000020: e319 dcbd d4f0 34be 0e14 733d d488 d1bb
00000030: 4f19 853c 2152 a5bd a71c ac3d 2502 483e
00000040: ee82 4ebc dac6 0a3d 2dab 6abd f50c 113e
00000050: 3895 94bd 1eeb 28be e3a5 a2bd 945a c0bd
00000060: 5465 5ebb 64e6 723e ba40 d93d e044 473e
00000070: 005c 2d3c 31ed 913d 40ad 803b 2a19 ed3d
00000080: d280 26bd 29ed c33d fa63 c53c c3b9 393e
00000090: 2cf7 233b 98f6 a43d fda1 5fbd 1041 763d
000000a0: 5db9 02be 4cb3 c23d b5fe d73d cde6 96bd
000000b0: 7355 093e 9e67 4dbe 52b5 af3c 5045 3cbc
000000c0: d1e0 dabc f794 923c a4f4 f8bd d578 c8bd
000000d0: 89be 1ebe f4f7 123e 9696 e93d 255d 9cbd
000000e0: 170e 5c3c 4319 77bc 74ee a6bd 2ce0 023d
000000f0: 2684 eb3c 10e5 15be 72e6 103e 71f4 4d3c
00000100: 9d11 a0bd 6940 10bd 15d9 793d e502 d83d
00000110: 45c1 773d 62c1 e6bc 9218 dfbd b9c4 0bbd
00000120: f203 c03d 885a 5dbd 3c03 6dbe 3586 56bd
00000130: 6971 97bd 8784 fb3d b394 143e 5d75 7fbc
00000140: 7873 ca3b 223e f4bd 3446 c43d 68a6 a63c
00000150: 1f77 1bbe 12fb 7c3d f0a7 9dbd 4b29 4c3d
00000160: 9dba 2f3e f22c 0dbb c61b 273e 5b62 a73d
00000170: 7615 43be d590 5ebc b2d4 823c 1818 f43c
00000180: ef5d 7b3d ca44 173d f6b8 a63d ead9 c33c
00000190: 1a41 993b 40bb f33d a76f 17bc e18d 153e
000001a0: 6ba6 a4bd 78f2 2b3d 1ff8 d1bd e170 2abc
000001b0: 339b 93bd d196 5d3d 0e21 e6bc dfd9 34bc
000001c0: b4fa 81bd dabc a9bc cd4d f83d cbb5 293e
000001d0: 5f51 42bd 369f 0cbe 0c1e c5bd 3398 21be
000001e0: bbb3 76bd 6122 b03d ab18 9dbd c938 babd
000001f0: 37e3 85bc 1079 10bd 8058 8b3c e4b6 e53c
00000200: 2f09 e8bd 67cd 72bd 9f62 853d 0569 913d
00000210: c8c3 bf3d ad62 913d dc72 08ba 284d ff3b
00000220: 0df6 52bc 22e8 80bd 9cda c13c 0d9e 84bc
00000230: d0c9 4ebd c369 eb3a 5cf4 523d b3b3 8e3d
00000240: 9a92 53bd 01e4 893c cbad 053d 05c5 013d
00000250: 05a5 603d c8c9 10be 7762 edbc afd2 b0bd
00000260: 8d85 a2bd 2adb b9bd d3c8 8bbc e0aa 69bd
00000270: 1df9 67bd 2d79 c23c 8fa7 dc3b 4faa e73c
00000280: 2cb6 1cbd e3f9 013d 5e16 a5bd 86ae 86bd
00000290: 9824 febc 0b8b bbbd 82dc 03bd 9fab 06bc
000002a0: 78f9 83bd afaa 733d e450 6abd 0b65 e7bc
000002b0: fe5e babd 3181 ff3b 99bd 10bc 786c 91bd
000002c0: 1691 65bd e90e d7bc 0a88 f5bc 4aab 40bd
000002d0: 6ba6 d9bc b090 883d 718c 883d 28e7 1f3d
000002e0: d0ed 0e3d e586 313d a081 e9bd 39b2 a63d
000002f0: 2dc9 0ebd 3472 b33d b805 1c3d fbaa ff3c
00000300: 0d46 b0bb 74b1 383c 8b16 73bd 5ca8 3fbd
00000310: 966b 04bd 3dae c03c 2f2f 193c 0ad3 d03b
00000320: 8359 89bb ff1e 8c3d 009c 90bd 78fa 35bd
00000330: 62fa 9b3d 212c aa39 3fe7 ea3d f0e2 debd
00000340: cd82 4039 2d82 803d d836 0f3d 8b07 883d
00000350: 67e3 393d b36c 213d 37a1 613d be05 2dbd
00000360: 6a1d d0bc 0f6d 083e 2f73 583d 06e6 ffbb
00000370: 8f0b 53bd 7709 2e3d adc4 a43c a6bc c33d
00000380: 80e3 c33d 876c c6bd d2fc bd3c 8f21 a7bd
00000390: 5de9 f1bd 18ec a93c 23d5 563d bce5 7ebd
000003a0: 5c61 94bd 4e24 7f3d b3dc 84bd 2d3f a5bd
000003b0: 3565 0dbd a3b6 2dbd fcb5 d1bc 32bf 4f3c
000003c0: 2fdc c0bc 7782 243e 3824 a1bd c211 d43c
000003d0: 2c6f 15bb b7e1 eebc 5f89 f73d 1a9d 573d
000003e0: 8beb 3b3d e768 813c cdc2 88bd eec8 f3bc
000003f0: 2640 dfbd 9e5f 13bd 1623 393d 714c 8e3d
-0.031873655 0.070247814 0.053132482 -0.06560503 0.06423575 0.0001348016 -0.03299258 -0.25514305
-0.10747125 -0.17669994 0.059345298 -0.006394485 0.01624742 -0.080723055 0.084039025 0.19532068
-0.012604458 0.033881046 -0.057292152 0.14165099 -0.07255024 -0.1649594 -0.07941797 -0.093922764
-0.0033934908 0.237207 0.10608049 0.19459867 0.010581017 0.07125319 0.003926903 0.11577065
-0.040650196 0.09566719 0.024095524 0.18137269 0.0025019152 0.080548465 -0.054597843 0.060120642
-0.12766023 0.095068544 0.105466284 -0.073682405 0.13411503 -0.20059058 0.021448765 -0.011491135
-0.026718529 0.017893298 -0.121560365 -0.09788672 -0.15502371 0.14352399 0.11405675 -0.076349534
0.013431094 -0.015081706 -0.0815095 0.03195207 0.028749537 -0.14638162 0.14150408 0.012570486
-0.078158595 -0.035217676 0.06099804 0.10547427 0.06048705 -0.028168384 -0.10893358 -0.034123156
0.093757525 -0.054041415 -0.23145765 -0.052374084 -0.07394678 0.12281137 0.14509849 -0.015591946
0.0061783157 -0.119259134 0.09583703 0.02034302 -0.1518216 0.061762877 -0.07698047 0.049844068
0.17161031 -0.0021541682 0.16319188 0.08173057 -0.19051155 -0.013584335 0.015970562 0.029796645
0.06136888 0.036930837 0.08140747 0.02390762 0.00467695 0.119009495 -0.009242929 0.14604904
-0.08039554 0.041979283 -0.102524035 -0.010402889 -0.07207336 0.054098908 -0.028091934 -0.011038273
-0.06346646 -0.020719934 0.12124214 0.16573255 -0.047440883 -0.13732609 -0.096248716 -0.15780716
-0.060229998 0.08600307 -0.07670721 -0.09092862 -0.016343696 -0.035271704 0.017009974 0.02804131
-0.11329877 -0.05927792 0.06512951 0.07100109 0.09363514 0.07098899 -0.00052051037 0.00779118
-0.012876046 -0.06294276 0.023663811 -0.016188646 -0.050485432 0.0017960597 0.05150257 0.06967869
-0.051653482 0.016832354 0.032636445 0.031682033 0.054844875 -0.14139473 -0.028977616 -0.08633935
-0.07935629 -0.09075005 -0.017063534 -0.057047725 -0.056634057 0.023739422 0.0067338417 0.028279452
-0.03825967 0.03173245 -0.08060907 -0.065762565 -0.031023309 -0.0915738 -0.032192715 -0.008219629
-0.06444067 0.05948895 -0.05720605 -0.028246423 -0.091001496 0.0077973832 -0.008834266 -0.07100767
-0.056046568 -0.026252227 -0.029972095 -0.047038354 -0.026568612 0.06668222 0.06667412 0.039038807
0.034894764 0.043341536 -0.11401677 0.08139462 -0.034859825 0.08762017 0.03809139 0.03120946
-0.0053794445 0.011272777 -0.05934767 -0.04679142 -0.032329164 0.023520583 0.009349628 0.006372814
-0.004191579 0.068418495 -0.07061005 -0.04442832 0.07616116 0.00032457805 0.11469888 -0.10883129
0.00018359274 0.06274829 0.034964412 0.06642064 0.045382883 0.039410304 0.055085387 -0.042241804
-0.02540465 0.13322853 0.052844223 -0.0078094034 -0.051524695 0.042489495 0.020113314 0.09557466
0.095648766 -0.09688669 0.023191843 -0.08160698 -0.11812089 0.020742461 0.052449357 -0.06223081
-0.07245132 0.062290482 -0.064874075 -0.080686904 -0.034520347 -0.042410504 -0.025599472 0.012679862
-0.023542492 0.16065393 -0.07868236 0.025887374 -0.002280186 -0.029160364 0.12086748 0.052640058
0.04587893 0.015797092 -0.0667778 -0.029758897 -0.10900907 -0.03597986 0.045199476 0.06948174

hidden_layers.0.0.bias f4 [128]
00000000: 44d9 993d 5d06 64bc 11fe a53b 6051 b53d
00000010: e6a6 253d bdc2 b8bd 5c89 10bc d1ce 7bbd
00000020: 700e 7d3d 460a a4ba c8e0 18bd e15a a13e
00000030: 3079 47bd 6840 953e ea31 9a3c 3449 2d3e
00000040: 0086 c03d 19e6 d3bd 7cfa ad3d 443c 95be
00000050: 87c2 873c caef 2c3c 0bf9 7bbd 01c5 89bd
00000060: a137 bdbd 96bf 4ebc fb1a 8dbd 1786 443e
00000070: 97bc 27be 8fd8 b7bd f2ec 32bd 8193 2d3d
00000080: fd6c 4abd 7138 6e3d 2fae 0bbe a5e7 c7bc
00000090: 0735 853d e8e0 0ebd b9d5 3bbd b673 cfbd
000000a0: a3d2 593c d8a8 4ebb 025b c6bd ec93 14be
000000b0: 9c84 9cbd 7f9c 433d b7d2 96be daec 5b3d
000000c0: 135c 833d aeec 293e a1bc 9abd 0be3 663d
000000d0: 490f 943d 7795 663d 2845 fb3d 9da3 943d
000000e0: 9cd8 cabc 44ff 8039 5079 90bd 506a 753c
000000f0: 613c 44bc 258e 6cbd 4dff 86bc df56 22bd
00000100: 1b81 8dbd d15e 81bc 1e15 bcbd c0aa 4a3b
00000110: 356b 3dbc 636d 14bd f447 a1bd 3395 b9bd
00000120: 0615 e4bd 9214 983d 0650 edbb 8240 303d
00000130: 5c01 913d 0206 a2bd 291a 3d3e 193e c23c
00000140: c436 b53c 6380 2ebd 2da5 273e f3bd 513d
00000150: 6c77 c8bd 3acb 723c 796e 8b3d 473a 92bd
00000160: 0a85 f1b9 1865 9a3d 854a 60bd 4729 973d
00000170: 508f 0d3d 1f2c 623d 7953 95bd 91be 86bd
00000180: d5fd 24be 594a 68bd 3fb9 0bbd 8f53 24bd
00000190: dc12 cc3c 6312 c73d 7165 4b3d ee0f 673d
000001a0: e4fd 40bd 183e 1fbe fcd0 513d 8693 64bd
000001b0: 7041 c03c d5f3 48bd f4f7 29be 1ea1 84bd
000001c0: 9a8c 833d 5102 92bd da36 103d 5c62 383d
000001d0: 7b26 483d db2d b53a 8ae3 903d 0708 59bd
000001e0: 14d6 053d 7e2f 143c d48d 49bd a14f f03c
000001f0: bb7f 923c 548c d13d 46a5 c73c 6523 333d
0.07512143 -0.013917533 0.0050656875 0.08853412 0.04044237 -0.090215184 -0.0088218115 -0.061476532
0.061781347 -0.0012515269 -0.037323743 0.31514648 -0.048699558 0.291507 0.018822629 0.16922456
0.094005585 -0.10346622 0.08495042 -0.29147542 0.01657225 0.010555217 -0.061516803 -0.06727029
-0.09239126 -0.01261892 -0.06889912 0.19191776 -0.16380535 -0.08976852 -0.043683 0.042377
-0.049420346 0.058159295 -0.13640665 -0.024402449 0.06504255 -0.034882456 -0.04585812 -0.10129492
0.013294849 -0.0031533744 -0.09685327 -0.14509553 -0.07642481 0.04775667 -0.29457638 0.053692676
0.06414046 0.16594192 -0.07555509 0.05636887 0.07229478 0.056294885 0.1226905 0.07257769
-0.02476149 0.0002460425 -0.070543885 0.01497896 -0.011977286 -0.057752747 -0.016479159 -0.039633628
-0.069093905 -0.015792282 -0.09183715 0.003092453 -0.011561205 -0.03623713 -0.07875052 -0.090616606
-0.111368224 0.074257985 -0.0072422056 0.04303027 0.070803374 -0.07911302 0.1846701 0.023711251
0.02212084 -0.042602908 0.16371603 0.05120654 -0.09788403 0.014818961 0.0680818 -0.07140022
-0.00046066224 0.07538813 -0.054758567 0.0738092 0.0345605 0.05521786 -0.07291312 -0.065793164
-0.16112454 -0.05671153 -0.03411221 -0.04011875 0.024911337 0.09720304 0.04965729 0.056411676
-0.04711713 -0.1555103 0.051224694 -0.05580475 0.023468703 -0.04906066 -0.16598493 -0.06476043
0.06423302 -0.07129348 0.03520856 0.045015678 0.048864823 0.001382287 0.0707465 -0.05298617
0.032674864 0.009044526 -0.049207523 0.029334845 0.017883172 0.102318436 0.0243708 0.043734927

output_layer.weight f4 [1, 128]
00000000: 43d3 673e 4992 413e d1be f1bd ea16 41be
00000010: 4ede 90be 225c ce3d e1ce e1bd e21b ba3d
00000020: c574 0bbe 6067 84bd c568 5abe 6784 7bbe
00000030: 5e37 00be 4674 743e c9af be3d cb26 8a3e
00000040: 9016 22be cf0b a83d 8b71 e6bd 7aac ab3e
00000050: ecb7 88bd 7ef6 45bd 996f b2bd a446 c0bd
00000060: 5596 4bbd 2520 f63d 44e2 033e 1f78 0a3d
00000070: f972 1cbe 1c29 0c3e 5f98 6e3e 9416 02be
00000080: 4717 82bd 3b0e 023e 41a9 3f3e 69d5 043e
00000090: 8457 e2bd d390 213e 70f4 103e c0d9 13be
000000a0: 1058 cfbd 9302 0ebe a473 d03d a8ed 9a3e
000000b0: dc65 273e 745b 0fbe 65ca c8be 344e d1bd
000000c0: 7085 ffbd 38d5 1a3e e2a2 8dbe 5d63 ddbd
000000d0: 84f6 d23d 9f4f ef3d 1c51 89be fe40 b2bd
000000e0: 6832 5e3e 39fe f63d 8c22 1f3e 81bf 1c3e
000000f0: d24e e8bd 4e34 883e 2029 9d3d c70c 42be
00000100: f5b1 113e 2912 273e 55a8 27be 020e 8f3d
00000110: 288b 03be 7f39 13be 4d04 0a3e ffb0 f23d
00000120: 992c 62be 3b79 0ebe 1121 3ebe 6db5 f8bd
00000130: 2188 dcbd e1a4 783e 4b2d 60be eb17 26be
00000140: ac4d 23be a4e8 24be bc07 543e dbbd 8dbd
00000150: 25e4 a53d dd99 ffbd 641f 0a3e 6c47 46be
00000160: fbdf 1d3e 1559 1f3e 4c21 1b3e 0833 12be
00000170: d88b fdbd c5ea a43d ec31 66be 7a3d 143e
00000180: 0be4 bfbe b5d8 84be e5c9 1bbe 4596 34be
00000190: e9ba 3f3e d310 323e e1cc 4e3e 790d 273e
000001a0: b639 10be 5fb5 4ebe d2c7 e7bd 912c 4a3e
000001b0: 6ca8 eebd c84a 26be e27a 4e3d 52d0 313e
000001c0: d02f 8ebd 8579 68be c9de 2abe b19a e33d
000001d0: c79e d53d 717a 2f3e 64fa 343e 95e3 1c3e
000001e0: 4918 41be 9fd7 f43d d825 353e 39fa 19be
000001f0: 63df fdbd db20 39be 71bd f23d 186f 30be
0.22639184 0.1890346 -0.118039735 -0.18856397 -0.28294605 0.10076167 -0.11025787 0.090873495
-0.13618763 -0.0646503 -0.21329029 -0.24562226 -0.12521121 0.2387248 0.09310872 0.26982722
-0.1582892 0.08205377 -0.11252125 0.33530027 -0.06675705 -0.048330776 -0.08712692 -0.09388474
-0.049703915 0.1201785 0.12879282 0.033805963 -0.15278234 0.13687557 0.23300312 -0.12703925
-0.06352096 0.12700741 0.18716909 0.12972035 -0.110518485 0.15777902 0.14155746 -0.14438534
-0.101242185 -0.1386817 0.10178307 0.30259442 0.1634745 -0.1399973 -0.39216915 -0.10219994
-0.12476623 0.15120399 -0.27663332 -0.10809968 0.103009254 0.116851084 -0.26819694 -0.087038025
0.21698916 0.12060208 0.15540522 0.15307428 -0.11343159 0.26602405 0.076738596 -0.18950187
0.14228041 0.16315521 -0.16372807 0.06985094 -0.12846053 -0.14377402 0.13478203 0.118501656
-0.22087325 -0.13913433 -0.18567301 -0.12143979 -0.10768152 0.24281646 -0.21892278 -0.16220061
-0.15947598 -0.1610437 0.20706075 -0.06920978 0.08100156 -0.12480519 0.13488537 -0.19363183
0.15417473 0.15561326 0.1514942 -0.1427728 -0.12380189 0.08052591 -0.22479981 0.14476576
-0.3747867 -0.25946584 -0.15213735 -0.17635448 0.18723644 0.1738923 0.20195343 0.16313733
-0.14084515 -0.20186375 -0.113174096 0.19743563 -0.11653218 -0.16239464 0.05041016 0.17364624
-0.06942713 -0.22702606 -0.16686548 0.111134894 0.10430675 0.17136551 0.17673641 0.1532119
-0.1885692 0.11955189 0.17690217 -0.15036859 -0.12396123 -0.1807894 0.11852539 -0.17229879
