pytorch/Laplace_eq_outputs/model_lr_1_layers_2_lambda_2.pt (torch, 71258 bytes, 5 tensors)

input_layer.0.weight f4 [128, 2]
00000000: d5bb 58be 7e66 583f 0c57 323e ac56 1cbf
00000010: b768 20bf 135a 4a3c 0aee 49bf afc7 473f
00000020: bb8f 383f a26d 41bf cd8f 31bf 5e78 bdbe
00000030: f88c fdbe 5728 c03d e3ce 9abc 760b 053f
00000040: 50a9 c73e 37df e13e 2b66 9fbe c62b 14bf
00000050: b83e cdbd 4447 4b3f 27ab 2bbd bae6 303f
00000060: eb17 9e3e 6acd 16bf 16a2 b63c 4637 f6bd
00000070: 5f18 67bd 0cb3 7bbf 9199 353f bae9 523e
00000080: d7b7 333f e215 55bf 5d4c 853f c7b9 4a3f
00000090: 49c7 243f 1ec2 1ebf 05c8 35be 582b 2f3f
000000a0: be8a 08bf 631f 87be ca7c 05bf 2c65 003f
000000b0: dada cdbe 08c8 123f f10c 7ebd 6891 31bf
000000c0: 96aa 7f3e dc55 f43e 84ad 643f 8b6a 02be
000000d0: cc93 f8bd 7e7d b83e c3af 84bd 4dc6 173f
000000e0: 7609 143f 5e5c 60bf 22f9 bcbe 8bb2 4cbf
000000f0: 1de8 2f3e 6208 483f 5ec1 2a3c 3db2 17bf
00000100: b8f3 ae3d 81eb 5f3f d894 88bc c780 3bbf
00000110: 29a6 2c3f af0b 4ebf a1a5 7dbf a2bb 7d3f
00000120: cb05 b0be 7044 423f 8502 99bc 59a0 6d3f
00000130: 4209 053e d45a eb3e 7b1e 9bbd bce0 51bf
00000140: d939 02be b59f 1cbf 75e5 2bbf 5977 003e
00000150: fdaf e8be 8d7b cabe 2d13 f6be a0b5 4d3f
00000160: 8dd9 f63e 4661 1d3f b468 953e a9a1 f23e
00000170: 4935 01bf 85f0 28bf bae4 4d3c 8e18 6fbf
00000180: 7816 25be 794c 6e3f f1b3 013f f723 50bf
00000190: 09fd 55bf fd8b 553f c368 053f c09f 8c3f
000001a0: 835f c6be da9d 1a3f e503 8e3d a1e6 403f
000001b0: 7fe4 c9be ba63 543e fed2 87be bdd2 2b3f
000001c0: 9959 2b3f 51e0 8bbe f41c e33c d4ec 743f
000001d0: b57c b6be 2c35 31bf d62f bebe f935 d0be
000001e0: 7b92 3f3d 61f6 64bf cba8 9d3d 4540 2d3f
000001f0: f7c6 5abf 5716 4ebf 8bc8 d6be f6c5 f5be
00000200: 4240 803f 953b 81bf 0182 223f 8760 33bf
00000210: da24 7dbe aa1d 1c3f ced9 823e 6d8f 2c3f
00000220: 692b b5be 0a83 fd3e c187 3a3f 1a52 e93e
00000230: 5655 443e 6348 3a3f c6df e4be abbb fbbe
00000240: 9198 13bf 8ba0 283f 988d 1d3f 1cc8 19bf
00000250: 0afe 993d 26a5 4ebf fccf 603e 425f b83e
00000260: 2ba2 a93d 4a6a cbbe e9d8 52bd a74b 653f
00000270: 55fc 823f 0c49 da3e 03b5 2f3f 78a2 0bbe
00000280: ae02 5dbf d076 ca3e 385c 0a3f 3fce 95be
00000290: adc6 38bf 3b38 4c3f 467c 6b3e 0cd6 61bf
000002a0: 81ee 3ebe 91f8 ebbe 1059 833e 4b27 013f
000002b0: 1f1a 213c e041 3cbf 6dee 553f 0eec 68bf
000002c0: b16f 593f 2ed3 263f 803b bbbe e066 4c3f
000002d0: cb38 333e 2f8e c6bb 9e5c 7d3e 6d90 5abf
000002e0: 4b67 e73e f095 ec3e d984 24bd b886 7ebf
000002f0: b544 153f 66e8 b3be 5c32 7ebe 9969 0b3f
00000300: c6c0 993e b956 3b3f 8088 b7be 0222 4d3f
00000310: 9d7d 893e bb2e 213f 0b7c fe3c fa0f 4b3f
00000320: 6dd7 65be 7cb8 24bf 6719 8ebe df24 28bf
00000330: e1eb 52bd 7c24 7bbf 7dbb 0abf b30d 353f
00000340: 6299 1a3d 9729 723f bedd 4bbc 4344 4d3f
00000350: 012f 78be 2b18 44bf b91a 3f3f e935 73be
00000360: c55a 1cbf 9c96 f73e 3779 213e 9390 733f
00000370: b60b 2c3f 50f1 723f c801 1fbd 73cb 803f
00000380: fb03 113f 23b7 c2be 6e09 f7be 6ee4 02be
00000390: c336 103e dc3b 88be cf86 cabe 14d6 1fbf
000003a0: 4b49 343f 4d28 f43d 058f 193f c9ed ad3e
000003b0: 6765 27bf c69e 2c3f 5ff8 7b3d 679c 81bf
000003c0: c5ec c7be 1d11 5b3f 0522 2e3d 67ee 58bf
000003d0: 24b7 7b3f 6f4c 293f ac29 153d 115c 6f3f
000003e0: 3afe 6f3f 4692 d9be 11fb b93e a364 11bf
000003f0: e4b6 8ebf 7c4a 7b3e 0a0e a63e e0e2 2c3f
-0.21165402 0.8453139 0.17416018 -0.6106975 -0.6265978 0.012350577 -0.78878844 0.7803907
0.72094315 -0.7555791 -0.6936005 -0.37005895 -0.49521613 0.09382694 -0.01889748 0.51970613
0.38996363 0.44115612 -0.31132635 -0.5787929 -0.10021728 0.7940562 -0.04191127 0.6910206
0.30877623 -0.58907187 0.022294085 -0.12022261 -0.056419726 -0.9832008 0.7093745 0.20596972
0.7020239 -0.83236516 1.0413929 0.79189724 0.64366585 -0.6201495 -0.17752083 0.6842551
-0.53336704 -0.26391134 -0.5214354 0.50154376 -0.40206033 0.57336473 -0.06202406 -0.693625
0.24967417 0.47721756 0.89327264 -0.12735955 -0.12137565 0.36033243 -0.064788364 0.5928696
0.57826936 -0.8764094 -0.36908823 -0.79959935 0.17178388 0.7813779 0.010422079 -0.59256345
0.085425794 0.87468725 -0.016672537 -0.73243374 0.6744104 -0.8048658 -0.99080855 0.9911443
-0.3437942 0.7588568 -0.01867796 0.92822796 0.12991813 0.45967734 -0.07574173 -0.8198354
-0.1271738 -0.61181194 -0.67147 0.12545528 -0.45446768 -0.39547387 -0.48061505 0.8035526
0.48212853 0.6147655 0.29181445 0.47388962 -0.5047193 -0.65992004 0.01256674 -0.9339684
-0.16121852 0.9308544 0.50665194 -0.8130488 -0.83589226 0.8341673 0.5211298 1.0986252
-0.38744745 0.6039711 0.069343366 0.7535191 -0.3943214 0.20741168 -0.26528162 0.67118436
0.6693359 -0.27319577 0.027723767 0.9567387 -0.3564202 -0.6922176 -0.3714587 -0.40666178
0.046770554 -0.89438444 0.0769821 0.6767619 -0.85459846 -0.8050284 -0.41949877 -0.48002595
1.001961 -1.0096308 0.6347962 -0.70069164 -0.24721089 0.60982764 0.25556797 0.6740635
-0.35384682 0.49514037 0.72863394 0.4557045 0.19173178 0.72766703 -0.44701976 -0.49166617
-0.5765467 0.6586997 0.6154418 -0.6007097 0.07519157 -0.80720747 0.2195434 0.36010176
0.08282884 -0.3972953 -0.051476393 0.8956856 1.0233256 0.42633855 0.68635577 -0.13636196
-0.86332214 0.39543772 0.54046965 -0.29258916 -0.72178155 0.797733 0.22996625 -0.88217235
-0.1864567 -0.4608808 0.25653887 0.5045058 0.009832888 -0.7353802 0.83566934 -0.9098519
0.8493605 0.65165985 -0.36568832 0.79844475 0.17502134 -0.00605943 0.24742362 -0.85376626
0.45195994 0.46208143 -0.040165756 -0.99424314 0.58307964 -0.35138243 -0.24823898 0.54458004
0.30029887 0.73179203 -0.3584633 0.80130017 0.26853648 0.6296193 0.031065008 0.79321253
-0.2244546 -0.64344 -0.27753755 -0.6568126 -0.051494483 -0.98102546 -0.54192334 0.7072403
0.037743933 0.9459471 -0.012443004 0.80182284 -0.2423668 -0.7659938 0.7465015 -0.23751034
-0.61076003 0.48357093 0.15768896 0.9514248 0.6720537 0.94899464 -0.038820058 1.0062088
0.566467 -0.38030347 -0.48249382 -0.12782452 0.1408339 -0.2660817 -0.39555976 -0.6243603
0.70424336 0.11921749 0.59983855 0.33970478 -0.653891 0.6742977 0.061516162 -1.0125855
-0.39047828 0.8557299 0.042512912 -0.84738773 0.98326325 0.66132253 0.036416695 0.9349986
0.93747294 -0.4249441 0.3632436 -0.56794184 -1.1149564 0.24540132 0.32432586 0.67533684

input_layer.0.bias f4 [128]
00000000: 4d71 12bf 9054 833e 0bc5 f03e 04a3 06bf
00000010: 3b86 0f3e f68b 553f 024b 0e3f 2d90 4abf
00000020: 5fa4 63bf 1852 b93e 7e68 20bf 64f1 edbc
00000030: 98db c33e 922d 22bf 530c 6c3f 2592 46bf
00000040: 972c 0d3d 7bea 8f3d 6403 8b3e 9a7e 09bd
00000050: 0107 893e 4a20 30be 7e7e 03bf f053 3d3f
00000060: 32e4 61bf e49d 893f 2f60 fdbe 8134 dbbe
00000070: 7fec b03e 34ab 203f f5c2 57bf cbf8 313e
00000080: 9e75 4d3f 1a18 393e 77f5 013e 7931 a5bd
00000090: 43e7 1abf bfdb 5fbf ed40 bd3e c900 53bf
000000a0: ff1b 123f a4d3 4d3f 4c7e 54bf 7984 d0be
000000b0: 80eb c3be 2870 04bf 732e bd3e 02b8 5e3f
000000c0: 7fae 33bf c3d0 15bf de6d bdbc efce 6d3f
000000d0: 60a6 f73e 042d 683f 0106 3bbf a195 f5be
000000e0: 89a4 523f d3f2 5dbf c645 c53e 6bd9 2c3f
000000f0: a6cd 373f f614 2abf eb28 6a3d 6924 4d3f
00000100: 1fe6 49bd ff88 84bf 112c e03d f6a1 643f
00000110: 374f d7be 512e 54bf ce0b 433f bba8 2e3f
00000120: f109 2fbf 5457 dbbc 9cc3 4ebf 820c 34bf
00000130: a90a 79be 10a0 49bf 65fd 0d3e 04c6 4cbf
00000140: b785 70bf bff2 063f 1242 093e c5c5 66bf
00000150: e849 5bbf 32ec 32bf 855d a43e d72d 413e
00000160: 3b05 ae3c e115 d7be 8e64 1a3f f888 403f
00000170: 7d85 4bbf aee0 6f3f 7f3f 59bf a632 bdbe
00000180: a341 0ebf 658b 213f 1f15 b63c 3914 02bf
00000190: cbdb f43e ccd7 dd3e f2f4 6d3f 987d 1b3f
000001a0: 54a7 61bf e542 ebbe 47c6 063f 80b1 19bf
000001b0: 8500 313e 8b7b 293f fe10 313f 16ef 763f
000001c0: 3811 1ebe 74d7 53bf da8a 60bf 250c c83e
000001d0: a2ad 40bf 1fd2 34bf 86a6 043e 4778 6bbf
000001e0: 30aa 04bf 80f9 433f 25ff eb3e 3a84 67bf
000001f0: 7494 7f3f 906a 98be e4ef 633f 6d42 313f
-0.57204133 0.25650454 0.47025332 -0.5259249 0.14016049 0.8341669 0.555832 -0.79126245
-0.88922685 0.36195445 -0.6265944 -0.029045768 0.38253474 -0.63350785 0.92206305 -0.7756675
0.034466352 0.070271455 0.27151024 -0.033568002 0.26763156 -0.17199817 -0.51364887 0.73956203
-0.88238823 1.0751309 -0.49487445 -0.42813495 0.34555432 0.62761235 -0.84281856 0.17380063
0.80257595 0.180756 0.12691294 -0.08066077 -0.6050913 -0.8744468 0.36963597 -0.82423073
0.5707397 0.8040106 -0.83005214 -0.4072607 -0.3826561 -0.51733637 0.369495 0.86999524
-0.70188135 -0.5852167 -0.023123678 0.9289388 0.48369122 0.9069369 -0.73056036 -0.4796572
0.8228231 -0.86698645 0.38529795 0.67519253 0.7179817 -0.66438234 0.05716793 0.8013368
-0.049291726 -1.0354308 0.10945905 0.8930963 -0.42052624 -0.82883173 0.7618989 0.6822621
-0.68374544 -0.02677504 -0.80767226 -0.70331585 -0.24320473 -0.7875986 0.13866194 -0.7998965
-0.9395403 0.5271415 0.1340411 -0.9014552 -0.85659647 -0.69891655 0.321026 0.18865143
0.021242728 -0.4200888 0.60309684 0.75209 -0.7950056 0.9370221 -0.8486251 -0.36952704
-0.55568904 0.63103324 0.022226868 -0.5081211 0.4782394 0.43328702 0.9295188 0.60738516
-0.8814595 -0.45949474 0.526463 -0.6003647 0.17285354 0.66204137 0.69166553 0.96458566
-0.15436256 -0.8275063 -0.8771187 0.39071766 -0.7526494 -0.7063312 0.12954149 -0.91980404
-0.51822186 0.7655258 0.46093097 -0.90436137 0.99835896 -0.297688 0.8903792 0.6924198

hidden_layers.0.0.weight f4 [128, 128]
00000000: 20d0 423e fe6e 94be 1a77 f13c e5ab 3d3d
00000010: 07c2 cbbd 0c10 02bd 8347 e3bd 8100 313e
00000020: ea46 103e c448 7abe dff9 be3e e754 4c3e
00000030: 741f 17bd 3fed 633d fbcd b2be ba56 183d
00000040: ad7a f9bd be9b 07be a9f6 e63c c1f4 f73d
00000050: a5a2 6cbd 83c3 1dbd e467 203e 2db1 88be
00000060: 191a a73d 7445 57bd d873 293e dfee b43e
00000070: 4e65 12be 6ae1 5bbe 80ce 653e 2cd5 90be
00000080: 4eb7 fe3d 3594 58be 23de 20be c741 063e
00000090: d407 4e3e df7a 693e 3764 ab3d f954 94bd
000000a0: e11a 58be b024 293d 9076 cdba 50ce bc3b
000000b0: 84f1 ed3d 3d38 d53d 6974 16be 4836 7bbe
000000c0: d788 ac3e 1cd2 0bbe fda2 d53d 1b04 f73d
000000d0: 9929 acbc d686 833c 53e6 b83d c981 753e
000000e0: bf56 d8bd 8352 5a3e b82a b0be cb41 0bbe
000000f0: 697d aabe 4c1a 3b3e 20ec 883d 425f 03be
00000100: 2067 f2bc b2d2 b4bd bb68 9c3d 0999 3bbd
00000110: 5f38 0d3e 1995 213e 53a6 633c 1d9e 2ebd
00000120: 6c1e 193d 1d02 533d c723 b9bd bcba fd3d
00000130: 5247 66bd 022d 8b3e 5a25 a3bd 6413 8e3d
00000140: c0fa 093d 99f5 a3bd ec45 093e 29a2 8dbc
00000150: 47c6 a1bd f889 453d 4ed0 afbe 347c 14be
00000160: 80ab 53bd 5805 4a3d 245b 6c3c a06c 14be
00000170: 3d04 523d 401b 99be 3f0c 84bd 95d3 b83d
00000180: e79c 9e3e 5751 c13d 374b 783e 9a3c f13e
00000190: cc8d adbe 0ba7 afbe e81d 9ebe 0877 9239
000001a0: db31 913e 2aa0 ff3e 2b92 8dbe 4a42 533d
000001b0: 0bd5 29bc f166 343c 9f05 bd3d 0c06 a83d
000001c0: d732 cc3c 9a9d 243c c126 34bd a785 44be
000001d0: 4747 103e b053 e03d f4ce 823c 74ae 583d
000001e0: 94a7 173e ef9f 81be ad48 bc3d a4af 913e
000001f0: a942 f4bc b4c1 d0bd ee30 03be 3377 c23d
00000200: 67f1 9cbd 2334 b63d 4f88 593d 740c 433d
00000210: 3d26 1cbd e554 0fbd 2560 893d 2a69 44bd
00000220: b183 553c 7ec8 15bc 268a 983d 6f6e cebb
00000230: c14c 97bd 81fd f2bc 8de5 18bb 9afa aabd
00000240: a91f 483c b42a b43c 41ef dc3c a037 66bd
00000250: 3dea 69bb d075 c3bb 3b4c 9e3c 5797 193d
00000260: 33d9 50bb b08b 92bd 4873 a93c 18d0 1f3d
00000270: afab 67bd cc98 cf3d f39f aa3c 8def 863c
00000280: 24b2 123d 1574 89bd f1b8 33bd 9081 943d
00000290: c813 183d 1599 0b3d 737d 80bd 2cf8 fe3c
000002a0: 1387 d43c 2c59 13bd 596f a03c e0c5 0abd
000002b0: 59f2 b43d 47b3 4dbd 97ab b73c 9cd2 74bd
000002c0: 4821 203d 6c15 123a 3c93 77bd aba9 ac3c
000002d0: f3ee 9c3d 4930 d23b 6be4 7f3d 0ebd 3d3d
000002e0: 261f 2f3d f577 21bd 704c ec3c b256 673d
000002f0: 99c3 ff3c 0e3e 53bd 0e1b c6ba 503a 4a3d
00000300: ab10 28bc 5afa f5bc 8816 903c d7e8 a2bd
00000310: 8849 383c b152 96bd e4b7 60bc 0aa5 293c
00000320: 7e2e b23c f517 8a3d cca4 afbc aa25 423d
00000330: e42e 993d 1f57 803b 5aa5 373e ea6b 6ebd
00000340: db59 90bd 0b0e 0bbe c7b7 8e3d 737e 97bd
00000350: 52f7 8abc fe19 953b aeca 583d 87c5 6fbd
00000360: f8e3 49bd 9984 753d fb43 0c3d aff1 dd3c
00000370: 7dd5 90bd aabd 0cbc 4797 b4bd 582a 35ba
00000380: 21ed 5bbb b8e9 31bc 948d 92bc 4024 103d
00000390: 11d5 eebb 35c4 9fbc 7f86 58bb fd24 62bd
000003a0: 8d2a 53bd 80a4 0cbd d0d9 a23d 0c54 9b3d
000003b0: 7aef 26bd c608 d73d 02ce a2bc d4fe aa3c
000003c0: dda4 653c 6ef9 e2bc e26d 93bd cc4f 74bd
000003d0: 099c 33bd 4255 733d 3262 943d 2231 853d
000003e0: d5c9 35bc 9b0a 09bd 37c0 fabc 9a61 103c
000003f0: 18fb 84bd ae93 c0bd f6c7 6ebd 25a1 bf3b
0.19024706 -0.2899093 0.029475737 0.04630651 -0.09949117 -0.031753585 -0.11097624 0.17285348
0.14089552 -0.2444182 0.37300012 0.19954263 -0.03689523 0.055646177 -0.34922776 0.037192084
-0.12181602 -0.13243005 0.028193789 0.1210723 -0.057772297 -0.038516533 0.15664631 -0.26697674
0.081592746 -0.05255647 0.16548097 0.35338494 -0.14296457 -0.21472707 0.22442055 -0.28287637
0.12437306 -0.21150286 -0.15709738 0.1311103 0.20120174 0.22800778 0.08368724 -0.0724277
-0.21104003 0.041294754 -0.0015675593 0.005761899 0.11618331 0.10411117 -0.14692844 -0.24532425
0.3369815 -0.13654369 0.10431478 0.1206133 -0.021015929 0.016055506 0.09028306 0.2397529
-0.105634205 0.21320538 -0.34407592 -0.13599317 -0.33298805 0.1827175 0.06685662 -0.12829307
-0.02959019 -0.088292494 0.07637163 -0.045800243 0.13791035 0.15779532 0.013894635 -0.042631257
0.03738253 0.051515687 -0.09040027 0.123891324 -0.05622036 0.27182776 -0.079661086 0.06937292
0.0336864 -0.080058284 0.1340558 -0.017289238 -0.078991465 0.04822728 -0.3433861 -0.14500505
-0.051677227 0.049321502 0.0144260265 -0.14494562 0.051273573 -0.29903603 -0.06447648 0.09024731
0.30979082 0.094393425 0.24247442 0.47116548 -0.33897245 -0.3430713 -0.30882192 0.00027935975
0.2835835 0.49926883 -0.2765058 0.05157689 -0.010365735 0.011010871 0.09229588 0.08204278
0.024926586 0.010047341 -0.04398227 -0.1919161 0.1408969 0.10953462 0.015967824 0.052900746
0.1481002 -0.25317332 0.09193549 0.28454316 -0.029816942 -0.10193196 -0.12811634 0.09495392
-0.07663231 0.08896663 0.05310851 0.047619298 -0.038122404 -0.03499307 0.06707791 -0.047951855
0.013031886 -0.009142039 0.07448225 -0.006299786 -0.073876865 -0.029661896 -0.0023330182 -0.0834858
0.01221458 0.021993019 0.026969554 -0.056205392 -0.0035692595 -0.005964972 0.019323459 0.037497845
-0.0031867742 -0.071555495 0.020684853 0.039016813 -0.056560215 0.101365656 0.020828223 0.016471649
0.03581442 -0.06711594 -0.043877546 0.072512746 0.03712824 0.034081537 -0.062739275 0.031124197
0.025943315 -0.035973713 0.019584345 -0.033880115 0.08835287 -0.0502198 0.022420688 -0.059771165
0.03909424 0.000557265 -0.060443148 0.021076998 0.076627634 0.0064144474 0.062473696 0.046322875
0.042754315 -0.03942104 0.028845042 0.056479163 0.031221198 -0.05157285 -0.0015114264 0.049372017
-0.01025788 -0.030026603 0.017588869 -0.07954567 0.011248 -0.07339991 -0.013715718 0.01035429
0.021750685 0.06742851 -0.021440886 0.0473992 0.07479647 0.0039166356 0.1793417 -0.058208384
-0.070483886 -0.13579576 0.069686465 -0.07397165 -0.016963635 0.0045502177 0.052927665 -0.058537986
-0.049289674 0.059940908 0.03424452 0.027092783 -0.0707197 -0.008590141 -0.08817916 -0.0006910912
-0.0033558088 -0.010858946 -0.017889775 0.03519082 -0.007288583 -0.019502738 -0.003303915 -0.055211056
-0.05155425 -0.034336567 0.07951701 0.0758439 -0.040755726 0.1049972 -0.019873623 0.020873465
0.014016357 -0.027706828 -0.07198693 -0.059646413 -0.04384998 0.05940748 0.07245292 0.06503512
-0.011095484 -0.03345738 -0.030609233 0.0088123325 -0.06493205 -0.09403168 -0.058296166 0.0058480673

hidden_layers.0.0.bias f4 [128]
00000000: 3c4d 4fbd 8443 a83b 78ec 0f3c b02a 283e
00000010: f89f 88bd d5f1 523e 71c8 993d 26da 433c
00000020: 48e8 e13d 8343 a7bd 6146 8e3d 7373 973e
00000030: 4b62 1fbd 419a 5cbd 68a1 42be 1dd6 843d
00000040: 2070 a03d 9c82 6bbe 6c53 073d 2124 80bc
00000050: 60cd c5bc 748a 063d d8f9 e0bd 06f9 b43c
00000060: ce9d c5bb b822 6e3d b134 97bd 3d1d ef3d
00000070: 0846 cdbd 0dfc fcbc d475 d1bd c2d4 913d
00000080: 2192 c63d 1207 163c a125 013e 6da7 0bbe
00000090: 5801 51bd 6c89 c03b 6a7d 493d 653f 843c
000000a0: ae9a 013d dcff de3b c5e6 c93c 13d0 ba3d
000000b0: 3b90 b23d 008a 633d 847c 2ebe 70ee a33c
000000c0: dc96 87ba f555 97bd 522d ddbd 6f08 c4bc
000000d0: ce0b 72bd 6050 b83e f6e3 e23d b921 3bbc
000000e0: 16ab 903c 0605 32bd 610f 07be 699e d3bc
000000f0: 7802 193d dc9c 623d 4980 7f3d 72a7 a83d
00000100: 3d55 1fbd 5dae 74bd 2ff1 a9bd e81d 9a3d
00000110: ac6d 2d3d e81d dcbc 846a a93b 1332 cbbb
00000120: a679 a63d f8f2 9e3e fd8c aa3d c881 8a3d
00000130: 210a 823e 61a8 633d d2e8 15bd 8b9a 4d3d
00000140: 3f5e 233d 7352 013d 96bf 4dbe 399e 1f3d
00000150: 5689 bf3c 3fbf c43d 469b 66bd 123e 56bd
00000160: b091 debc c5a1 eb3d de00 9cbc 3220 83bd
00000170: d1bb b0bd 8a6d 39bd 7d2c 74bd e574 483d
00000180: aad2 f8bc 72ff 6bbe 380f 803d f18e 1e3c
00000190: 1b07 9cbc 16c0 1cbe 5414 b43d 4c40 7dbd
000001a0: 4f3c 1d3d 0158 973e 091d aa3d 2c01 753d
000001b0: 91fe 5d3b 0abd 0a3c 409b 81bc b94e c73c
000001c0: a378 67be afa2 14bd fe6e b1bb 50e3 833d
000001d0: 6749 c8bd 3061 343d dfbb 7b3d 2405 313a
000001e0: 23f0 0bbe aa86 56bc 7e40 f43c d7a8 f9bc
000001f0: 7b8d 973e a089 af3d 22c0 243d b7da a0bd
-0.050610766 0.0051350016 0.008784406 0.16422534 -0.066711366 0.20600064 0.07508934 0.011953866
0.11030632 -0.08167174 0.069470175 0.29580268 -0.0389121 -0.053858045 -0.19006884 0.06486151
0.07833886 -0.22999042 0.03303854 -0.015642228 -0.024145782 0.032846883 -0.10985154 0.0220914
-0.0060307747 0.05813858 -0.07383097 0.11675499 -0.10023123 -0.030881906 -0.10227552 0.071206585
0.096958406 0.009156959 0.1261201 -0.13638087 -0.051026672 0.005875757 0.04919187 0.01614351
0.031641655 0.006805403 0.024646172 0.09121718 0.08718916 0.05555153 -0.17039686 0.020011157
-0.0010344642 -0.07389442 -0.1079966 -0.023929803 -0.05909329 0.3599882 0.11078636 -0.011421614
0.017659705 -0.043461822 -0.1318946 -0.025832372 0.03735587 0.055325374 0.0623782 0.08235063
-0.03889965 -0.0597366 -0.08297955 0.075252354 0.04234092 -0.02686973 0.0051701684 -0.0062010377
0.08128671 0.31044745 0.08327673 0.06763035 0.25398353 0.0555805 -0.036598988 0.05019621
0.039884802 0.03157277 -0.20092615 0.038969252 0.023380917 0.0960679 -0.056300424 -0.05230529
-0.027169079 0.115054645 -0.019043382 -0.06402625 -0.08629573 -0.04527048 -0.05961274 0.048939604
-0.03037389 -0.23046663 0.06252903 0.009677635 -0.019046357 -0.1530765 0.0879294 -0.061828896
0.038387593 0.2955933 0.08306319 0.05981557 0.0033873657 0.008467922 -0.0158211 0.02432953
-0.22604613 -0.03628796 -0.0054148426 0.06439841 -0.097796254 0.044037998 0.061458465 0.000675278
-0.13665824 -0.01309363 0.029815909 -0.030476017 0.2960013 0.08571172 0.040222295 -0.078542165

output_layer.weight f4 [1, 128]
00000000: a6b4 273e 4adf 953d 2907 3f3d 4c12 133d
00000010: e465 b33d 0f02 a43e 8d52 323e 7d97 50bd
00000020: bbbc 23be fc8a dabd 77d9 143e 5463 08bf
00000030: 1c97 ce3d 5d73 d23d 7744 32be 8578 dcbd
00000040: cb24 153e 2254 693e c7c2 453d eb7b fe3d
00000050: 692b 323e 034b fcbd e990 bd3d 2948 c6bd
00000060: cc8f f8bd 888e 6dbd 60ec 37bd 6887 d6bd
00000070: d547 d33d afc3 6cbd 04c5 b73d 0ea2 07be
00000080: de2e fbbd 89b6 06be 47ad cf3d 8f04 0f3e
00000090: a468 143e 5939 993d 2774 8e3d bce3 cdbd
000000a0: 627c 383e 0f07 d6bd 9200 d6be bb9f fabd
000000b0: 2ac2 b3bd d7ee 8dbd fefd 4bbd 7caf 83bd
000000c0: 136f 02be 54c8 e13d a158 bd3d 1b17 59be
000000d0: f34e 0c3e ebfa 183f 808d c43d d0a8 13be
000000e0: a9b3 d7bd 6d4f 3a3c 4776 2dbe 9d64 ba3d
000000f0: d6b8 8abd 4c92 af3d 443f 03be 063f bbbd
00000100: a5a2 f5bd 3fbb 033e 836e 45bd 3ab1 a8bd
00000110: c69d a43d eb26 14be 024f 243d 789f 9dbd
00000120: fc8d dbbd d022 673e ac82 ab3d 72e8 8bbd
00000130: ec41 393e 5dac 7ebd f02b edbd fa8e d8bd
00000140: b8fc fabd 0e03 1f3d 9736 473e 5faf 143e
00000150: 0fbf cebd c951 6fbd 87b6 28be 20ae 24be
00000160: 1def 59be 2be2 1a3e 3da7 c53d c410 05be
00000170: a442 123e c59d dabd 0737 f13d 4645 d53d
00000180: 3c01 8d3d c5de 39be 202f ef3d 6013 01bd
00000190: a19a d73d a3cb 953e fa1e b23d eb2f 0d3e
000001a0: 09e4 00be 01dd 913e 8c59 7abd 65d8 ed3d
000001b0: 6c51 2a3e 77a3 fdbd 621b 66bd 3f52 e63d
000001c0: d46a fa3e 9d1f 343d f680 19be 8964 a0bd
000001d0: 4e45 3cbe b908 2a3e 6cb2 04be 2fae be3d
000001e0: fdbe f23d d5f2 1a3e 38eb f53d 36af 4bbe
000001f0: c829 053f a64c 083e 2ee2 03be 3bef 163e
0.16377506 0.0731798 0.046637688 0.03590612 0.087596685 0.3203282 0.17414303 -0.05092572
-0.15989964 -0.106710404 0.14536081 -0.5327656 0.100874156 0.1027591 -0.1740893 -0.10765175
0.14564817 0.22786 0.048281457 0.12425979 0.17399372 -0.12318995 0.09256155 -0.09681732
-0.12136802 -0.057997257 -0.04490316 -0.104750454 0.10316435 -0.057803806 0.089731246 -0.13245413
-0.122647986 -0.13155569 0.10140472 0.13966583 0.14493042 0.07481641 0.06955748 -0.100532025
0.18016198 -0.10450565 -0.4179731 -0.122374974 -0.08777268 -0.06930321 -0.049802773 -0.06429955
-0.12737684 0.11024538 0.0924542 -0.2120022 0.13701992 0.5975787 0.095973015 -0.14419866
-0.10532314 0.011371476 -0.1693965 0.09101222 -0.06773536 0.08572826 -0.12817103 -0.0914288
-0.119939126 0.12864397 -0.048201095 -0.08236928 0.080379054 -0.14467971 0.04011441 -0.07696432
-0.10720441 0.22571874 0.08374533 -0.06831445 0.18091553 -0.062176097 -0.11580646 -0.105741456
-0.122552335 0.038821273 0.19454418 0.14520024 -0.10095035 -0.058427606 -0.16475879 -0.16082048
-0.2128262 0.15125339 0.09651039 -0.12994677 0.14283234 -0.106746234 0.11778074 0.104136035
0.06885001 -0.18151386 0.1167891 -0.031512618 0.1052754 0.29256925 0.086973146 0.1378781
-0.12586989 0.28488925 -0.061120555 0.116135396 0.16632622 -0.12384694 -0.056178458 0.11246156
0.48909628 0.04397546 -0.14990601 -0.078316756 -0.18385813 0.1660489 -0.12958688 0.09310567
0.118528344 0.15131696 0.12007755 -0.19891056 0.5201688 0.13310489 -0.1287925 0.14739697
