pytorch/Laplace_eq_outputs/model_lr_1_layers_1_lambda_1.pt (torch, 20826 bytes, 5 tensors)

input_layer.0.weight f4 [64, 2]
-0.7653076 0.89080113 -0.28936222 -0.5465219 -0.039482806 -0.8258039 -0.921792 0.49138927
-0.69212526 0.03605863 0.32965016 -0.8992522 -0.10175728 -0.8740014 -0.8536908 0.1841597
-0.9162583 -0.26272163 0.49198872 -0.86251414 -0.016934805 -1.0567172 1.0347302 -1.2726004
-1.3150071 1.385517 0.051553898 -1.1166548 0.36602604 -0.8020541 0.06174281 -0.95559734
0.8452875 -0.9941429 1.0165316 -0.28189206 0.6466554 -0.24006228 -0.08331617 1.1834644
-0.012004619 0.9907133 -0.5143077 0.34314543 -0.2747756 1.0088017 -0.48042503 0.6564354
-1.0831833 0.46179944 -0.047331363 1.0445627 -0.03566061 1.2290784 -0.92171866 -0.109805994
1.1715528 -1.0218077 0.8051093 -0.16007102 -0.9196239 0.4193179 0.21776816 -0.60322416
0.066468805 -0.9590711 -0.7385079 0.89173156 -0.8577882 0.36580217 0.19490728 1.2195522
-0.13923912 1.1030811 0.007924107 -0.90690905 0.65292305 0.65640044 -0.8209372 -0.006147158
-0.24734424 -0.4928577 -0.32792735 -1.1512579 0.49738598 0.7493702 -0.7221994 0.8605069
0.6679356 0.056011967 -0.6573048 -0.14095286 0.6675648 0.03649329 0.90752286 -0.5055626
-0.026726732 1.1678025 0.20863259 -0.5867957 -0.42539513 -0.65391326 -0.902708 -0.7328833
0.09854027 0.9687145 0.13499208 -1.0587369 -0.013135748 -0.8127443 0.6046857 -0.4680527
0.16215767 0.665649 -0.11453912 -0.7688713 1.3037417 -0.26838169 0.8319302 0.8430595
0.43021655 0.44502205 -0.26283658 0.6367026 -0.24610625 1.0705547 0.3163603 0.3407575
00000000: 33eb 43bf 8b0b 643f 4927 94be dce8 0bbf
00000010: b9b8 21bd e267 53bf 8ffa 6bbf 6097 fb3e
00000020: 1f2f 31bf 37b2 133d e8c7 a83e 6435 66bf
00000030: 1f66 d0bd 8ebe 5fbf 7b8b 5abf 5c94 3c3e
00000040: e78f 6abf 7383 86be f2e5 fb3e bacd 5cbf
00000050: dcba 8abc 8242 87bf 0a72 843f 92e4 a2bf
00000060: 2752 a8bf 9f58 b13f 2e2a 533d 8bee 8ebf
00000070: c467 bb3e 6b53 4dbf 07e6 7c3d 07a2 74bf
00000080: c364 583f 2680 7ebf b51d 823f 2854 90be
00000090: 358b 253f e3d2 75be aba1 aabd c37b 973f
000000a0: 06af 44bc 639f 7d3f aba9 03bf c2b0 af3e
000000b0: 63af 8cbe 6a20 813f 45fa f5be 260c 283f
000000c0: c0a5 8abf fa70 ec3e 88de 41bd 3bb4 853f
000000d0: dc10 12bd 7152 9d3f c1f5 6bbf f7e1 e0bd
000000e0: 71f5 953f 98ca 82bf a51b 4e3f a8e9 23be
000000f0: 796c 6bbf d6b0 d63e 9efe 5e3e e66c 1abf
00000100: cc20 883d af85 75bf db0e 3dbf 8548 643f
00000110: 0298 5bbf 6c4a bb3e c695 473e 491a 9c3f
00000120: b394 0ebe c331 8d3f 1dd4 013c 312b 68bf
00000130: f725 273f dc09 283f f128 52bf 196e c9bb
00000140: cf47 7dbe d857 fcbe 18e6 a7be 6b5c 93bf
00000150: 60a9 fe3e bad6 3f3f 0fe2 38bf 2e4a 5c3f
00000160: d4fd 2a3f ce6c 653d 2145 28bf f255 10be
00000170: 87e5 2a3f fd79 153d 6b53 683f 8d6c 01bf
00000180: 05f2 dabc 8d7a 953f c8a3 553e 3e38 16bf
00000190: 64cd d9be dc66 27bf df17 67bf 3d9e 3bbf
000001a0: 7bcf c93d acfd 773f 5d3b 0a3e b184 87bf
000001b0: 5237 57bc 0310 50bf afcc 1a3f 9aa4 efbe
000001c0: a90c 263e f967 2a3f 7c93 eabd c0d4 44bf
000001d0: 02e1 a63f 5369 89be 61f9 543f bfd2 573f
000001e0: 5845 dc3e eed9 e33e 8492 86be f1fe 223f
000001f0: 4703 7cbe f007 893f faf9 a13e c477 ae3e

input_layer.0.bias f4 [64]
-0.104367815 0.12709932 0.91103613 -0.97181314 0.7988745 -1.29188 -1.0316054 -0.97788227
1.0038589 0.7448054 1.0247871 -0.04039727 0.27592054 1.0764151 -0.41265228 0.80573004
-0.13213289 -0.5254927 -0.93074685 -1.1158091 1.0355861 -0.91446996 0.819436 -0.03441019
-1.1627866 -0.9494895 -1.1663218 -1.0118845 0.21803528 -0.780955 -0.04532462 0.09655424
0.79073226 -0.08138244 -0.5357507 -1.1997586 -1.0965998 0.81639284 0.114108816 0.8810807
-0.88072103 0.9434785 -0.42040882 0.020482855 0.892247 0.46492925 -0.42851445 0.9386342
-1.0820223 0.6835211 0.050877113 -0.119773984 -0.954849 -0.86569524 -0.3683164 -0.97613025
0.619561 0.7229155 -0.55791724 -0.3227962 -0.5191087 0.2669231 -1.079453 0.9532238
00000000: cbbe d5bd 5326 023e aa39 693f bfc8 78bf
00000010: 0a83 4c3f 535c a5bf a50b 84bf 7e56 7abf
00000020: 737e 803f 91ab 3e3f 392c 833f 9c77 25bd
00000030: 7545 8d3e f8c7 893f 2947 d3be 5344 4e3f
00000040: d84d 07be b186 06bf 6d45 6ebf d5d2 8ebf
00000050: 168e 843f b41a 6abf 8fc6 513f b3f1 0cbd
00000060: 31d6 94bf be11 73bf 084a 95bf 6e85 81bf
00000070: a444 5f3e abec 47bf 4fa6 39bd 3bbe c53d
00000080: 6e6d 4a3f d6ab a6bd f526 09bf b191 99bf
00000090: 625d 8cbf 1fff 503f e2b1 e93d 818e 613f
000000a0: ef76 61bf cf87 713f d33f d7be a9cb a73c
000000b0: 4d6a 643f 350b ee3e 3f66 dbbe 554a 703f
000000c0: b57f 8abf 3dfb 2e3f 8564 503d 104c f5bd
000000d0: fc70 74bf 349e 5dbf f893 bcbe ace3 79bf
000000e0: 8d9b 1e3f fd10 393f aad3 0ebf 8b45 a5be
000000f0: 4fe4 04bf 25aa 883e 842b 8abf 7a06 743f

hidden_layers.0.0.weight f4 [64, 64]
-0.16456662 0.6268639 0.7798964 -0.32922208 0.16554528 -0.28156644 -0.25646263 -0.31669903
0.44460067 0.50979257 0.82805216 0.25995216 -0.20392029 0.7523656 0.3590746 0.83531845
0.47800624 -0.1432022 -0.17632842 -0.8439585 0.16928075 -0.23838215 -0.2458674 -0.48357347
-0.371421 -0.88990784 -0.9690879 -0.06486256 -0.19893664 -0.21287714 0.15388125 0.51629436
0.8633774 -0.28320536 -0.35094583 -0.8652494 -0.8336268 0.73526335 -0.34705567 0.19789562
-0.006036571 0.8016962 -0.5111587 -0.34899747 0.0069827423 0.43844786 -0.33008465 0.4908759
-0.9463317 0.5705062 0.51789135 0.1261247 -0.96918416 0.15165108 0.20845792 -0.012874463
0.043244477 0.9446226 -0.2944974 -0.30161604 -0.61681867 -0.28132245 -0.634335 0.18424974
0.15531105 0.053006884 0.4142946 -0.26562685 0.033612125 -0.063528046 -0.0660027 -0.14473909
0.14533798 0.034063783 0.41631946 -0.07715645 0.15189824 0.42051077 -0.21594127 0.49241287
-0.09867395 -0.19009387 0.0916942 -0.5352492 0.07908584 -0.022686468 0.17860332 -0.1701672
-0.24299169 -0.47080678 -0.5402535 -0.05060583 -0.081363715 -0.050357703 -0.18970418 0.20573656
0.4297079 0.17088395 0.00042326748 -0.37492296 -0.50902504 0.36999297 0.000591543 0.08242936
0.04150288 0.33113655 -0.030781321 0.13620296 0.036118194 0.043035034 0.113556035 0.2289852
-0.46852678 0.47091284 0.21977636 -0.13082303 -0.4179281 0.15334845 0.18694352 0.19239283
0.023211991 0.22770911 -0.03575564 -0.11904169 0.002649439 0.00531013 -0.3674139 0.07708264
0.019418178 -0.26325583 0.16429982 -0.21167836 0.6614706 -0.7435574 -0.4273414 -0.09123821
0.44930616 0.16481487 0.0064394744 0.1097385 -0.13634296 0.22144145 -0.61873543 -0.011307595
-0.23758182 -0.6451401 -0.9114599 0.0023996402 0.5896214 -0.26091772 0.7197938 0.39585596
-0.25629014 -0.032311548 -0.10711656 0.044926926 0.22773898 -0.90861374 0.43734106 -0.5901012
-0.13054612 0.24561419 0.15970111 -0.17680022 -0.23330791 -0.022642104 0.059160803 0.7893212
-0.36296308 0.08143661 0.011594604 0.35894117 0.2364815 0.7758168 -0.61688906 0.14083445
-0.03630348 0.13413517 -0.334093 -0.055518672 -0.1583691 -0.67439246 -0.4448178 -0.93855387
0.46155322 0.11393258 -0.7181081 0.13995978 -0.4393433 0.7081384 -0.18319045 0.21627726
0.2539901 -0.5500276 0.1417134 -0.35727507 0.04256453 -0.43767363 -0.7802835 -0.41343603
-0.012704922 -0.044890873 0.04023911 -0.21349898 0.16223046 -0.049313918 -0.39827853 -0.06991892
-0.1883164 -0.099665195 -0.2883976 0.012385068 0.91081893 -0.14893338 0.73790324 0.16442707
-0.38013035 0.05123771 0.0005047664 -0.45806184 -0.07731166 -0.15421988 -0.20146282 -0.37909517
-0.1849678 0.30214316 -0.35954162 -0.070591204 -0.12375371 -0.11219799 0.5906487 0.17096718
-0.58589166 0.15536207 -0.008323386 0.22478198 0.382075 -0.20750482 0.1363935 0.24118869
-0.13411297 0.05070205 -0.4345427 -0.5169286 -0.052280236 -0.72730875 -0.6886021 -0.169044
0.95787406 -0.018653711 0.0077826 0.051874246 0.027333612 0.46890306 0.035170637 0.25740704
00000000: 2784 28be 277a 203f 4aa7 473f cc8f a8be
00000010: b484 293e 7a29 90be 124f 83be 6026 a2be
00000020: b3a2 e33e c481 023f 3afb 533f 7318 853e
00000030: 7bd0 50be 089b 403f a0d8 b73e 6ed7 553f
00000040: 3cbd f43e 99a3 12be 708f 34be aa0d 58bf
00000050: ef57 2d3e 731a 74be aac4 7bbe f196 f7be
00000060: e52a bebe 00d1 63bf 2516 78bf a9d6 84bd
00000070: 0cb6 4bbe 77fc 59be 0c93 1d3e de2b 043f
00000080: 4d06 5d3f 4b00 91be 2caf b3be fc80 5dbf
00000090: 9168 55bf 383a 3c3f 48b1 b1be 26a5 4a3e
000000a0: 6ece c5bb f63b 4d3f 4cdb 02bf ccaf b2be
000000b0: 7dcf e43b 3d7c e03e db00 a9be 1654 fb3e
000000c0: cb42 72bf b20c 123f 8794 043f d526 013e
000000d0: 741c 78bf 6c4a 1b3e fe75 553e 69ef 52bc
000000e0: 1f21 313d c9d2 713f 5dc8 96be 6b6d 9abe
000000f0: d4e7 1dbf 7f09 90be c763 22bf f7ab 3c3e
00000100: dc09 1f3e bf1d 593d 6c1e d43e 3e00 88be
00000110: deac 093d fe1a 82bd 6c2c 87bd 7c36 14be
00000120: 7bd3 143e 7786 0b3d d327 d53e 3304 9ebd
00000130: 368b 1b3e 304d d73e b51f 5dbe 8a1d fc3e
00000140: 9115 cabd f8a7 42be 2bca bb3d 1706 09bf
00000150: c2f7 a13d f9d8 b9bc cae3 363e 4f40 2ebe
00000160: d0d2 78be 960d f1be 0e4e 0abf 0f48 4fbd
00000170: 05a2 a6bd e143 4ebd d041 42be 9bac 523e
00000180: ad02 dc3e 34fc 2e3e 00ea dd39 e7f5 bfbe
00000190: 774f 02bf b86f bd3e c711 1b3a b9d0 a83d
000001a0: edfe 293d bb8a a93e 1c29 fcbc ca78 0b3e
000001b0: acf0 133d 8145 303d 1190 e83d 197b 6a3e
000001c0: bee2 efbe 7d1b f13e 0e0d 613e 79f6 05be
000001d0: acfa d5be 6007 1d3e 1f6e 3f3e a002 453e
000001e0: 1327 be3c 942c 693e 8274 12bd 21cc f3bd
000001f0: 36a2 2d3b 9900 ae3b ad1d bcbe 81dd 9d3d
00000200: df12 9f3c 78c9 86be 363e 283e 36c2 58be
00000210: 2356 293f c759 3ebf 7ecc dabe 19db babd
00000220: 750b e63e 3bc5 283e 3a02 d33b 94be e03d
00000230: 7d9d 0bbe 8cc1 623e 7265 1ebf 7e43 39bc
00000240: a648 73be e727 25bf 7055 69bf 4843 1d3b
00000250: 6ef1 163f 0297 85be 6844 383f a2ad ca3e
00000260: 7638 83be 1d59 04bd ed5f dbbd 4c05 383d
00000270: 6834 693e e99a 68bf 2beb df3e df10 17bf
00000280: e2ad 05be 4982 7b3e b088 233e 1e0b 35be
00000290: 45e8 6ebe ef7b b9bc 9952 723d f410 4a3f
000002a0: 4cd6 b9be 3dc8 a63d 4bf7 3d3c 23c7 b73e
000002b0: 3528 723e ee9b 463f 71ec 1dbf e836 103e
000002c0: f5b2 14bd bb5a 093e 3d0e abbe 8c67 63bd
000002d0: 822b 22be fca4 2cbf 29bf e3be 1145 70bf
000002e0: b450 ec3e 7c55 e93d efd5 37bf 9e51 0f3e
000002f0: 9bf1 e0be 8f48 353f 4796 3bbe c977 5d3e
00000300: fe0a 823e 9cce 0cbf 511d 113e c2ec b6be
00000310: 2558 2e3d c216 e0be a9c0 47bf e3ad d3be
00000320: 4e28 50bc 7edf 37bd c4d1 243d 7a9f 5abe
00000330: be1f 263e 64fd 49bd 2aeb cbbe a731 8fbd
00000340: 04d6 40be 441d ccbd daa8 93be beea 4a3c
00000350: 6e2b 693f fe81 18be 3ae7 3c3f 925f 283e
00000360: 72a0 c2be a2de 513d 4d52 043a 1587 eabe
00000370: 9355 9ebd d1eb 1dbe 454c 4ebe c318 c2be
00000380: 3368 3dbe 82b2 9a3e d715 b8be 1f92 90bd
00000390: 9672 fdbd 0fc8 e5bd c134 173f 0512 2f3e
000003a0: fffc 15bf 3c17 1f3e d05e 08bc 3f2d 663e
000003b0: 569f c33e 257c 54be bdaa 0b3e 2bfa 763e
000003c0: e954 09be f4ac 4f3d 617c debe 6f55 04bf
000003d0: cd23 56bd e830 3abf 3a48 30bf df19 2dbe
000003e0: 3c37 753f abcf 98bc 2e05 ff3b 177a 543d
000003f0: bdea df3c 1014 f03e 160f 103d dbca 833e

hidden_layers.0.0.bias f4 [64]
0.26343057 -0.14293893 0.20324546 0.27762395 -0.12040868 -0.056956317 0.021577828 0.10135864
-0.009332454 0.12190192 -0.064596534 -0.035463724 -0.26846322 -0.26287284 -0.053467475 0.037549525
0.32621306 0.37803656 -0.1782753 0.22252366 0.07262438 0.24305002 -0.4301275 -0.0938099
0.404588 -0.011443728 0.31241664 0.118861146 -0.10601614 0.13269892 0.13913977 -0.2053551
-0.043125357 -0.060383398 0.07994016 0.12818652 0.08972644 0.071205474 0.05157799 0.057731505
0.04503596 -0.09549308 -0.006560435 -0.33642283 0.018420791 -0.21547961 0.15583366 0.4494042
-0.07412537 0.08195142 0.032843754 0.17609142 0.058467787 0.06056249 -0.1589752 -0.1779435
0.034744687 0.11162905 0.45222104 0.1943021 -0.33014688 -0.32118645 0.10230899 0.110404015
00000000: 5fe0 863e 955e 12be 941f 503e ba24 8e3e
00000010: d398 f6bd 074b 69bd fcc3 b03c 1e95 cf3d
00000020: 26e7 18bc b7a7 f93d 304b 84bd 6942 11bd
00000030: 0374 89be 4597 86be b600 5bbd 88cd 193d
00000040: 6605 a73e 028e c13e cd8d 36be 3edd 633e
00000050: 17bc 943d 1be2 783e ac39 dcbe 681f c0bd
00000060: 2926 cf3e 797e 3bbc 13f5 9f3e 796d f33d
00000070: fd1e d9bd 3ae2 073e a87a 0e3e 9b48 52be
00000080: 37a4 30bd 9554 77bd abb7 a33d 5443 033e
00000090: 7fc2 b73d 2dd4 913d 7143 533d df77 6c3d
000000a0: a077 383d e091 c3bd ebf8 d6bb 9d3f acbe
000000b0: 33e7 963c b0a6 5cbe dc92 1f3e 4f18 e63e
000000c0: 0bcf 97bd 25d6 a73d 2c87 063d 4f51 343e
000000d0: eb7b 6f3d 6010 783d 65ca 22be d236 36be
000000e0: 7250 0e3d c59d e43d 8489 e73e 21f7 463e
000000f0: 0309 a9be 8d72 a4be 6087 d13d 801b e23d

output_layer.weight f4 [1, 64]
-0.5701376 -0.2816975 -0.3436097 -0.1409433 0.28034186 0.26497367 0.19277452 0.15306659
-0.1982906 0.40931493 0.29436946 0.24257517 -0.47329426 0.28518212 -0.24408755 -0.33164904
0.32449228 0.4046707 0.24235395 -0.24250144 -0.31379598 0.13747986 -0.20920877 0.24398008
0.4501998 0.2580091 0.34495088 -0.15508112 -0.1205315 -0.21475397 -0.2417434 -0.31207326
-0.2932594 -0.21837541 -0.22458225 -0.1836145 -0.42951712 0.09393426 0.2743152 -0.22783184
0.2246652 0.26497132 0.3199983 -0.5575601 0.32599682 0.11053871 -0.23400389 0.22148712
-0.19583817 -0.27022633 0.36633307 -0.19795021 0.17943421 0.21490592 0.3332009 -0.35222602
0.31952748 -0.19341317 0.36353397 -0.49675262 -0.28699642 -0.2741729 -0.27165616 -0.2687433
00000000: 8af4 11bf a83a 90be 9ced afbe 7153 10be
00000010: f888 8f3e a1aa 873e af66 453e 7dbd 1c3e
00000020: b10c 4bbe ba91 d13e 98b7 963e a065 783e
00000030: a053 f2be 6403 923e 16f2 79be e7cd a9be
00000040: da23 a63e ff30 cf3e a22b 783e 4c52 78be
00000050: dea9 a0be 85c7 0c3e d33a 56be ead5 793e
00000060: 9780 e63e c519 843e 679d b03e 96cd 1ebe
00000070: 38d9 f6bd 77e8 5bbe 958b 77be 11c8 9fbe
00000080: 1926 96be ce9d 5fbe e4f8 65be 7105 3cbe
00000090: abe9 dbbe 9b60 c03d 0b73 8c3e c04c 69be
000000a0: a20e 663e 52aa 873e d1d6 a33e 42bc 0ebf
000000b0: 0ee9 a63e 1f62 e23d b79e 6fbe 85cd 623e
000000c0: cd89 48be 1b5b 8abe 0290 bb3e 76b3 4abe
000000d0: 9abd 373e 4c10 5c3e 4f99 aa3e f856 b4be
000000e0: 1b99 a33e 1a0e 46be 2021 ba3e 5c56 febe
000000f0: 32f1 92be 6460 8cbe 8416 8bbe b998 89be
