pytorch/Laplace_eq_outputs/model_lr_0_layers_2_lambda_3.pt (torch, 71258 bytes, 5 tensors)

input_layer.0.weight f4 [128, 2]
0	0xbf05cb38	-0.5226321
1	0xbf11383f	-0.5672645
2	0x3eb71ffe	0.35766596
3	0x3e9ec953	0.31012973
4	0xbffe822a	-1.9883473
5	0xbf263d29	-0.64937073
6	0x3f2d2ff8	0.6765132
7	0xbe8c6e35	-0.2742783
8	0xbed735a7	-0.4203312
9	0x3e91c098	0.2846725
10	0xbf0bca91	-0.54605967
11	0xbf2636a9	-0.64927155
12	0x3edb12a7	0.42787668
13	0xbf42d67b	-0.7610852
14	0x3f5409fe	0.82827747
15	0x3efb7bf3	0.49118003
16	0x3f4877f6	0.78308046
17	0xbf27e14b	-0.65578145
18	0x3f22e1ba	0.6362568
19	0xbf1a4234	-0.6025727
20	0x3ea785de	0.3271932
21	0xbf2a825a	-0.6660515
22	0xbe2ef0dc	-0.17084068
23	0x3edcbe8e	0.43114132
24	0xbe5a6d62	-0.21330789
25	0x3f2087f7	0.62707466
26	0xbe6aae6b	-0.22918098
27	0xbf1d45ca	-0.61434615
28	0x3f49008e	0.7851647
29	0x3ef5904b	0.4796165
30	0x3f0b9557	0.5452475
31	0x3f33741c	0.70099044
32	0x3f3375ca	0.70101607
33	0xbf30ad1f	-0.6901416
34	0x3fa7606b	1.30763
35	0x3f5e5976	0.86855257
36	0x3e118977	0.14212595
37	0x3ebcc505	0.36869064
38	0xbe25c99c	-0.16190189
39	0x3eee86d7	0.4658725
40	0x3e011201	0.12604524
41	0xbf391288	-0.722939
42	0x3e7a4445	0.24440105
43	0xbf399b17	-0.72502273
44	0xbe8432e4	-0.25820076
45	0xbf4abf1e	-0.7919787
46	0xbdb349c6	-0.087543055
47	0xbf335d35	-0.700641
48	0x3d2d5f16	0.04232701
49	0x3ee987b9	0.4561136
50	0xbf10ea74	-0.5660775
51	0xbf0175e3	-0.50570506
52	0x3d5b2c5f	0.053509112
53	0x3f45aa51	0.7721301
54	0xbf4730bb	-0.7780873
55	0xbf4e9a6e	-0.8070439
56	0xbdd96d78	-0.10616583
57	0x3f4aa78a	0.79161894
58	0x3ea449a8	0.32087445
59	0x3f475dcd	0.77877504
60	0xbecd0c04	-0.4004823
61	0x3ec2807f	0.3798866
62	0xbf3ad967	-0.7298798
63	0xbf4d5cbf	-0.80219644
64	0x3f81f37e	1.0152433
65	0xbf27deb3	-0.6557419
66	0xbf471e51	-0.77780634
67	0xbf6366f1	-0.8882895
68	0xbca487ec	-0.020084344
69	0xbf0b5938	-0.5443301
70	0x3e257de8	0.1616131
71	0x3f3754b9	0.7161365
72	0x3ee27ec6	0.44237345
73	0xbda6df24	-0.081480294
74	0xbf15bc1a	-0.58490145
75	0x3e428450	0.18995786
76	0xbf55e218	-0.83548117
77	0x3f2196e2	0.63120854
78	0xbd9b5de2	-0.07586266
79	0xbcba3893	-0.022732055
80	0x3cc1bf79	0.023650872
81	0x3f3d091d	0.7384203
82	0xbef2ffd9	-0.4746082
83	0x3f4f25f7	0.80917305
84	0x3f32b3c5	0.69805557
85	0xbf16acb2	-0.5885726
86	0xbe92d88d	-0.2868084
87	0xbf51db8a	-0.81975615
88	0x3ade883d	0.0016977858
89	0x3f539be2	0.82659733
90	0xbf0e9ed7	-0.5571112
91	0x3c32119b	0.010868455
92	0x3d0ae8aa	0.033913292
93	0x3f407f66	0.75194395
94	0xbe4e6ff0	-0.20159888
95	0x3f3c5d47	0.7357983
96	0x3f041912	0.51600754
97	0xbee40afc	-0.4453963
98	0xbeebcb56	-0.4605357
99	0xbea1887d	-0.31549445
100	0x3c8e1271	0.017342778
101	0x3ef75e0e	0.48313946
102	0xbf13af17	-0.5768904
103	0x3f3e7e13	0.74411124
104	0xbe83b6e2	-0.25725466
105	0x3f1b0e09	0.6056829
106	0x3fa88179	1.3164512
107	0xbf28f555	-0.65999347
108	0xbef1a18f	-0.47193572
109	0x3f23322b	0.63748425
110	0x3e73b9fe	0.23801419
111	0x3ef60d99	0.4805725
112	0x3e4617de	0.19345042
113	0x3f165a6d	0.5873173
114	0x3f36cf26	0.71409833
115	0x3f3c3cb1	0.7353011
116	0x3d1ef0d5	0.038803894
117	0xbde922cf	-0.11383592
118	0x3ee9f420	0.45694065
119	0xbee2a393	-0.44265422
120	0xbeafee86	-0.34361666
121	0x3e6dec4e	0.23234674
122	0x3f44cdec	0.7687671
123	0x3f46323b	0.77420396
124	0x3e068300	0.1313591
125	0xbedcf92d	-0.43158856
126	0xbc8e62fb	-0.017381182
127	0xbf3967c4	-0.7242396
128	0x3d0ba10d	0.034089137
129	0xbf0ccd70	-0.5500097
130	0x3f552f6b	0.8327548
131	0xbe9c93bc	-0.30581462
132	0xbe7196ab	-0.23592632
133	0xbf88c6df	-1.0685691
134	0x3e19c818	0.15017736
135	0x3efa36a5	0.48869815
136	0x3eb0887d	0.34479132
137	0xbdf2974e	-0.11845265
138	0xbdd0150e	-0.10160266
139	0xbee415d1	-0.44547895
140	0x3f7bb65a	0.9832512
141	0xbee8e0fb	-0.45484146
142	0xbd37f729	-0.044913445
143	0x3dfecb9c	0.12441179
144	0x3f0b465d	0.5440424
145	0xbefdc1db	-0.49561962
146	0xbeaf3d91	-0.3422666
147	0xbea7cb8a	-0.32772475
148	0x3e883b51	0.26607755
149	0x3e11e89b	0.14248888
150	0xbce716fd	-0.028209204
151	0xbf352cae	-0.707713
152	0x3fa6ce28	1.3031664
153	0xbe0ab024	-0.13543755
154	0x3e272d3e	0.16325852
155	0xbec2258b	-0.37919268
156	0x3d927d40	0.07152796
157	0x3f26fd45	0.6523021
158	0xbe3117c7	-0.17294227
159	0xbdc8d2c1	-0.09805823
160	0xbdc5fcc1	-0.096673496
161	0xbf3431d3	-0.70388526
162	0xbf349e46	-0.70554006
163	0xbf47673d	-0.77891904
164	0x3edab235	0.42714086
165	0x3d199dce	0.03750401
166	0xbe8153b8	-0.25259185
167	0x3f1f5e4c	0.6225326
168	0xbe286835	-0.16446002
169	0xbd556580	-0.05209875
170	0x3f0f329f	0.55936617
171	0x3ed4a9b1	0.41535714
172	0x3ee4c8a4	0.44684327
173	0xbd824e31	-0.0636257
174	0x3e717d10	0.23582864
175	0xbf261d04	-0.64888024
176	0x3f3bb35c	0.73320556
177	0xbf4a81b6	-0.79104173
178	0x3dc4e32e	0.096136436
179	0x3ee164e5	0.4402229
180	0x3f5e846d	0.86920816
181	0xbd03e661	-0.03220213
182	0xbc9a5b32	-0.018842313
183	0x3f296905	0.6617587
184	0xbdbec057	-0.0931403
185	0x3ed0021c	0.4062661
186	0xbdb69ebe	-0.089169964
187	0x3deb1cec	0.11480126
188	0x3dfd7cc0	0.1237731
189	0xbecac4ce	-0.39603275
190	0x3f3f28ac	0.74671435
191	0x3e164b6e	0.14677212
192	0x3d93f505	0.07224468
193	0xbf10996d	-0.5648411
194	0x3fa357ca	1.2761166
195	0xbf9d9941	-1.2312394
196	0x3ea1970b	0.3156055
197	0xbf30f4d5	-0.69123584
198	0xbedd8e57	-0.4327266
199	0xbeb781c6	-0.35841197
200	0xbdccfd6b	-0.10009273
201	0xbf59005d	-0.8476618
202	0xbe619d0e	-0.22032568
203	0xbf070dc6	-0.5275539
204	0xbee1842c	-0.44046152
205	0xbe2239a2	-0.15842298
206	0xbfcb14f1	-1.5865766
207	0xbe5ea1b1	-0.21741368
208	0x3d849206	0.06473164
209	0x3e27a445	0.16371258
210	0x3eaf9adf	0.34297845
211	0x3f3546c1	0.70811087
212	0x3f1c011c	0.6093919
213	0x3f812134	1.0088258
214	0xbe3299b0	-0.1744144
215	0x3f2bac26	0.6705955
216	0xbe9d58f9	-0.30731943
217	0x3f7f95d6	0.99838006
218	0xbf19f6e9	-0.6014238
219	0xbf686d56	-0.90791833
220	0xbf1033c8	-0.5632901
221	0x3f04ef9c	0.51928115
222	0xbd05c4cc	-0.032658383
223	0xbca96348	-0.020677224
224	0x3f7694e9	0.9632097
225	0x3f3a7cf7	0.7284693
226	0xbe8673ae	-0.26260132
227	0xbf2c0370	-0.67192745
228	0x3f943d90	1.1581287
229	0xbf4a3f08	-0.7900243
230	0xbdec02f4	-0.11524001
231	0xbea4ad85	-0.32163635
232	0xbf22b235	-0.6355317
233	0x3f51355b	0.8172204
234	0xbe44ac5b	-0.19206373
235	0x3f048c3b	0.51776475
236	0xbf01746c	-0.5056827
237	0x3f308d75	0.68965846
238	0xbe749c1e	-0.23887679
239	0x3f28f39c	0.6599672
240	0xbf4ed401	-0.8079224
241	0xbd42194b	-0.047387403
242	0x3f63004b	0.8867232
243	0xbbdef658	-0.006804269
244	0x3e297e15	0.16552003
245	0x3f55a3fe	0.8345336
246	0xbeae5b63	-0.34054098
247	0xbdd90f8d	-0.10598669
248	0x3f5495e6	0.83041227
249	0x3f4ee55e	0.80818737
250	0x3d9b5507	0.07584577
251	0x3d521b4f	0.051295575
252	0xbc1359d6	-0.0089935865
253	0xbc0f6205	-0.008751397
254	0xbfca5052	-1.5805762
255	0xbf4a6395	-0.790582

input_layer.0.bias f4 [128]
0	0x3e362445	0.17787273
1	0x3e8854e9	0.2662728
2	0xbfce4c4f	-1.6117038
3	0xbdf67f39	-0.120359845
4	0xbeba3a45	-0.3637258
5	0x3d83939f	0.06424641
6	0x3f10a3d6	0.56499994
7	0xbe6817a4	-0.22665268
8	0x3f3249b9	0.6964374
9	0x3f26320c	0.64920115
10	0xbcebdaab	-0.028790792
11	0x3e165253	0.14679842
12	0x3ebd9a75	0.37031904
13	0xbeadc91e	-0.33942503
14	0xbe99dac0	-0.30049706
15	0x3cb67bb8	0.02227579
16	0xbdaf6268	-0.085636914
17	0xbf364e5e	-0.7121333
18	0x3f1bf122	0.60914814
19	0x3ec0c39d	0.3764924
20	0xbe969210	-0.29408312
21	0xbee7ca9b	-0.45271763
22	0x3f12e1cb	0.5737578
23	0xbf4c0750	-0.7969866
24	0x3f182c83	0.5944292
25	0xbcf73f9a	-0.030181695
26	0x3ee3d1d4	0.44496024
27	0xbee4e886	-0.4470865
28	0x3f36a5a4	0.713465
29	0xbf1a9ece	-0.60398567
30	0xbe84268a	-0.25810653
31	0xbb9cd6d1	-0.0047863503
32	0xbf15f508	-0.58577013
33	0xbeabbb65	-0.33541408
34	0x3c49e0ec	0.012321692
35	0xbf20b722	-0.6277944
36	0x3f2f12c2	0.68388
37	0x3d48b9ed	0.049005438
38	0xbf23676f	-0.638297
39	0x3efb8201	0.49122623
40	0xbf4731a0	-0.77810097
41	0xbecb7de7	-0.39744493
42	0x3ee471c6	0.44618052
43	0xbf3327b3	-0.6998245
44	0xbf657ca1	-0.89643294
45	0x3e90fefe	0.28319544
46	0x3f7b2b58	0.9811301
47	0xbf1961e9	-0.59915024
48	0x3daf2ab8	0.0855307
49	0x3f1a9fa7	0.6039986
50	0xbf319ff5	-0.693847
51	0xbe8a9d00	-0.27072906
52	0x3f3f84c2	0.7481195
53	0x3f2efeec	0.6835773
54	0xbe5ea291	-0.21741702
55	0xbf07efa6	-0.5310005
56	0x3f4f1155	0.8088582
57	0x3eb6b2ff	0.35683438
58	0xbf4ac87c	-0.79212165
59	0x3ed88ea0	0.42296314
60	0x3f034ea3	0.51291865
61	0x3ee20550	0.44144678
62	0x3efd8879	0.49518183
63	0x3f4120b3	0.7544052
64	0x3f005423	0.5012838
65	0xbe8f6716	-0.28008336
66	0x3f6aabb5	0.91668254
67	0xbe04e4ee	-0.12977955
68	0x3f4b2559	0.79353863
69	0x3dbb3755	0.09141413
70	0x3f20fdc5	0.6288722
71	0x3f35c71d	0.7100695
72	0xbe918721	-0.28423408
73	0x3e044205	0.1291581
74	0xbef7950d	-0.48355904
75	0x3f4a6a73	0.7906868
76	0xbefc218a	-0.49244338
77	0xbf3ca8a0	-0.736948
78	0xbf1fdd7f	-0.6244735
79	0x3de99bb2	0.1140665
80	0x3f31156c	0.6917331
81	0x3ebb9dc4	0.36643803
82	0x3c92fb48	0.017942086
83	0xbede6857	-0.4343898
84	0xbf32dcbb	-0.6986806
85	0xbf3ba565	-0.7329925
86	0xbf5005f1	-0.81259066
87	0x3f401efb	0.7504727
88	0x3d18a5bb	0.037267428
89	0x3f34b5f0	0.70590115
90	0x3f2e875a	0.6817528
91	0xbecd536e	-0.40102714
92	0x3e453c0f	0.19261192
93	0x3f3129b6	0.6920427
94	0xbf01b917	-0.5067305
95	0x3e449465	0.19197233
96	0x3f41c14d	0.7568558
97	0xbed1ae9b	-0.40953526
98	0x3eeaaae5	0.45833507
99	0xbf8de5bf	-1.1085738
100	0x3f540c62	0.82831395
101	0xbd3f9593	-0.046773504
102	0x3f18156f	0.59407705
103	0x3f8224a9	1.0167438
104	0xbf176655	-0.5914052
105	0xbee451fd	-0.44593802
106	0xbed44948	-0.4146216
107	0xbea3ace6	-0.3196785
108	0x3f8f3100	1.1186829
109	0x3f145c99	0.5795379
110	0xbd270187	-0.04077294
111	0x3f4eb0e6	0.80738676
112	0xbf2dd715	-0.67906314
113	0xbf144755	-0.57921344
114	0x3f4ea1a8	0.8071542
115	0x3f0dba72	0.5536262
116	0xbe17fca0	-0.14842463
117	0xbf20145b	-0.6253106
118	0xbe2359cb	-0.15952222
119	0x3f50ce22	0.81564534
120	0x3ed54557	0.41654465
121	0xbf175f90	-0.5913019
122	0xbf4624fc	-0.77400184
123	0xbeece31e	-0.46267027
124	0xbea14280	-0.31496048
125	0x3f375ad1	0.7162295
126	0x3f389085	0.7209552
127	0x3f0956be	0.53647983

hidden_layers.0.0.weight f4 [128, 128]
0	0xbd32f817	-0.04369363
1	0x3db44e67	0.088040166
2	0x3da98d03	0.08278849
3	0xbd482b54	-0.048869446
4	0x3bc7fc46	0.0061030714
5	0x3d3c5bcb	0.045985978
6	0x3ccab9fa	0.024746884
7	0xbd0bf6b8	-0.034170836
8	0xbda565fb	-0.08076092
9	0x3ceb3c40	0.028715253
10	0xbd08cffe	-0.03340148
11	0xbd17900a	-0.0370026
12	0x3cb481ef	0.022034613
13	0xbd09762c	-0.033559963
14	0x3b31accf	0.0027111059
15	0x3d571db4	0.05251856
16	0xbd7721b4	-0.060334876
17	0xbafcb997	-0.0019281384
18	0x3dbc3b3a	0.09190984
19	0xbc999904	-0.018749721
20	0xbd876c80	-0.066124916
21	0x3c3f4ca9	0.011675992
22	0x3db572b0	0.088597655
23	0x3d5dae07	0.054121044
24	0x3dc91e8b	0.09820279
25	0x3d153bd6	0.036434017
26	0x3cbbffc9	0.022949116
27	0x3de0edce	0.10982858
28	0x3da6af94	0.081389576
29	0x3d9b1d29	0.07573921
30	0xbd8939b4	-0.06700459
31	0x3d281c70	0.041042745
32	0xbd3e5107	-0.046463992
33	0xbd53e4c0	-0.051731825
34	0x3bc5c89b	0.006035877
35	0x3ced95c2	0.029002074
36	0x3c899be4	0.016797967
37	0xbc3e6bb3	-0.011622357
38	0x3d9b9bd7	0.075980835
39	0xbaa22e45	-0.0012373409
40	0xbd671084	-0.056412235
41	0x3c1a76e8	0.0094277635
42	0xbd11fc27	-0.03564086
43	0x3ce6461a	0.028109599
44	0xbd69db85	-0.057094116
45	0xbd4bdbb7	-0.049770083
46	0xbd45ce5f	-0.048292514
47	0x3d1ef3c2	0.038806684
48	0x3d91b41f	0.071144335
49	0xbd72c1d0	-0.059266865
50	0xbd0691a0	-0.032853723
51	0xbd32f1a3	-0.043687474
52	0x3d8c5b93	0.06853404
53	0x3da85fdf	0.08221411
54	0x3db95afb	0.09050556
55	0x3b5c861c	0.0033649271
56	0xbd0814d7	-0.033223
57	0x3d5fe2c9	0.05465964
58	0xbc7eb02a	-0.0155449305
59	0xbc4a95fc	-0.012364861
60	0x3d8ed6b7	0.06974547
61	0xbcd45fd9	-0.02592461
62	0xbc5114b6	-0.0127612855
63	0x3ca5b647	0.020228518
64	0xbd8c7227	-0.0685771
65	0x3d2b6cc4	0.041851774
66	0x3ba80245	0.0051272237
67	0x3dc4fcd7	0.09618538
68	0x3cc70c36	0.024297815
69	0xbb299437	-0.0025875696
70	0x3d389ad5	0.045069534
71	0xbc02749a	-0.00796237
72	0xbd8cef46	-0.06881575
73	0xbd9e0112	-0.07715048
74	0x3c2592bf	0.010105788
75	0x3ab4c28f	0.0013790893
76	0x3dd925ea	0.10602935
77	0x3dacdca6	0.08440523
78	0xbc0fb728	-0.008771695
79	0x3cbf5fb2	0.02336106
80	0x3db71162	0.089388624
81	0xbcaaa6ab	-0.020831427
82	0x3c994a7b	0.018712273
83	0xbd31293a	-0.043252207
84	0x3c1b4339	0.009476476
85	0x3c5bc7b5	0.013414313
86	0xbd60a4bd	-0.054844607
87	0xbd93991e	-0.07206939
88	0xbdaa7ec6	-0.08324961
89	0x3c06bf85	0.008224373
90	0xbd4c8228	-0.049928814
91	0xbbe6a1fb	-0.0070383525
92	0xbd1453d4	-0.036212757
93	0xbc0517a6	-0.008123314
94	0x3d7052c7	0.058672693
95	0x3dd5fc53	0.10448518
96	0x3c115515	0.008870383
97	0x3d534a6e	0.051584654
98	0x3d2f7448	0.042835504
99	0xbd72b409	-0.059253726
100	0x3d97b9a0	0.07408452
101	0xbd73c7fb	-0.059516888
102	0xbda8daa1	-0.08244825
103	0x3c425cb8	0.011862926
104	0x3d035c58	0.032070488
105	0xbd3bcc0b	-0.045848887
106	0x3d7e78aa	0.062126793
107	0x3dada566	0.08478813
108	0x3db300e5	0.08740405
109	0xbcc84429	-0.024446564
110	0x3d4cb0b6	0.049973212
111	0xbd42420b	-0.047426265
112	0x3c873ebe	0.01650941
113	0x3d8666a9	0.065625496
114	0x3d44384b	0.047905248
115	0xbd540288	-0.051760226
116	0xbc0d9fae	-0.008644028
117	0x3d02ecc5	0.031964082
118	0x3da9eb97	0.08296888
119	0x3d8c59be	0.068530545
120	0xbd977e1a	-0.07397099
121	0x3d8b8f66	0.068144605
122	0xbd9df8b4	-0.07713452
123	0x3cb9bc47	0.022672785
124	0x3d6b51f5	0.057451207
125	0x3d8f8712	0.070081845
126	0xbd6ab8bb	-0.05730508
127	0xbd3be33f	-0.045871016
128	0x3da0d25d	0.078526236
129	0xbdb5dcf6	-0.088800356
130	0xbc4ce456	-0.012505611
131	0xbd356ef8	-0.04429528
132	0xbd9f84a9	-0.07788975
133	0x3d6bf529	0.05760685
134	0xbd2165f6	-0.03940388
135	0xb9776fbd	-0.00023597381
136	0x3d233227	0.03984275
137	0xbd0cebc0	-0.034404516
138	0x3d8b6900	0.068071365
139	0xbce87fed	-0.028381312
140	0xbde7eb9d	-0.113242365
141	0xbbc992bd	-0.006151526
142	0xbc9d73a3	-0.019220179
143	0xbcfba1f3	-0.030716872
144	0x3dd40e25	0.1035426
145	0xbdc3d68d	-0.09562407
146	0xbda84ab8	-0.082173765
147	0xbd69eb63	-0.057109248
148	0xbd1b7c88	-0.03796056
149	0xbd0492e0	-0.032366633
150	0xbd6fb85d	-0.058525432
151	0x3d963589	0.0733443
152	0xbdfa5f89	-0.12225253
153	0x3cd40436	0.025880914
154	0xbc3a304c	-0.011364054
155	0x3db3787f	0.08763217
156	0x3d0d5144	0.03450133
157	0x3ad83ca9	0.001649757
158	0x3d7e3007	0.06205752
159	0xbd202620	-0.03909886
160	0x3d6a9fa0	0.057281137
161	0xbcbbb00f	-0.0229111
162	0x3d89eeb5	0.06734983
163	0xbd188b1e	-0.037242047
164	0xbcefd613	-0.029276883
165	0xbcddc5fd	-0.027071947
166	0xbd0f64fa	-0.035008408
167	0xbd975417	-0.07389086
168	0x3be87cb9	0.007094946
169	0xbdffd43e	-0.12491654
170	0x3d1b34c5	0.03789212
171	0x3d7cbf2e	0.06170576
172	0xbd9708ba	-0.07374711
173	0xbd1f614b	-0.038911145
174	0xbbc04fe8	-0.0058689006
175	0xbd70432d	-0.058657814
176	0xbd148160	-0.036256194
177	0xbd1e46e4	-0.038641825
178	0x3da58f0b	0.08083924
179	0x3b7f7424	0.0038979137
180	0x3d55f485	0.052235145
181	0xbc976e7d	-0.018485302
182	0x3d38b7c5	0.04509713
183	0xba602405	-0.0008550289
184	0xbd1d7e06	-0.038450263
185	0xbd8905d2	-0.06690563
186	0xbd371f98	-0.044707865
187	0x3d19368a	0.037405528
188	0xbd94d582	-0.07267286
189	0x3ce1c398	0.027559087
190	0x3d2e5724	0.042563573
191	0xbd35622d	-0.04428308
192	0xbbbefcf1	-0.005828493
193	0xbb4116c0	-0.0029463023
194	0xbd916438	-0.07099193
195	0xbb6ed3fb	-0.0036442268
196	0xbd982d2f	-0.07430493
197	0x3c696e79	0.01424753
198	0xbd9ffb35	-0.07811586
199	0x3c0ee3c0	0.008721292
200	0x3cedd092	0.029030118
201	0xbd12ac88	-0.03580907
202	0x3d999af4	0.07500258
203	0x3da9fda1	0.08300329
204	0x3ccd20a2	0.025039975
205	0xbd30baf7	-0.043147054
206	0xbd7a6229	-0.06112877
207	0x3dd827a9	0.105544396
208	0xbcadf4ef	-0.021234958
209	0x3db63376	0.08896534
210	0xbdbadf60	-0.09124637
211	0xbc65cf19	-0.014026427
212	0x3d87626e	0.06610571
213	0x3bb5fb76	0.005553658
214	0x3d8b3591	0.06797326
215	0xbc8a439a	-0.016877938
216	0xbd416340	-0.047213793
217	0x3c8cff1e	0.017211493
218	0x3c3c509f	0.011493831
219	0xbdb23238	-0.08700985
220	0xbdda8d2e	-0.10671459
221	0xbd31020e	-0.04321485
222	0xbd42021d	-0.047365297
223	0x3bfc47f5	0.0076990076
224	0x3d7e3f34	0.062071994
225	0x3ba713d8	0.005098801
226	0x3ce648f0	0.028110951
227	0xbc5101e8	-0.012756802
228	0xbc5c0d4a	-0.013430903
229	0x3c9b31e2	0.018944684
230	0xbd557a87	-0.052118804
231	0xbd4d3945	-0.050103445
232	0xbd4647d9	-0.048408363
233	0xbd93503b	-0.07193037
234	0x3d67720e	0.056505255
235	0x3cdb87b1	0.026798101
236	0xbdd8c086	-0.10583596
237	0x3dbad8ec	0.09123406
238	0xbc8d65cb	-0.017260453
239	0xbdb58ba8	-0.08864528
240	0x3cbce502	0.023058418
241	0x3d6fd597	0.058553305
242	0x3c907f24	0.01763875
243	0x3c1da4cf	0.009621813
244	0xbce649e4	-0.028111406
245	0x3d83e356	0.06439845
246	0xbc5a8f59	-0.013339841
247	0xbd8a9774	-0.06767169
248	0x3da86876	0.08223049
249	0x3dc3d2b5	0.095616736
250	0x3cda41a4	0.026642628
251	0x3d37b1c1	0.044847254
252	0xbcc2f488	-0.023798242
253	0xbdc1f7d5	-0.09471098
254	0xbca8151b	-0.020517876
255	0xbd746ca2	-0.059673913

hidden_layers.0.0.bias f4 [128]
0	0x3c150349	0.0090950215
1	0xbd944ea3	-0.07241561
2	0xbcb3548a	-0.021890897
3	0x3cd88fcf	0.02643576
4	0xbdace74f	-0.08442556
5	0xbc8f2c8f	-0.017477302
6	0xbd9adae8	-0.07561284
7	0xbd22fa67	-0.039789584
8	0x3d8a24e9	0.06745321
9	0x3db92ef1	0.090421565
10	0x3d6972ea	0.056994356
11	0x3b428f24	0.002968737
12	0xbc754172	-0.014969217
13	0x3d24a08f	0.040192183
14	0xbcae54eb	-0.021280726
15	0xbcf707be	-0.030155059
16	0x3dd5cbc4	0.10439256
17	0x3e04626b	0.12928168
18	0xbd700824	-0.058601514
19	0x3d978ae1	0.07399536
20	0xbc8e56c2	-0.017375354
21	0x3d7da54c	0.061925218
22	0x3c0dba01	0.008650304
23	0xbc1f361b	-0.00971749
24	0x3db48368	0.08814126
25	0x3b280165	0.0025635597
26	0x3d6e7665	0.05821838
27	0x3d6590b8	0.056046218
28	0xbc08df4f	-0.008354022
29	0xbcfaa9d8	-0.030598566
30	0x3e19768c	0.14986628
31	0xbd584d15	-0.052807886
32	0xbd9b61a8	-0.07586986
33	0xbc78d1ef	-0.015186771
34	0x3b9241a3	0.004463391
35	0x3d374d01	0.04475117
36	0xba2adbde	-0.0006517748
37	0xbca6a215	-0.020340959
38	0x3d49675a	0.04917083
39	0x3f14328f	0.57889646
40	0xbbc16223	-0.0059015914
41	0x3ca7d4b8	0.020487174
42	0x3d4baa31	0.049722854
43	0x3d288622	0.041143544
44	0x3d964ef5	0.073392786
45	0xbd88d39a	-0.06680985
46	0xbe0e2bd7	-0.13883911
47	0x3c920b65	0.017827699
48	0x3d7852c7	0.060625818
49	0x3daf8112	0.0856954
50	0xbdc4306b	-0.095795475
51	0x3dc7abcb	0.09749564
52	0x3dba946f	0.09110343
53	0xbd74e1ed	-0.059785772
54	0x3a77472d	0.0009432908
55	0xbd8a0499	-0.06739158
56	0x3d21941a	0.03944788
57	0x3cf0f082	0.029411558
58	0x3c2210cd	0.009891701
59	0xbd069a1d	-0.032861818
60	0xbd98e218	-0.07464999
61	0x3daa261c	0.0830805
62	0x3a97869a	0.00115605
63	0x3d881c79	0.06646056
64	0xbd79bac1	-0.060969118
65	0x3d878e3f	0.06618928
66	0x3da03e98	0.07824439
67	0xbd9813cb	-0.0742565
68	0xbe8e33a1	-0.27773765
69	0xbc885d4b	-0.016646048
70	0xbc724895	-0.014787813
71	0xbd8223c3	-0.06354477
72	0xbe007464	-0.125444
73	0xbda777ff	-0.08177184
74	0xbd6a46dc	-0.057196483
75	0xbd5f85d7	-0.054571
76	0xbd3dc119	-0.04632673
77	0x3ccfa8da	0.02534907
78	0x3da28499	0.07935447
79	0xbd6b4f99	-0.057448957
80	0xbbeb92db	-0.0071891374
81	0x3d286440	0.04111123
82	0x3db1f73d	0.08689735
83	0xbe0f2808	-0.13980114
84	0x3d0e3280	0.03471613
85	0xbdab5d71	-0.08367432
86	0x3b840adb	0.0040296144
87	0x3db43a5e	0.08800195
88	0xbd0f2feb	-0.034957808
89	0x3c23a5b0	0.009988233
90	0xbd8e9fd4	-0.069640785
91	0x3d9ec327	0.07752066
92	0xbdb3364d	-0.087505914
93	0x3c916d99	0.017752456
94	0x3d790a94	0.060801104
95	0x3d170cc4	0.03687741
96	0x3d556e59	0.05210719
97	0xbd31998f	-0.043359336
98	0xbd84da8e	-0.064869985
99	0x3d907ff4	0.07055655
100	0xbd8e9dbd	-0.0696368
101	0xbda68f89	-0.08132846
102	0xbcf20201	-0.029541971
103	0x3d472d56	0.04862722
104	0xbd843fc0	-0.06457472
105	0x3bd59a80	0.006518662
106	0x3dd31372	0.10306443
107	0x3c7f906f	0.0155984005
108	0x3dab0286	0.08350091
109	0xbbd5abf7	-0.006520744
110	0x3c783699	0.015149736
111	0x3d80819c	0.06274721
112	0x3ac006de	0.0014650484
113	0xbbdecf0b	-0.006799584
114	0xbdadc8ee	-0.0848559
115	0x3d382c3f	0.04496407
116	0x3d4f75df	0.05064952
117	0xbdc8b3d2	-0.09799923
118	0x3d4e0d31	0.05030555
119	0x3cea899a	0.028630067
120	0x3dc3aad5	0.09554068
121	0x3d8f3b01	0.06993676
122	0xbc210493	-0.009827751
123	0x3dbac212	0.09119047
124	0xbd7d1681	-0.06178904
125	0xbd1c5716	-0.03816899
126	0x3aac273f	0.0013134255
127	0x3dd0fcdb	0.10204478

output_layer.weight f4 [1, 128]
0	0xbd952476	-0.07282345
1	0x3d69380a	0.05693821
2	0x3dbdcbf7	0.09267419
3	0xbcad01ff	-0.021119116
4	0x3dbe9fb6	0.09307806
5	0xbe0ec4f9	-0.13942327
6	0x3d1e83f5	0.038700063
7	0x3d4aa1ed	0.04947083
8	0xbd487802	-0.048942573
9	0x3deab9c1	0.11461211
10	0x3dd4e05a	0.10394354
11	0x3dca483b	0.09877058
12	0x3e1ae0bd	0.15124793
13	0xbdc0a3a1	-0.0940621
14	0x3d933338	0.071875036
15	0xbd7d501d	-0.06184398
16	0x3eef8b62	0.46786028
17	0xbe377863	-0.17917018
18	0x3e64aac4	0.22330767
19	0x3e104b06	0.14091119
20	0xbdb7a6c0	-0.08967352
21	0xbd8d0c01	-0.06887055
22	0xbd567ad7	-0.052363243
23	0x3d8bdc18	0.06829089
24	0xbd47ede0	-0.04881084
25	0xbdba8b38	-0.09108585
26	0x3d43d2cd	0.047808457
27	0x3dcbe7c2	0.09956314
28	0xbd97f0a9	-0.07418949
29	0xbe1332e6	-0.14374885
30	0xbe184b67	-0.14872514
31	0x3ed68fa6	0.4190647
32	0xbd12f582	-0.035878666
33	0x3c99d8d7	0.018780155
34	0xbdc0b2c1	-0.094090946
35	0x3dac0bdd	0.084007
36	0x3d9418e2	0.072313085
37	0x3d543bcc	0.05181484
38	0x3db51e16	0.08843629
39	0x3e94eb68	0.2908585
40	0x3db4c6c9	0.08826978
41	0xbd8d1bbb	-0.06890055
42	0xbe0031bb	-0.1251897
43	0xbd322e42	-0.043501146
44	0xbdd3161f	-0.10306954
45	0xbd50ee1d	-0.051008333
46	0x3e0da60c	0.13832873
47	0xbdf20020	-0.1181643
48	0xbda12d0f	-0.07869922
49	0x3d14a90f	0.03629404
50	0xbd1b4e7a	-0.037916638
51	0xbdf63136	-0.12021105
52	0x3dc16931	0.09443892
53	0xbdccd5a4	-0.10001686
54	0xbd835817	-0.06413286
55	0xbe708c29	-0.23490967
56	0x3d9ee151	0.077578194
57	0x3d981c9e	0.07427333
58	0x3df85188	0.12124926
59	0x3d2a5b28	0.04159084
60	0xbdb3e208	-0.087833464
61	0xbda0bec9	-0.078488894
62	0x3e0b24a3	0.13588195
63	0x3e49b237	0.1969689
64	0xbe045740	-0.12923908
65	0xbd67fda0	-0.05663836
66	0x3dfce118	0.12347621
67	0xbe12db2e	-0.14341423
68	0xbf3eef23	-0.74583644
69	0x3e068ce6	0.13139686
70	0xbe0870d1	-0.13324286
71	0xbe13919d	-0.14411016
72	0x3deef98d	0.11668692
73	0x3d1f35a5	0.03886952
74	0xbdb5a06f	-0.08868491
75	0xbdcb1a68	-0.09917146
76	0xbdca8555	-0.09888712
77	0xbdae77cc	-0.08518943
78	0x3d7aacce	0.061199956
79	0xbd746ca2	-0.059673913
80	0x3dcd4ede	0.10024808
81	0x3d8a10cc	0.06741485
82	0x3d8850a4	0.06656006
83	0xbd8b6886	-0.06807046
84	0x3dfa3b6b	0.12218364
85	0x3cdf92f4	0.027291752
86	0x3dc33a79	0.09532637
87	0xbd87f365	-0.06638221
88	0x3cef0e73	0.029181695
89	0x3dcc6ac3	0.09981301
90	0x3db2ff9b	0.08740159
91	0x3d9a2bee	0.0752791
92	0x3e51b535	0.20479281
93	0xbdafad4e	-0.08577977
94	0x3d8cd77b	0.06877037
95	0x3c65c410	0.014023796
96	0xbd85d092	-0.06533922
97	0xbe0df5c0	-0.13863277
98	0xbe2bc899	-0.1677574
99	0xbd868417	-0.06568163
100	0xbe165ce6	-0.14683875
101	0xbdc5dcdc	-0.09661266
102	0x3d4fcf25	0.050734658
103	0xbdca4af0	-0.098775744
104	0x3d43e8a2	0.047829278
105	0xbdb57d16	-0.08861749
106	0x3ddeb091	0.10873521
107	0xbd8cdb62	-0.068777815
108	0x3de44ab6	0.111470625
109	0x3dcd1d30	0.10015333
110	0xbdf43d58	-0.11925763
111	0xbdcb4a63	-0.099262975
112	0x3d1c1666	0.0381073
113	0xbd2d9eea	-0.04238788
114	0x3d8c82c3	0.06860878
115	0xbdb5d2bc	-0.08878085
116	0x3d942253	0.07233109
117	0xbda65a12	-0.08122648
118	0x3ddb5411	0.10709394
119	0x3e469073	0.1939104
120	0x3d5d2a16	0.053995214
121	0x3e183636	0.1486443
122	0xbd967ab4	-0.073476225
123	0xbe34abf3	-0.17643718
124	0xbdb03216	-0.08603303
125	0xbe1d3442	-0.15351966
126	0xbca40a8e	-0.020024564
127	0x3e0679af	0.13132356
