pytorch/Laplace_eq_outputs/model_lr_0_layers_2_lambda_1.pt (torch, 71258 bytes, 5 tensors)

input_layer.0.weight f4 [128, 2]
0	0xbc04c4c9	-0.008103558
1	0xbf5db3ac	-0.8660228
2	0xbd81aaa0	-0.06331372
3	0x3ef0a9cd	0.47004548
4	0x3d846cc9	0.064660616
5	0x3ea45a0c	0.3209995
6	0x3d8200ed	0.06347833
7	0xbf33d007	-0.702393
8	0x3f170d15	0.59004337
9	0x3f1004e0	0.5625744
10	0x3ed10eec	0.40831697
11	0x3e2c1c1e	0.16807601
12	0xbe65d07b	-0.2244281
13	0x3ee92305	0.4553453
14	0xbedbf136	-0.42957467
15	0x3cb256d1	0.021769913
16	0xbd839215	-0.06424347
17	0xbf2ba304	-0.6704562
18	0xbeabab58	-0.33529162
19	0x3e81c9a3	0.2534915
20	0x3f13d3ba	0.57744944
21	0x3f32137a	0.6956097
22	0xbdcbbfc4	-0.09948686
23	0xbf1c2c33	-0.6100494
24	0xbf4bb878	-0.7957835
25	0x3f57d7c3	0.843136
26	0xbf8cd32f	-1.1001948
27	0x3ee5e80c	0.449036
28	0x3e2f1d86	0.17101106
29	0xbee2019a	-0.44141847
30	0x3efee8bc	0.49786937
31	0xbe33ef02	-0.17571643
32	0xbf4a5aec	-0.79044986
33	0x3e94798c	0.28998983
34	0xbe080b00	-0.13285446
35	0x3f225cdf	0.6342296
36	0xbe2290b6	-0.15875515
37	0xbf4acba1	-0.79216963
38	0xbf485ec5	-0.78269607
39	0xbf4daf73	-0.8034584
40	0xbe89fe20	-0.26951694
41	0xbf641573	-0.8909523
42	0xbe27ff31	-0.16405942
43	0xbeca24eb	-0.3948129
44	0x3f5e7499	0.86896664
45	0xbf58b279	-0.8464733
46	0xbf3c4337	-0.7354006
47	0x3e0b59b9	0.13608445
48	0xbd782ac1	-0.06058765
49	0xbf0054dc	-0.50129485
50	0xbf92b02a	-1.1460011
51	0xbedfce57	-0.43712112
52	0x3ee85646	0.4537832
53	0xbeb23daf	-0.34812686
54	0xbee69e6a	-0.45042735
55	0x3e85c9bb	0.2613047
56	0xbf372d6f	-0.715537
57	0x3f34d6f8	0.70640516
58	0x3e3dab8d	0.18522473
59	0xbf431bb8	-0.7621417
60	0xbebb711a	-0.36609727
61	0x3e8e2286	0.27760714
62	0x3d0d036b	0.034427088
63	0x3eac249e	0.33621687
64	0xbeb70856	-0.35748547
65	0x3f123821	0.57116896
66	0x3f1b30a5	0.606211
67	0xbf36f3fb	-0.71466035
68	0x3f363118	0.7116866
69	0xbe88d6e7	-0.26726457
70	0x3f17a334	0.59233403
71	0xbf05b935	-0.5223573
72	0x3cd4e325	0.025987217
73	0x3eddcfe4	0.4332267
74	0x3ec7a21e	0.38990873
75	0x3e00c2ba	0.12574282
76	0xbf36d311	-0.7141581
77	0x3f39546c	0.7239444
78	0xbf56e350	-0.839406
79	0x3f207738	0.62681913
80	0x3f14f820	0.5819111
81	0xbe47acfe	-0.19499585
82	0xbeb808d9	-0.3594425
83	0xbe5d818e	-0.21631452
84	0xbdce6772	-0.100783244
85	0x3f61e6bb	0.8824269
86	0x3e048265	0.12940367
87	0x3e1ac88f	0.1511557
88	0x3f00ba87	0.5028462
89	0x3f28a006	0.65869176
90	0x3dfbb95d	0.122912146
91	0x3f16980a	0.58825743
92	0xbf11f8b3	-0.5702011
93	0x3d458da1	0.04823077
94	0xbf4ea6b1	-0.807231
95	0x3eb17c25	0.34665027
96	0xbe6c63e9	-0.23084988
97	0x3f345a1a	0.70449984
98	0x3eac6efe	0.3367843
99	0xbf4097a0	-0.7523136
100	0x3f0b186c	0.5433414
101	0xbf30ae80	-0.69016266
102	0xbf89cf5f	-1.076641
103	0xbf0896ec	-0.5335529
104	0xbf58fef1	-0.8476401
105	0x3f4d4f5c	0.8019922
106	0xbee0dc36	-0.43918008
107	0x3f061c8d	0.52387315
108	0x3cd65092	0.026161466
109	0xbf3a74dc	-0.72834563
110	0x3deaf316	0.11472146
111	0xbeff9db9	-0.4992502
112	0xbf34aa6d	-0.7057255
113	0xbedbfb5c	-0.4296521
114	0xbf6f7112	-0.93531907
115	0x3c7155db	0.014729942
116	0x3d0d4ca4	0.03449692
117	0x3f3cbd2e	0.73726165
118	0xbf7748cf	-0.9659547
119	0x3f1b4b13	0.6066143
120	0xbe2a6cff	-0.16643141
121	0x3f36d3ac	0.71416736
122	0xbe3297e5	-0.17440756
123	0x3f527405	0.8220828
124	0x3d771070	0.06031841
125	0x3ebf3ea6	0.37352484
126	0x3e48f3e7	0.19624291
127	0x3eaf9916	0.34296483
128	0xbe02b421	-0.12764026
129	0xbf636775	-0.8882974
130	0xbe0a8d39	-0.13530435
131	0x3f424b4a	0.7589613
132	0x3f35733f	0.70878977
133	0xbd6b9ff2	-0.057525583
134	0xbd7729ca	-0.060342588
135	0x3f37e804	0.718384
136	0x3f2a3871	0.6649237
137	0xbf005133	-0.501239
138	0x3d7865d5	0.06064399
139	0x3f3aa243	0.7290384
140	0x3d44d39b	0.048053365
141	0x3ef3d03f	0.47619817
142	0x3eec1dfa	0.4611662
143	0xbef5a3f6	-0.47976655
144	0xbee857f5	-0.45379606
145	0x3f408097	0.7519621
146	0x3f3a6047	0.7280316
147	0x3e9a7a4e	0.30171436
148	0xbd6cda90	-0.057825625
149	0xbf450548	-0.76961184
150	0x3f03e860	0.5152645
151	0x3ee952a6	0.45570868
152	0x3e8904da	0.26761514
153	0xbf2f6e4d	-0.6852768
154	0xbf55982f	-0.8343534
155	0x3f4ec1b0	0.80764294
156	0x3f06e89b	0.5269868
157	0x3d07b6ef	0.033133443
158	0x3f00ed30	0.5036192
159	0x3ed49d76	0.41526383
160	0x3e8af36f	0.2713885
161	0x3f05f2e7	0.52323765
162	0xbf2b0a3e	-0.66812503
163	0x3eece98b	0.4627193
164	0x3f1178fc	0.5682523
165	0xbe01307b	-0.1261615
166	0xbf14dccc	-0.5814941
167	0x3dea4a80	0.11439991
168	0x3dc84438	0.09778637
169	0xbf7a59e5	-0.9779342
170	0x3eb46111	0.35230306
171	0xbf1a48c2	-0.6026727
172	0xbcbee0dd	-0.023300583
173	0x3f59dd94	0.85103726
174	0xbef103ae	-0.4707312
175	0xbf0d5417	-0.55206436
176	0xbe3ba04f	-0.18322872
177	0x3eeaf675	0.45891157
178	0x3f0ff8cd	0.56239015
179	0x3f0b983b	0.5452916
180	0x3df81732	0.12113799
181	0x3f349459	0.7053886
182	0x3f725320	0.9465809
183	0xbf600608	-0.875092
184	0xbf23fb2a	-0.6405512
185	0x3eb43bda	0.35201913
186	0x3f06a3a0	0.5259342
187	0x3eb30875	0.3496739
188	0x3e86c949	0.26325443
189	0xbe7b5bbe	-0.24546716
190	0x3f5e84b4	0.8692124
191	0xbeb33043	-0.34997758
192	0x3d8efca7	0.06981783
193	0x3f4c5bc3	0.7982752
194	0x3f3d349e	0.7390841
195	0xbd3c6408	-0.045993835
196	0x3e6bfaa7	0.23044835
197	0x3e95533c	0.29165065
198	0xbf22bc48	-0.63568544
199	0xbd5f798c	-0.054559276
200	0x3f6215d6	0.8831457
201	0xbf5f8ade	-0.8732127
202	0x3f465d06	0.7748569
203	0x3f32e76a	0.6988436
204	0x3d8689dd	0.06569264
205	0x3f50d291	0.815713
206	0x3edde770	0.43340635
207	0xbf085194	-0.5324948
208	0xbf34dd53	-0.70650214
209	0x3efd90f6	0.4952466
210	0xbf08fbb5	-0.53509074
211	0xbdedd3c3	-0.11612656
212	0x3de6b612	0.11265196
213	0x3f682253	0.90677375
214	0x3e2dfdcf	0.16991352
215	0x3cf3bc9a	0.029753018
216	0xbe0d84de	-0.13820216
217	0xbea6628a	-0.32497054
218	0xbf6e0e4f	-0.92990583
219	0x3f3df528	0.74202204
220	0x3e3eb6fd	0.18624492
221	0xbf279651	-0.6546374
222	0x3cf40b96	0.02979068
223	0xbf26a73b	-0.65098923
224	0xbebb16bb	-0.3654078
225	0x3f128302	0.5723115
226	0xbf3b2a3a	-0.7311131
227	0x3f564a07	0.83706707
228	0xbe920590	-0.2851987
229	0x3f179438	0.5921054
230	0x3f7bfa70	0.9842901
231	0xbf30b431	-0.6902495
232	0x3d77bc1a	0.060482122
233	0x3f3f2917	0.74672073
234	0xbe9412fb	-0.2892073
235	0xbf222ce9	-0.6334978
236	0x3f686060	0.90772057
237	0x3e4ad5ac	0.19808072
238	0x3e9de65b	0.3083981
239	0x3e2afd82	0.16698268
240	0xbcb0df88	-0.021590963
241	0xbf318c0c	-0.6935432
242	0x3eba5210	0.36390734
243	0xbeebb916	-0.46039647
244	0x3f34ba4b	0.7059676
245	0xbf1c52ab	-0.6106364
246	0xbe7582c8	-0.2397567
247	0x3f0e5ac4	0.5560725
248	0xbf195544	-0.5989573
249	0xbf3100bd	-0.6914175
250	0x3e80509a	0.25061494
251	0xbf4b5b9e	-0.7943667
252	0xbf1fd66f	-0.62436575
253	0xbf4bbce3	-0.79585093
254	0xbdcff199	-0.10153503
255	0xbf2e6715	-0.6812604

input_layer.0.bias f4 [128]
0	0x3f65873b	0.8965947
1	0x3efae70b	0.49004397
2	0x3f17c96a	0.5929171
3	0x3ecb6e9f	0.39732835
4	0xbf042e53	-0.51633185
5	0x3d9929d1	0.07478679
6	0x3cbb00f7	0.022827609
7	0x3ec73677	0.3890874
8	0x3f34f9f5	0.70693904
9	0x3f2e306d	0.6804264
10	0xbef6a870	-0.48175383
11	0x3f1cb1b1	0.61208636
12	0xbe50e75f	-0.20400761
13	0x3f44c6d6	0.768659
14	0x3e9f3795	0.31097093
15	0xbf55d799	-0.835321
16	0xbe391e6e	-0.18078014
17	0x3f0e260d	0.5552681
18	0x3f2799f5	0.65469295
19	0x3e280b0c	0.16410464
20	0x3dfa5d0e	0.1222478
21	0xbefede85	-0.49779144
22	0x3e1abc04	0.15110785
23	0xbf2f9a34	-0.6859467
24	0xbef98136	-0.48731393
25	0x3f8eeca4	1.1165967
26	0x3eae818b	0.34083208
27	0xbeff9387	-0.49917242
28	0x3e835e33	0.25657806
29	0x3f143ed9	0.579084
30	0x3f35a436	0.7095369
31	0x3f2313a8	0.6370187
32	0xbec1da4b	-0.37861857
33	0x3e90a2a5	0.28249088
34	0x3f40c201	0.75296026
35	0x3eaf3f4b	0.34227976
36	0xbf5b8d74	-0.85762715
37	0x3f4b3ccb	0.7938964
38	0xbdef5aa9	-0.11687214
39	0x3ee80ac7	0.45320722
40	0xbe6c6402	-0.23085025
41	0x3d1bb7b1	0.03801698
42	0x3f56fe11	0.83981425
43	0x3f040fa5	0.5158637
44	0xbf0c07e3	-0.54699534
45	0xbf3b6c43	-0.7321207
46	0xbf3fc2db	-0.749067
47	0x3f3db6bd	0.7410696
48	0xbed3a1a6	-0.41334265
49	0x3f059673	0.5218269
50	0x3e7de79d	0.24795385
51	0xbeac11cd	-0.3360733
52	0x3d343476	0.043995343
53	0xbe92b1fc	-0.28651416
54	0xbf3245fd	-0.69638044
55	0xbe93acb4	-0.288427
56	0xbe2ec280	-0.17066383
57	0xbe99b90d	-0.30023995
58	0xbf450f1c	-0.7697618
59	0x3ec7b806	0.39007586
60	0x3f1343fc	0.5752561
61	0x3f35cfd5	0.7102025
62	0xbe3603ea	-0.1777493
63	0x3f4fc196	0.81154764
64	0x3e1c4c8a	0.15263572
65	0xbf05186a	-0.5199038
66	0xbf5b9908	-0.8578038
67	0xbe6878e3	-0.22702365
68	0x3f3c71cb	0.73611134
69	0x3f29c798	0.6632018
70	0xbe38ec12	-0.18058804
71	0x3eb762df	0.3581762
72	0xbeb77c9e	-0.35837263
73	0x3e3dcaae	0.18534347
74	0x3f3de757	0.7418112
75	0xbda691d2	-0.08133282
76	0x3edc9c29	0.4308789
77	0x3d9a9a6f	0.07548987
78	0xbf1684ee	-0.58796585
79	0x3ec9a2c7	0.39382002
80	0xbf60bb6e	-0.87785995
81	0xbf1a2d94	-0.60225797
82	0xbf19b912	-0.6004802
83	0xbf02c490	-0.5108118
84	0xbf87d3dc	-1.0611529
85	0xbf1f73cd	-0.6228607
86	0xbf54b578	-0.830894
87	0x3ea9a9b0	0.33137274
88	0xbe2b6483	-0.16737561
89	0x3ed513bd	0.41616622
90	0xbf556c60	-0.8336849
91	0xbd998095	-0.07495228
92	0x3e7491bb	0.23883717
93	0xbf04b2c0	-0.5183525
94	0xbf7fcc62	-0.9992124
95	0x3f625a86	0.8841938
96	0xbe8eedcf	-0.2791581
97	0x3f5e540b	0.8684699
98	0xbf2e57c5	-0.68102676
99	0x3e1dea9e	0.1542153
100	0xbd42c199	-0.04754791
101	0x3e9a8628	0.30180478
102	0x3f53b9a6	0.8270515
103	0x3d529883	0.051414978
104	0x3e85f2cd	0.26161805
105	0x3ed139e6	0.40864486
106	0x3b90eb8d	0.004422611
107	0x3f026ad8	0.5094428
108	0x3eaf14ff	0.34195706
109	0x3e8926ce	0.26787418
110	0x3ef0f7a6	0.4706394
111	0x3f3b66e2	0.7320386
112	0xbd342b77	-0.043986764
113	0xbe3dfc74	-0.18553334
114	0xbf2df36e	-0.6794957
115	0xbf42605a	-0.7592827
116	0xbf4382d7	-0.7637152
117	0xbf1a7137	-0.60329
118	0x3e829def	0.2551112
119	0x3f38fe84	0.7226336
120	0x3f59ed5a	0.85127795
121	0xbf27c8be	-0.65540683
122	0x3d30d12b	0.043168228
123	0x3efc466f	0.49272487
124	0x3e9d3e61	0.30711654
125	0x3f43a2cb	0.7642028
126	0x3f19d68a	0.60092986
127	0x3f087c6b	0.53314847

hidden_layers.0.0.weight f4 [128, 128]
0	0xbc74ea3f	-0.014948427
1	0x3d1242ba	0.035708167
2	0x3de0f23c	0.109837025
3	0x3d182ebd	0.037153948
4	0x3ccb3612	0.024806056
5	0x3d5c38f1	0.05376524
6	0x3cce4516	0.025179427
7	0x3ca578c1	0.020199182
8	0xbd1e5333	-0.038653564
9	0xbc960052	-0.0183107
10	0x3da9fd3c	0.08300254
11	0x3ce1864c	0.027529858
12	0xbd4ff54a	-0.050771035
13	0xbd4fbd50	-0.05071765
14	0x3d8e2658	0.06940907
15	0x3ca54ea1	0.020179095
16	0x3d8fe91c	0.07026884
17	0x3d0aa268	0.03384629
18	0xbde4e08c	-0.111756414
19	0xbe469617	-0.19393192
20	0xbc40acb1	-0.011759923
21	0xbd5418ab	-0.051781338
22	0x3d9ee662	0.07758786
23	0xbce6d606	-0.028178226
24	0xbd9ab25a	-0.07553549
25	0x3c48cc32	0.012255715
26	0xbd927cf6	-0.07152741
27	0xbd018d31	-0.03162879
28	0xbcc66212	-0.024216685
29	0xbd96b339	-0.07358403
30	0xbae8ac28	-0.0017751502
31	0x3cf17ead	0.029479349
32	0xbd0fc715	-0.03510197
33	0x3cc08fdf	0.023506103
34	0x3bf6d46d	0.0075326473
35	0x3d058b27	0.03260341
36	0x3d1feef8	0.039046258
37	0x3d94f54f	0.072733514
38	0x3dda2bfc	0.106529206
39	0x3d094b64	0.033519164
40	0xbd6d9c5e	-0.05801045
41	0xbe0edd64	-0.13951641
42	0xbcb42bdb	-0.021993568
43	0x3bf94de1	0.007608161
44	0xbc1d5420	-0.0096025765
45	0xbd00c0bd	-0.03143381
46	0xbb673bff	-0.0035283563
47	0x3d968715	0.073499836
48	0xbc4a2d83	-0.012339952
49	0xbd8dfae0	-0.06932616
50	0xbc8be824	-0.017078467
51	0xbd1706be	-0.036871664
52	0xbcf23eba	-0.029570926
53	0xbcd0bc50	-0.02548042
54	0xbd72ac1b	-0.059246164
55	0xbce4a15e	-0.027908977
56	0x3c7814e3	0.0151416985
57	0xbd246018	-0.040130705
58	0xbd8b3e1c	-0.06798956
59	0x3b888126	0.0041657863
60	0xbcc25082	-0.02372003
61	0x3d1390bf	0.036026713
62	0x3d8af5ad	0.0678514
63	0x3d1a72dc	0.037707195
64	0x3d1952c0	0.037432432
65	0x3cd6a381	0.026201012
66	0xbcafa19c	-0.021439366
67	0xbd299d6a	-0.041409887
68	0x3d21530b	0.039385837
69	0x3cbb6a69	0.022877889
70	0xbcef78ca	-0.029232401
71	0x3d572242	0.052522905
72	0x3cfe67ea	0.03105541
73	0x3da69a49	0.08134896
74	0xbd641940	-0.055688143
75	0x3d2152a4	0.039385453
76	0x3d85df07	0.0653668
77	0x3d876529	0.06611092
78	0xbd9cd395	-0.076575436
79	0x3c63fa7f	0.013914703
80	0x3d9aaabd	0.07552097
81	0xbd1d9809	-0.03847507
82	0x3cb800cc	0.022461317
83	0xbd5963b4	-0.0530736
84	0xbdae5cc1	-0.08513785
85	0x3d9269c2	0.07149078
86	0xbc0094aa	-0.007847944
87	0xbdcca8b2	-0.099931136
88	0x3b19513a	0.0023394362
89	0xbc8b84f2	-0.017031167
90	0x3cc7b21e	0.024376925
91	0xbd9332b2	-0.07187404
92	0x3c7cdf91	0.015434162
93	0x3de448a8	0.111466706
94	0xbdad376e	-0.08457838
95	0x3d89acd5	0.06722418
96	0x3d186148	0.03720215
97	0x3da994c9	0.08280332
98	0x3d52020b	0.05127148
99	0xbdbec54f	-0.093149774
100	0xbd906453	-0.07050385
101	0x3dceba21	0.10094095
102	0x3c0647e0	0.008195847
103	0xbdcf3dbf	-0.10119199
104	0xbd16cf17	-0.03681859
105	0xbcc14f99	-0.023597525
106	0xbda8e576	-0.08246891
107	0xbc59f22e	-0.013302369
108	0xbdcde30e	-0.10053073
109	0x3d6e1ef7	0.058135
110	0xbd46700e	-0.048446707
111	0x3d31f2ac	0.04344432
112	0x3d090f7a	0.033462025
113	0xbcc3c0d1	-0.023895653
114	0xba7f8188	-0.00097467797
115	0xbd31eb38	-0.043437213
116	0x3db7b0c2	0.08969261
117	0xbc04d97f	-0.008108496
118	0x3c0a229c	0.008431103
119	0x3e153151	0.14569594
120	0xbc9fd05a	-0.01950853
121	0xbd62e076	-0.055389844
122	0x3cb4fd99	0.022093581
123	0x3dc0c970	0.09413421
124	0xbdc25bb1	-0.09490145
125	0x3d2cde7f	0.042204376
126	0xbd436299	-0.047701452
127	0x3caf26b8	0.021380767
128	0x3d2f3eed	0.04278462
129	0x3c86a64c	0.016436718
130	0xbd86d53b	-0.06583639
131	0x3bf0932c	0.007341763
132	0xbe085e66	-0.1331726
133	0xbe121b03	-0.14268117
134	0xbd84ad42	-0.06478359
135	0x3dab561e	0.08366035
136	0x3cfa0247	0.030518664
137	0xbcec42e2	-0.028840486
138	0xbdba987d	-0.09111116
139	0x3d04e9a0	0.032449365
140	0xbda62b80	-0.08113766
141	0xbddfcab3	-0.10927334
142	0xbd264d79	-0.040601227
143	0x3d820aed	0.0634974
144	0xbd60e754	-0.05490811
145	0x3bac1a1d	0.0052521364
146	0x3bc8cb24	0.006127732
147	0x3d3bdd67	0.045865443
148	0x3d4b8cf7	0.04969498
149	0x3dd98526	0.10621099
150	0x3dc11f5b	0.09429809
151	0x3da4ec09	0.08052833
152	0x3ab69920	0.0013931133
153	0xbbe2533f	-0.0069068964
154	0xbd8f1392	-0.069861546
155	0xbce35fdb	-0.027755668
156	0xbdd93220	-0.10605264
157	0xbc11ea21	-0.008905918
158	0x3c9bcfef	0.019020049
159	0x3c213a16	0.009840509
160	0xbd66e3ed	-0.05636971
161	0x3c8b3df5	0.016997317
162	0xbcec2ac2	-0.028828982
163	0xbc9e7080	-0.019340754
164	0x3dad4821	0.08461023
165	0xbd1776c7	-0.03697851
166	0xbdca87c0	-0.098891735
167	0xbd6c23d2	-0.05765135
168	0xbce1583b	-0.027507892
169	0x3dac64f1	0.084176905
170	0xbdd200d9	-0.10254068
171	0x3c074b42	0.008257689
172	0x3bb684ff	0.0055700536
173	0x3bca8c06	0.006181243
174	0x3cbc05d5	0.022952
175	0x3d5c8f0a	0.05384735
176	0x3d338104	0.04382421
177	0xbda307b1	-0.079604514
178	0x3d084cad	0.03327625
179	0x3cc5f5ed	0.024165118
180	0x3cd101d7	0.025513573
181	0x3cf35b32	0.029706571
182	0x3d3347a9	0.043769512
183	0x3e006695	0.12539132
184	0x3da89174	0.08230868
185	0xbcfe68ec	-0.03105589
186	0x3dabd305	0.08389858
187	0xbd06d424	-0.032917157
188	0xb948d04e	-0.00019151086
189	0xbdd2791f	-0.10277008
190	0x3bf9dfbc	0.007625548
191	0xbca17579	-0.019709336
192	0xbd8f53a5	-0.06998376
193	0xbc70ddc8	-0.014701314
194	0xbc7a2e42	-0.015269818
195	0xbd7e07ee	-0.06201928
196	0xbd2cd54b	-0.0421956
197	0xbdf992f5	-0.12186233
198	0x3c722429	0.014779129
199	0x3d00861c	0.031377897
200	0x3c6e762e	0.014554543
201	0xbe036606	-0.12831888
202	0xbc51950f	-0.012791886
203	0xbdc0be6c	-0.0941132
204	0x3d418986	0.047250293
205	0xbdbc3d56	-0.091913864
206	0x3cef84e9	0.029238181
207	0xbdf876f1	-0.12132061
208	0xbd0db5f4	-0.034597352
209	0xbc1b4e18	-0.009479068
210	0x3d4be8b5	0.049782474
211	0x3d0141b9	0.03155682
212	0x3d13920f	0.036027964
213	0xbd1a854c	-0.037724778
214	0x3d79c06e	0.06097453
215	0x3d46c1a3	0.04852451
216	0x3c986147	0.018601073
217	0x3c8a28cd	0.016865158
218	0xbd9e1ba6	-0.07720117
219	0xbb87400a	-0.004127507
220	0xbcbdbb3c	-0.02316057
221	0xbda7249b	-0.08161279
222	0xbdb7b245	-0.08969549
223	0xbe03dc3d	-0.12876983
224	0xbd25909f	-0.040421125
225	0xbde2ac9e	-0.1106808
226	0x3d5e16d7	0.054221
227	0x3e0c6a86	0.1371251
228	0xbcb96602	-0.022631649
229	0xbdb2811c	-0.08716032
230	0x3c8fbf19	0.017547177
231	0x3dc44b91	0.09584726
232	0x3d519525	0.051167626
233	0x3a82bb80	0.0009974092
234	0x3d763c2c	0.060115978
235	0xbddff159	-0.10934705
236	0x3df2b151	0.11850227
237	0x3c542d69	0.01295028
238	0x3d535684	0.05159618
239	0x3c14b207	0.009075648
240	0xbd4816c7	-0.048849847
241	0xbdbc3f02	-0.09191705
242	0x3da1df53	0.07903924
243	0x3df41d5e	0.11919664
244	0x3d78ed7e	0.060773365
245	0x3d23fa5a	0.040033676
246	0x3d5a4170	0.053285062
247	0xbe18ba00	-0.14914703
248	0x3b6babed	0.003596063
249	0x3d53cd28	0.051709324
250	0xbcf2fb65	-0.02966089
251	0x3d55e8c6	0.052223943
252	0x3c90ba6f	0.017667023
253	0xbd995fc2	-0.074889675
254	0x3dce0ffc	0.100616425
255	0x3dc77a72	0.097401515

hidden_layers.0.0.bias f4 [128]
0	0x3d4e6f66	0.050399207
1	0xbc0cb0dd	-0.008587089
2	0xbca32923	-0.019917076
3	0xbcddc892	-0.027073178
4	0x3dd9530d	0.10611544
5	0x3d3c4ed6	0.04597362
6	0x3dfa739b	0.12229081
7	0x3d412e32	0.047163196
8	0x3ebf5e2d	0.37376538
9	0xbd28873a	-0.041144587
10	0x3e1dbf0f	0.15404914
11	0x3cbc90f3	0.023018336
12	0x3d74820d	0.05969434
13	0x3d724d26	0.059155606
14	0x3d3e032c	0.046389744
15	0x3e0d18f4	0.1377905
16	0x3d920b7e	0.07131098
17	0xbc5bab5f	-0.013407557
18	0x3d72eded	0.059308935
19	0x3cbaa7e7	0.02278514
20	0xbe074137	-0.13208471
21	0xbe1d4003	-0.1535645
22	0x3d45abd6	0.04825958
23	0xbc782237	-0.015144876
24	0x3d110bb6	0.03541156
25	0x3cb11342	0.021615628
26	0x3c157104	0.009121183
27	0xbd8f50a7	-0.06997805
28	0x3d11eefe	0.03562831
29	0x3da591d6	0.080844566
30	0x3c7f1170	0.015568122
31	0x3cdf2210	0.027237922
32	0xbdd0ecc8	-0.102014124
33	0x3d6a594f	0.057214078
34	0x3ce872ee	0.028375115
35	0x3d3bc185	0.04583885
36	0xbd76ac0f	-0.06022268
37	0xbdb96d95	-0.09054104
38	0xbb8d6919	-0.004315507
39	0xbe22d873	-0.15902881
40	0xbe0d0b64	-0.13773876
41	0xbe14a5c6	-0.14516363
42	0xbdc9b2ae	-0.098485336
43	0xbbc30dc4	-0.0059525687
44	0xbd9cefa3	-0.076628946
45	0xbcd06bdc	-0.025442056
46	0x3ab65fdd	0.0013914068
47	0xbd64a9bd	-0.055825938
48	0x3d4d5837	0.050132956
49	0x3ca2c9d0	0.019871622
50	0x3d27beef	0.040953573
51	0x3dbe2a47	0.092854075
52	0xbbf67cf5	-0.0075222203
53	0xbbc9d9da	-0.006160003
54	0xbd252249	-0.0403159
55	0xbdd6f9c2	-0.10496856
56	0xbdf05cb2	-0.1173643
57	0xbe00961b	-0.1255726
58	0x3e9c39f5	0.30512968
59	0x3d3a04fc	0.04541491
60	0xbbe42aa6	-0.006963092
61	0x3d7cabc2	0.06168724
62	0xbd68a3af	-0.056796726
63	0x3e15efed	0.14642306
64	0x3d625691	0.055258337
65	0xbdab4af3	-0.08363905
66	0x3e0b5701	0.13607408
67	0x3d669a8a	0.056299724
68	0x3d011acf	0.031519707
69	0xbd373c7a	-0.04473541
70	0xbdcdd12e	-0.100496635
71	0x3d1da38d	0.038486052
72	0xbc67b8bf	-0.014143168
73	0xbc7db777	-0.015485636
74	0x3ca3eb22	0.020009581
75	0x3bb0a627	0.0053909007
76	0xbccfc45b	-0.025362184
77	0x3d461372	0.04835839
78	0xbd644ed4	-0.05573924
79	0xbd7dd0be	-0.06196665
80	0xbcba3555	-0.022730509
81	0x3d5f037a	0.054446675
82	0x3d6f3ff3	0.058410596
83	0xbd697155	-0.056992847
84	0x3d4ee828	0.05051437
85	0x3d5584e7	0.0521287
86	0xbbe204bd	-0.0068975375
87	0xbdb1b8e9	-0.08677847
88	0x3c90f861	0.017696561
89	0xbde36c56	-0.11104648
90	0x3dd61512	0.104532376
91	0x3d92632a	0.0714782
92	0xbda7743b	-0.08176466
93	0xbdeb9a97	-0.11504095
94	0x3aeae29e	0.001792032
95	0xbcbd02b6	-0.023072582
96	0xbd331521	-0.043721322
97	0xbd7bfeae	-0.06152218
98	0xbdc36471	-0.09540642
99	0xbdbeabbd	-0.093101
100	0x3c91067e	0.017703291
101	0xbd977ea2	-0.073972
102	0x3dba2227	0.09088545
103	0x3d5366a5	0.05161156
104	0xbe2396af	-0.1597545
105	0x3d3fe8ee	0.046853
106	0xbd52775e	-0.05138337
107	0x3e4471cf	0.1918404
108	0xbe9fa884	-0.31183255
109	0x3b38c72c	0.0028194888
110	0xbdb645c8	-0.089000285
111	0x3dcc8208	0.09985739
112	0xbdfc8633	-0.12330284
113	0xba37df1b	-0.00070141413
114	0x3cd00c4c	0.025396489
115	0x3d6e44a2	0.058170922
116	0x3d9937b0	0.07481325
117	0x3d4b63f9	0.04965589
118	0xbcc6f621	-0.024287285
119	0xbe2cb57d	-0.16866107
120	0xbce7a12c	-0.028275095
121	0x3d2d3439	0.04228613
122	0xbe36df8c	-0.17858714
123	0xbdbd9d54	-0.092585236
124	0xbc095388	-0.008381732
125	0xbc044205	-0.008072381
126	0xbd94fee7	-0.07275181
127	0xbd0a4a41	-0.03376222

output_layer.weight f4 [1, 128]
0	0xbd403db3	-0.04693384
1	0x3d684154	0.056702927
2	0xbe0932fa	-0.13398352
3	0x3d91fb8d	0.07128058
4	0x3e025a50	0.12729764
5	0x3db23c31	0.08702887
6	0x3df447bb	0.11927744
7	0x3e016f0e	0.1264002
8	0x3f2276d7	0.63462585
9	0x3cd642d5	0.026154915
10	0x3e5f1af9	0.21787633
11	0xbdfa08ae	-0.12208687
12	0xbdfb7584	-0.12278274
13	0xbdb0bf0c	-0.08630189
14	0xbdd1e9ed	-0.10249696
15	0xbeb128df	-0.34601495
16	0x3e08f32a	0.1337401
17	0x3e18e853	0.14932375
18	0x3e01a1e7	0.12659417
19	0x3dfbacb8	0.12288803
20	0xbda43585	-0.080180205
21	0xbe3a8bdb	-0.18217413
22	0xbe1832c3	-0.14863114
23	0x3e19377b	0.1496257
24	0xbe26610a	-0.16247955
25	0xbd76334a	-0.060107507
26	0x3e6d9084	0.2319966
27	0x3da574ed	0.080789424
28	0xbde34278	-0.11096662
29	0xbda1325f	-0.07870936
30	0xbe2d1bab	-0.16905086
31	0x3e137293	0.14399175
32	0x3e9b942c	0.30386484
33	0xbdc3dbbc	-0.095633954
34	0x3e01c0fe	0.12671277
35	0x3d08f7b8	0.033439368
36	0xbdd88371	-0.105719455
37	0xbe2d7c73	-0.16942005
38	0x3e173361	0.14765693
39	0xbdd8407c	-0.105591744
40	0x3e7cb1b1	0.24677159
41	0xbe8ac95d	-0.27106753
42	0x3db2e365	0.08734778
43	0xbd45e049	-0.048309598
44	0x3dc6d063	0.09707715
45	0xbda2d1c3	-0.07950165
46	0x3dc85dd3	0.097835205
47	0x3d91f65c	0.071270674
48	0xbf311a8b	-0.69181126
49	0x3e641b8e	0.22276136
50	0x3e384a41	0.17997076
51	0xbe2c12dc	-0.1680407
52	0xbdf9129f	-0.12161755
53	0x3eefa5f0	0.46806288
54	0xbd9ab8fd	-0.07554815
55	0x3e50e7ff	0.20401
56	0xbe3f0a57	-0.18656288
57	0x3e04f62d	0.12984534
58	0xbf0ca432	-0.5493804
59	0xbd608bea	-0.054820932
60	0x3da9fcc0	0.08300161
61	0x3e103042	0.14080909
62	0xbe50dcce	-0.2039673
63	0x3e573b35	0.2101868
64	0x3ddfcc77	0.109276704
65	0x3e09543d	0.1341104
66	0x3e8a660f	0.2703099
67	0x3ea41ab8	0.32051635
68	0xbe232f20	-0.15935946
69	0xbe08e156	-0.13367209
70	0x3dd82d95	0.10555569
71	0x3df21800	0.11820984
72	0xbdf6f739	-0.12058873
73	0x3dbc94c1	0.0920806
74	0xbe278ba7	-0.16361867
75	0xbe035911	-0.12826945
76	0xbdc4dbee	-0.09612261
77	0xbde76761	-0.11299015
78	0xbdc54ab9	-0.09633393
79	0x3d9271f2	0.071506396
80	0x3d8ea69f	0.06965374
81	0x3dae4aea	0.085103825
82	0x3cbe04de	0.02319568
83	0xbd51e827	-0.05124679
84	0x3e90f154	0.2830912
85	0x3dff036b	0.12451824
86	0xbe1267ce	-0.14297411
87	0xbe362877	-0.17788874
88	0xbd9f83e8	-0.07788831
89	0xbdeed724	-0.116621286
90	0xbde817b7	-0.11332648
91	0xbe0e31b9	-0.13886155
92	0x3e0c95bc	0.13728994
93	0x3ebc9d06	0.3683855
94	0x3dc5c50e	0.09656726
95	0xbdc7769f	-0.09739422
96	0x3e18e90e	0.14932653
97	0x3e732d38	0.23747718
98	0x3f0cc207	0.5498356
99	0x3dec5f66	0.11541633
100	0x3dce4728	0.10072166
101	0x3da96067	0.082703404
102	0xbd5a8d48	-0.053357393
103	0x3dc872a5	0.09787492
104	0xbe830415	-0.25589052
105	0x3d6182d0	0.055056393
106	0x3df101c9	0.117679186
107	0xbe4a9416	-0.19783053
108	0xbea0bf92	-0.31396157
109	0x3e724f72	0.23663118
110	0x3d9bb607	0.07603078
111	0x3e0a41a1	0.13501598
112	0x3e02c13d	0.12769027
113	0x3db074ba	0.08616014
114	0xbe32ba95	-0.17453988
115	0xbd94f908	-0.072740614
116	0xbeb8a950	-0.36066675
117	0x3d079c1d	0.033107866
118	0xbdac88f0	-0.08424556
119	0xbdc8bdcc	-0.09801826
120	0x3e26d83a	0.16293421
121	0xbd931531	-0.07181776
122	0xbf3d7b9b	-0.7401673
123	0x3de29c91	0.11065019
124	0xbe3336d5	-0.17501386
125	0x3e01bd40	0.1266985
126	0xbda9a9c8	-0.08284336
127	0x3e1b970a	0.15194336
