pytorch/Laplace_eq_outputs/model_lr_1_layers_2_lambda_3.pt (torch, 71258 bytes, 5 tensors)

input_layer.0.weight f4 [128, 2]
0	0x3efabe84	0.48973477
1	0xbe923071	-0.28552583
2	0xbeaf59eb	-0.3424829
3	0xbf0e649e	-0.5562228
4	0x3f53ce49	0.8273664
5	0xbf57c6af	-0.8428754
6	0x3eb3ba57	0.35103104
7	0x3eb1cf31	0.34728387
8	0x3f5fe757	0.8746237
9	0xbb51995f	-0.0031982285
10	0xbe664925	-0.2248884
11	0xbc590099	-0.013244771
12	0xbf231011	-0.6369639
13	0x3f4904c3	0.7852289
14	0x3ddd3671	0.108013995
15	0x3eb64417	0.35598823
16	0xbea87653	-0.32902774
17	0x3eac141c	0.33609092
18	0x3ca4cbe7	0.02011676
19	0xbed58c0f	-0.4170842
20	0x3cd5e06d	0.026107991
21	0xbf0ea851	-0.5572558
22	0xbeaca699	-0.33720854
23	0x3f013a97	0.50480026
24	0x3da21686	0.07914452
25	0xbf2ee3c1	-0.68316275
26	0xbf08c978	-0.53432417
27	0x3f4112f4	0.75419545
28	0x3ea65c16	0.3249213
29	0xbf2cb4d4	-0.6746342
30	0xbeb27798	-0.34856868
31	0xbefaee90	-0.49010134
32	0xbf4dabea	-0.80340445
33	0x3f428fa8	0.7600045
34	0x3daa27c6	0.083083674
35	0xbf0d7326	-0.5525383
36	0x3f6cbbf3	0.9247429
37	0xbf40904d	-0.75220186
38	0xbeb041a4	-0.3442508
39	0x3bcf8633	0.0063331365
40	0xbf20cc43	-0.6281168
41	0xbe85db8e	-0.2614407
42	0x3e9754ac	0.29556787
43	0xbf47e53e	-0.7808417
44	0x3ed65d23	0.41867933
45	0xbeca8f9f	-0.395627
46	0x3f2c334c	0.6726577
47	0xbea98ea0	-0.33116627
48	0x3e3e1d54	0.18565875
49	0x3ee6d354	0.45083106
50	0xbebb6f17	-0.36608192
51	0x3eab34a1	0.3343859
52	0x3e9d9860	0.30780315
53	0x3eac947a	0.3370703
54	0x3f116e44	0.56808877
55	0xbe801f9c	-0.25024116
56	0xbec44a3d	-0.3833789
57	0x3ef7b662	0.48381335
58	0x3e19dced	0.15025683
59	0x3eb87622	0.36027628
60	0x3e45686d	0.19278117
61	0xbf3cd2fd	-0.7375944
62	0x3d3b94e9	0.04579631
63	0xbf04dcf8	-0.5189967
64	0x3ed32206	0.41236895
65	0xbe6850b2	-0.22687033
66	0xbf084320	-0.53227425
67	0xbe7dc8f7	-0.24783693
68	0xbe9f9b61	-0.31173232
69	0xbef690e7	-0.48157427
70	0xbf011639	-0.50424534
71	0x3e816602	0.25273138
72	0xbd6e0335	-0.058108527
73	0xbf347579	-0.7049175
74	0x3e425e11	0.18981196
75	0xbe0675ab	-0.13130824
76	0x3f5e1a67	0.86759037
77	0x3e054853	0.13015871
78	0xbdc7b65f	-0.097515814
79	0x3edc7007	0.4305422
80	0x3ed18dec	0.4092859
81	0xbf1c19d7	-0.6097693
82	0x3e877879	0.264591
83	0x3c902d76	0.017599802
84	0x3ee92228	0.45533872
85	0x3e43db95	0.19126733
86	0x3f2af045	0.6677287
87	0x3eae6742	0.34063154
88	0xbeaf8a6c	-0.34285295
89	0xbe8a03c3	-0.26955995
90	0x3f5246f3	0.8213951
91	0xbf612b92	-0.8795711
92	0xbc9cac47	-0.019125117
93	0xbf0a4e55	-0.54025775
94	0x3f3daf86	0.7409595
95	0x3d37c6cd	0.044867326
96	0x3f0b90a5	0.54517585
97	0xbeb3ea59	-0.3513973
98	0xbecd7d9b	-0.40134892
99	0x3d957be7	0.07299023
100	0x3e5fbbed	0.21849032
101	0xbf039ba6	-0.51409376
102	0xbf14698a	-0.5797354
103	0x3f2679da	0.6502968
104	0xbe31b863	-0.17355494
105	0x3efe1dc8	0.49632096
106	0x3f1dcadd	0.6163767
107	0xbca3f2f2	-0.020013306
108	0x3ee7d7c0	0.45281792
109	0x3da022a2	0.07819106
110	0x3eaa5585	0.3326837
111	0x3efbd59f	0.49186417
112	0x3e0cc4dc	0.13746971
113	0xbe35b3aa	-0.17744318
114	0xbf03dbe4	-0.515074
115	0xbe8de767	-0.27715608
116	0x3dfc40ad	0.123170234
117	0x3e536a57	0.20646034
118	0x3f5d1822	0.8636495
119	0xbf6cbf35	-0.9247926
120	0xbf0b3484	-0.5437701
121	0xbf2fdd1f	-0.6869678
122	0x390ad389	0.00013239509
123	0xbf025e18	-0.50924826
124	0xbeaf8b58	-0.34285998
125	0xbf15cb83	-0.5851366
126	0x3f3b1a1e	0.73086727
127	0xbf439d89	-0.76412255
128	0x3e743e4e	0.23851892
129	0x3e4ce39e	0.20008704
130	0x3eded56c	0.43522203
131	0xbf10baf8	-0.5653529
132	0x3f0d1318	0.5510726
133	0x3ecc63d2	0.39919907
134	0xbe8cdf58	-0.27514148
135	0xbcbf8523	-0.023378914
136	0x3eca890b	0.3955768
137	0x3ed424bf	0.41434285
138	0x3ea9cfed	0.33166447
139	0xbf0536f0	-0.5203695
140	0x3d59b0df	0.053147193
141	0x3e3439bc	0.17600149
142	0x3f48b566	0.7840179
143	0xbf71fbd2	-0.9452487
144	0x3eb1ab3d	0.34700957
145	0x3edbe8f2	0.4295116
146	0xbdc54d22	-0.096338525
147	0xbf4df32f	-0.80449194
148	0x3dcf922f	0.10135304
149	0xbf23c80c	-0.6397712
150	0xbef202dc	-0.47267807
151	0xbf29f02c	-0.663821
152	0x3e31cef8	0.17364109
153	0x3f15c8fd	0.5850981
154	0xbf591b5c	-0.8480737
155	0x3e6db054	0.23211795
156	0xbdda311c	-0.10653898
157	0x3f10e7f1	0.56603914
158	0x3eaf4cdc	0.34238327
159	0x3f674047	0.90332454
160	0x3ef8c17d	0.4858512
161	0xbec87727	-0.39153406
162	0xbdd145b0	-0.1021837
163	0xbf23105f	-0.63696855
164	0xbf181c3f	-0.594181
165	0xbf68940f	-0.9085092
166	0x3db0a86a	0.086258724
167	0xbf2a27fb	-0.66467255
168	0xbeb56f53	-0.35436496
169	0x3f141ab0	0.5785322
170	0xbbd3a168	-0.00645845
171	0x3e9835b3	0.2972847
172	0x3e3b14ab	0.18269603
173	0x3f36e5dd	0.71444494
174	0x3ded45ac	0.115855545
175	0x3f21b0c6	0.6316036
176	0xbe81873e	-0.25298494
177	0xbf4d7dc5	-0.80270034
178	0xbd8bd78c	-0.06828222
179	0xbf0b8d7a	-0.5451275
180	0x3ee4c085	0.4467813
181	0x3e0155a6	0.12630329
182	0x3f1c17a3	0.60973567
183	0x3eb0f4c5	0.34561744
184	0xbe5bdeed	-0.21471758
185	0xbf44047b	-0.76569337
186	0xbf4b9bed	-0.795348
187	0xbf072499	-0.5279022
188	0x3f5b8dcd	0.85763246
189	0xbf2993d6	-0.66241205
190	0x3f3e9030	0.7443876
191	0xbf51b768	-0.8192048
192	0xbf21e766	-0.6324371
193	0x3f21c2ec	0.6318805
194	0xbeb1d681	-0.34733966
195	0x3ef992bc	0.48744762
196	0xbdfbb622	-0.122905985
197	0xbf383e1b	-0.71969765
198	0x3ee1b796	0.44085377
199	0x3f0eba5d	0.5575312
200	0xbe025c41	-0.12730505
201	0x3ead2289	0.3381541
202	0xbf68878d	-0.90831834
203	0x3e116849	0.14199938
204	0xbebf7775	-0.37395826
205	0xbe4f8fe3	-0.20269732
206	0x3d938e97	0.07204931
207	0xbef502b5	-0.47853628
208	0x3ea00f20	0.3126154
209	0xbd9d9f6a	-0.076964214
210	0x3e964dec	0.29356325
211	0xbf4404f5	-0.76570064
212	0x3e967e4f	0.2939324
213	0x3e01668e	0.12636778
214	0xbeca3821	-0.39495948
215	0xbf4c078e	-0.7969903
216	0x3dd4e831	0.103958495
217	0xbf4da38b	-0.8032767
218	0x3f21e021	0.6323262
219	0xbf104040	-0.5634804
220	0x3eba209f	0.36353013
221	0x3eadee3b	0.33970818
222	0x3ed8417a	0.42237455
223	0x3f347844	0.7049601
224	0x3f0514d0	0.5198488
225	0x3f090432	0.53522027
226	0x3f33e57e	0.7027205
227	0xbd9acdc6	-0.075587794
228	0xbd13477a	-0.035956837
229	0x3f1b8839	0.60754734
230	0xbda72ff8	-0.08163446
231	0x3eefe9d7	0.46858093
232	0x3e9db37f	0.30801007
233	0xbf13b711	-0.5770121
234	0xbe79ae5d	-0.2438292
235	0xbf42ba1e	-0.7606524
236	0x3eced90e	0.40399975
237	0xbf09b859	-0.5379692
238	0x3f1bf01a	0.6091324
239	0x3d94f6c7	0.072736315
240	0x3e9be78f	0.30450103
241	0x3f431b06	0.7621311
242	0x3eca10a0	0.3946581
243	0xbeb8ed49	-0.36118534
244	0x3f1f5dc6	0.6225246
245	0xbdecebd5	-0.11568419
246	0x3f3ecf5a	0.74535143
247	0xbf1e2fc0	-0.6179161
248	0x3eb978c2	0.36224943
249	0xbf13f536	-0.5779604
250	0x38bae01a	8.910913e-05
251	0xbf26cd01	-0.6515656
252	0xbf5df078	-0.8669505
253	0xbf5249a8	-0.8214364
254	0xbd2a17ce	-0.04152661
255	0x3efb4735	0.49077764

input_layer.0.bias f4 [128]
0	0xbf126095	-0.5717862
1	0x3e60ca65	0.21952207
2	0x3e5fe7e7	0.21865807
3	0xbf24fbdf	-0.64446825
4	0x3f766425	0.9624656
5	0x3f2d6582	0.67733014
6	0x3f2718d1	0.6527224
7	0xbe3a6ce9	-0.18205608
8	0xbdfe258e	-0.12409507
9	0xbe28c73f	-0.16482256
10	0x3ee37990	0.44428682
11	0xbe4b2cf2	-0.19841364
12	0xbe3a9f7f	-0.18224905
13	0xbf1efe68	-0.62106943
14	0xbef00c1a	-0.46884233
15	0x3f4b240c	0.7935188
16	0x3e67467a	0.22585478
17	0x3edd8c85	0.4327127
18	0xbe340728	-0.17580855
19	0xbeee1bff	-0.46505734
20	0x3f488259	0.78323895
21	0x3f0fe120	0.5620289
22	0x3ed91644	0.423998
23	0xbec587cf	-0.38580176
24	0xbf192946	-0.59828603
25	0xbf38762b	-0.7205531
26	0xbf41ff1b	-0.75779885
27	0x3f01e0e7	0.507338
28	0xbe9f0910	-0.31061602
29	0xbeb0141c	-0.34390342
30	0xbf26edd1	-0.6520663
31	0x3eea6195	0.45777574
32	0xbe911775	-0.2833821
33	0x3f389d4e	0.7211503
34	0x3ec43b2c	0.38326395
35	0x3df7316d	0.12069974
36	0x3f4c5ccd	0.798291
37	0xbf3b84c8	-0.73249483
38	0xbf15805f	-0.58399004
39	0xbd926db4	-0.071498305
40	0x3f32e12e	0.69874847
41	0x3ef8fbdc	0.48629653
42	0xbf0fc07c	-0.5615308
43	0x3f06220e	0.52395713
44	0xbe73c1c0	-0.23804379
45	0x3e6887f4	0.22708112
46	0x3eb38f4e	0.3507027
47	0x3f0c5c89	0.548287
48	0xbd125877	-0.035728898
49	0x3e9b6a2a	0.30354434
50	0xbe9692e5	-0.29408947
51	0xbe95c51c	-0.29251945
52	0x3c90f73b	0.017696014
53	0x3eac3c5b	0.33639798
54	0xbf1d1824	-0.6136496
55	0xbf4db060	-0.8034725
56	0xbeac6960	-0.33674145
57	0x3e0b1304	0.13581473
58	0x3f222884	0.6334307
59	0x3e61f011	0.22064234
60	0xbf464a74	-0.77457356
61	0x3f28b0a6	0.65894544
62	0xbd92c327	-0.071661286
63	0x3e21cd28	0.15800917
64	0x3d6f596d	0.058434892
65	0xbea83009	-0.32849148
66	0xbd87f2bd	-0.066380955
67	0xbf07fd2a	-0.5312067
68	0x3f43373b	0.7625615
69	0xbe8f2a4f	-0.27961966
70	0x3dda8372	0.106696025
71	0x3ebbc83d	0.36676207
72	0x3c45f3f1	0.012082086
73	0xbf3e9080	-0.7443924
74	0x3f1a67c2	0.6031457
75	0xbf437eb5	-0.76365215
76	0x3f1590e1	0.5842419
77	0x3f2b2022	0.66845906
78	0xbdd4f9b0	-0.103991866
79	0x3ec42ea7	0.38316843
80	0xbe81ea13	-0.25373897
81	0x3ed3bba4	0.41354096
82	0xbf5a6d8b	-0.853234
83	0x3f022e1e	0.5085162
84	0xbea564c3	-0.32303438
85	0x3dd6f0c5	0.10495142
86	0xbf5ac35f	-0.8545436
87	0xbef12738	-0.47100234
88	0xbf129d0a	-0.5727087
89	0x3e807e67	0.25096437
90	0xbec64dfc	-0.38731372
91	0x3dedc12e	0.11609112
92	0xbf128570	-0.5723486
93	0xbd10d1ea	-0.03535644
94	0xbea4a805	-0.3215944
95	0x3e6355ab	0.22200648
96	0x3ded3b52	0.1158358
97	0x3f0b7e82	0.5448991
98	0x3efb9ae2	0.49141604
99	0x3e52c695	0.20583566
100	0xbd5788e3	-0.05262078
101	0x3f339145	0.7014354
102	0x3ea13fd0	0.31493998
103	0x3db404af	0.08789956
104	0xbea4ab70	-0.32162046
105	0x3efe251d	0.4963769
106	0x3f284cf7	0.6574244
107	0xbf40347b	-0.7508008
108	0xbf46fa6c	-0.77725863
109	0xbe575505	-0.21028526
110	0xbe469d67	-0.19395982
111	0xbef0e2e0	-0.47048092
112	0x3f326d86	0.6969837
113	0x3f1c9062	0.6115781
114	0xbf32ff91	-0.69921213
115	0x3f16a7a9	0.5884958
116	0xbda3ed3d	-0.08004234
117	0xbeaa0021	-0.33203223
118	0xbf189ab5	-0.59611064
119	0xbe874236	-0.26417702
120	0x3f208bb0	0.62713146
121	0xbcb747b1	-0.022373052
122	0xbf288f10	-0.65843296
123	0x3ee5edad	0.44907895
124	0xbf120531	-0.5703917
125	0xbf2c217a	-0.6723858
126	0x3efbfb77	0.4921529
127	0xbdb592cd	-0.08865891

hidden_layers.0.0.weight f4 [128, 128]
0	0xbdbfe29f	-0.093693964
1	0xbdb0b33e	-0.08627938
2	0x3cb56fe8	0.022148088
3	0xbc8e6b9d	-0.017385298
4	0x3bf27a37	0.007399823
5	0xbd766c85	-0.060162086
6	0x3cbaa2d4	0.02278272
7	0x3d07c468	0.033146292
8	0xbd57eaad	-0.05271404
9	0xba09cca7	-0.0005256631
10	0x3bec27d3	0.007206896
11	0xbc8ed458	-0.017435238
12	0x3d8f7b45	0.07005934
13	0x3d840420	0.06446099
14	0xbdb5bb10	-0.0887357
15	0xbd1a9a57	-0.037744846
16	0xbcf8b13c	-0.03035795
17	0xbd83e3b0	-0.06439912
18	0x3c381fa5	0.011238013
19	0xbdfd6147	-0.1237207
20	0x3d59c9a7	0.053170826
21	0xbd39445d	-0.045231212
22	0xbc1aa90e	-0.00943972
23	0x3d9c2ef7	0.07626145
24	0xbd9406a8	-0.07227832
25	0xbcb5357c	-0.02212023
26	0x3cc3e369	0.023912149
27	0x3c5823e8	0.0131921545
28	0x3d49783d	0.049186934
29	0x3d1c4976	0.038155995
30	0xbd7adc38	-0.061245173
31	0xbda6cf55	-0.08145014
32	0x3d9eba41	0.07750369
33	0x3d888ee6	0.06667881
34	0xbd7de4cb	-0.061985772
35	0x3c6d3878	0.014478795
36	0x3c64ae15	0.01395752
37	0xbd7c0b41	-0.06153417
38	0x3d683dc6	0.056699537
39	0x3cd4282a	0.025898058
40	0x3cc2e44d	0.023790503
41	0x3de0f8c5	0.10984949
42	0xbd08281f	-0.033241387
43	0xbcc04a8a	-0.023473043
44	0x3cdb9389	0.026803749
45	0x3d179a0f	0.037012156
46	0x3d7db779	0.06194255
47	0x3dcf0464	0.10108259
48	0xbd403991	-0.0469299
49	0xbc176f01	-0.009242774
50	0x3ca944f7	0.020662768
51	0xbc1792f7	-0.009251348
52	0xbcc78f24	-0.024360247
53	0x3c1a3408	0.009411819
54	0xbd9349a8	-0.07191783
55	0x399ce35f	0.00029924043
56	0xbda9b3f5	-0.08286277
57	0xbda7eaf2	-0.08199109
58	0x3db91719	0.09037609
59	0xbd774505	-0.060368557
60	0x3d846f16	0.064665005
61	0x3d7a95f8	0.061178178
62	0xbd860312	-0.06543554
63	0x3c955637	0.018229587
64	0x3d550f55	0.052016575
65	0xbc967939	-0.01836835
66	0x3d084cd9	0.033276413
67	0xbc9d17e6	-0.019176435
68	0x3d4e1ae1	0.050318602
69	0x3d523b27	0.051325943
70	0x3d98f61f	0.07468819
71	0x3ce59b72	0.028028224
72	0x3c87e967	0.016590787
73	0x3d7d0caa	0.061779656
74	0xbdba0e9d	-0.090848185
75	0xbd16950d	-0.03676324
76	0x3d7f3a56	0.062311493
77	0x3c8ae215	0.016953507
78	0x3d7b4133	0.061341476
79	0xbd067c01	-0.032833103
80	0x3d1a04ca	0.037602223
81	0x3d709597	0.05873641
82	0xbc56772d	-0.013089937
83	0x3d32bc20	0.04363644
84	0xbd6adb50	-0.05733806
85	0x3d2d678f	0.04233509
86	0x3c4e36d0	0.0125863105
87	0xbd88e0c1	-0.066834934
88	0x3d9e6fbb	0.07736155
89	0xbcfe7057	-0.031059427
90	0x3ce328d8	0.027729437
91	0xbbbc6fd4	-0.0057506356
92	0xbd8f3c16	-0.06993882
93	0xbd96debb	-0.07366701
94	0x3b041bbd	0.0020158135
95	0x3d775b6b	0.060389917
96	0xbda335f7	-0.07969277
97	0x3c88bde0	0.016692102
98	0x3c465bfe	0.012106894
99	0xbc7ee5af	-0.0155576905
100	0x3dd29dad	0.102839805
101	0xbd934911	-0.07191671
102	0x3d6a0202	0.05713082
103	0x3b86600f	0.0041008065
104	0xbda31499	-0.07962913
105	0xbc68f72b	-0.014219086
106	0x3dd5531a	0.10416241
107	0x3d9f96ed	0.07792459
108	0xbd811070	-0.06301963
109	0x3d9a2b23	0.07527759
110	0xbd1eb46d	-0.038746286
111	0x3cc3fa31	0.023923011
112	0xbd60671a	-0.054785825
113	0x3d92c633	0.0716671
114	0x3d4d3563	0.05009974
115	0xbbc58058	-0.0060272627
116	0x3a3d2d54	0.0007216532
117	0xbd4308c2	-0.047615774
118	0xbd533be7	-0.0515708
119	0xbd3638b7	-0.04448768
120	0x3d6b6abb	0.057474833
121	0xbb947bd0	-0.004531361
122	0x3d99d230	0.07510793
123	0x3c5d22cf	0.013497069
124	0xbd882df7	-0.06649392
125	0xbd767c1b	-0.06017695
126	0xbc296f1b	-0.010341431
127	0x3d59c37d	0.053164948
128	0x3ca5f622	0.020258967
129	0xbdabbd87	-0.08385759
130	0x3d8ac132	0.0677513
131	0x3da0a9fc	0.07844922
132	0x3d604dcb	0.05476169
133	0xbc0a67ef	-0.008447631
134	0xbd47b85c	-0.048759803
135	0xbc01b30a	-0.007916221
136	0x3d946c8b	0.072472654
137	0xbd68fedd	-0.05688368
138	0x3c05e7fd	0.008172986
139	0x3c69061b	0.014222647
140	0xbb728f86	-0.0037011816
141	0x3d04de10	0.032438338
142	0xbc48ab1e	-0.012247829
143	0xbc8b9117	-0.017036958
144	0xbca30d5c	-0.019903831
145	0x3c50dcc4	0.012747947
146	0xbcbc3637	-0.02297507
147	0xbdb5190c	-0.08842668
148	0xbbc34612	-0.0059592808
149	0xbd7eb5a3	-0.06218494
150	0x3b2d58ea	0.0026450702
151	0xbcb2d15c	-0.021828346
152	0xbcb3edbe	-0.02196395
153	0x3d73faf6	0.059565507
154	0x3d2632af	0.04057568
155	0xbd68f045	-0.056869764
156	0x3ba3bbdf	0.004996761
157	0xbc39f4d6	-0.011349877
158	0xbd715410	-0.05891806
159	0xbd51acc5	-0.051190156
160	0x3d6f46ee	0.058417253
161	0xbcbbffa4	-0.022949047
162	0xbdb5d44f	-0.08878385
163	0x3ca67824	0.02032096
164	0xbd4eb00c	-0.05046086
165	0xbcf45962	-0.029827777
166	0xbda73176	-0.08163731
167	0x3d409d6b	0.047025125
168	0xbcd4868a	-0.02594306
169	0xbbd0f028	-0.006376285
170	0xbd6ec48c	-0.05829291
171	0x3c613685	0.013745909
172	0x3cb1f24b	0.02172198
173	0x3d75f58a	0.060048617
174	0xbdc6bb74	-0.097037226
175	0x3beb78c4	0.0071860272
176	0x3c9a6dca	0.01885118
177	0xbd90b691	-0.07066072
178	0x3d27877b	0.04090069
179	0xbd4e27cc	-0.050330922
180	0xbcac3fdd	-0.021026546
181	0x3a0bb05a	0.00053287076
182	0xbc74a22b	-0.014931242
183	0x3da0e35b	0.078558646
184	0x3d62701f	0.05528271
185	0xbdc6c0a0	-0.09704709
186	0xbd09ab9e	-0.033610933
187	0xbd04c647	-0.032415655
188	0xbdef026c	-0.11670384
189	0x3d099ff5	0.033599813
190	0xbc8c7358	-0.017144844
191	0xbc827108	-0.015923038
192	0x3e573fac	0.21020383
193	0x3cd43f11	0.025908979
194	0x3d97cbc2	0.074119106
195	0xbdd87c4e	-0.10570584
196	0x3d47c2b0	0.048769653
197	0x3d1e5fcc	0.038665578
198	0x3dd13157	0.10214489
199	0xbd9af9fe	-0.075672135
200	0x3e3c2696	0.18374094
201	0xbcee5aac	-0.02909597
202	0xbd56677f	-0.052344795
203	0xbd30f1ef	-0.043199476
204	0xbd2103ad	-0.039310146
205	0x3d0a96d3	0.033835243
206	0x3d7a2d79	0.061078522
207	0x3e14f9ef	0.14548467
208	0x3d18d0ec	0.03730862
209	0x3d1b3b89	0.037898574
210	0xbdf44a08	-0.11928183
211	0xbca12ebb	-0.019675603
212	0xbd3d4bca	-0.046214856
213	0xbd465e0d	-0.048429538
214	0x3d4de89b	0.050270658
215	0x3ce81b23	0.028333252
216	0xbdc3c1e4	-0.09558466
217	0xbd9c35da	-0.07627459
218	0x3dca4ce5	0.09877948
219	0x3c6dd14b	0.014515231
220	0x3cf08662	0.029360954
221	0x3dcfb084	0.101410896
222	0x3d8ed27a	0.06973739
223	0xbcef82b9	-0.029237138
224	0xbd81889c	-0.06324884
225	0xbd4809e9	-0.048837576
226	0x3d38315b	0.044968944
227	0x3e354627	0.17702542
228	0xbca1af97	-0.019737048
229	0x3dad85e0	0.084728
230	0xbd9ce005	-0.07659916
231	0xbd5055cc	-0.050863072
232	0xbd81d86a	-0.06340106
233	0xbd1a4557	-0.037663784
234	0xb855052d	-5.0787978e-05
235	0xbd851919	-0.064989276
236	0xbbdea701	-0.0067948108
237	0x3be17c15	0.006881247
238	0x3da37058	0.07980412
239	0xbc0e277f	-0.008676409
240	0x3c5f705b	0.0136376275
241	0x3c54cf8f	0.012988939
242	0xbd240ebc	-0.040053114
243	0x3daa1faf	0.083068244
244	0xbdad1f74	-0.08453265
245	0xbe0dba56	-0.13840613
246	0xbcd25101	-0.025673391
247	0xbcf3ae77	-0.029746277
248	0x3d5ac77a	0.053412892
249	0x3b00e66d	0.0019668594
250	0x3d148bab	0.03626601
251	0xbcd5ea1b	-0.026112607
252	0x3d266dc0	0.04063201
253	0xbd5d8eb1	-0.05409116
254	0xbe0a2367	-0.13490067
255	0x3d7070ec	0.05870144

hidden_layers.0.0.bias f4 [128]
0	0x3d89e702	0.06733514
1	0x3cbc8852	0.023014221
2	0xbd5f0f0c	-0.05445771
3	0xbd2ae038	-0.041717738
4	0xbc3379b3	-0.010954308
5	0xbd8de365	-0.06928138
6	0x3d87c5cc	0.06629524
7	0xbdc08574	-0.09400454
8	0xbe336cc3	-0.17521958
9	0x3c595f2a	0.013267318
10	0x3c982d02	0.018576149
11	0xbe3789b2	-0.1792362
12	0xbd325566	-0.043538474
13	0xbce7b4c7	-0.028284444
14	0x3d67688a	0.05649618
15	0xbd099ffc	-0.03359984
16	0xbbc71a34	-0.0060761217
17	0xbe1bccee	-0.15214893
18	0xbca48287	-0.020081772
19	0x3b9527df	0.004551872
20	0x3dbb9d0c	0.09160814
21	0x3cb03c97	0.021513266
22	0xbd86a3b2	-0.06574191
23	0x3d81870d	0.06324587
24	0xbc8a7ee1	-0.016906204
25	0xbd13e0d5	-0.03610309
26	0x3ceedef1	0.029159041
27	0xbce08f73	-0.027412152
28	0x3d9fc2bc	0.078008145
29	0xbd766e7b	-0.060163956
30	0xbcc63bb1	-0.024198385
31	0x3e6ea902	0.23306659
32	0xbc698012	-0.014251726
33	0x3d50eb96	0.051005922
34	0xbc880788	-0.016605154
35	0x3d924581	0.07142163
36	0x3b37f1de	0.0028067748
37	0xbdccef73	-0.10006609
38	0xbe489212	-0.19586971
39	0x3b82ff93	0.003997752
40	0x3d5be8a2	0.053688653
41	0x3d06e7bf	0.032935854
42	0x3dc6044c	0.09668788
43	0x3d8eb004	0.06967166
44	0xbd921b16	-0.071340725
45	0xbd606373	-0.054782342
46	0xbd00e452	-0.031467743
47	0xbdbf3cd2	-0.093377724
48	0xbdc53440	-0.096291065
49	0x3dd948dd	0.10609601
50	0xbd8d2381	-0.068915375
51	0x3d3aefb1	0.045638744
52	0x3d9bbcec	0.07604393
53	0x3d82d8dc	0.06389019
54	0x3b7fc3f2	0.0039026705
55	0xbccc0a30	-0.024907202
56	0x3d1d2e66	0.038374327
57	0xbd09617d	-0.033540238
58	0xbbec264e	-0.0072067147
59	0x3d8e30e4	0.06942919
60	0x3c450446	0.012024945
61	0x3db58b24	0.088644296
62	0x3de2830e	0.11060153
63	0x3de35b2b	0.11101373
64	0xbd3f315b	-0.04667793
65	0x3dda0460	0.10645366
66	0xbceef7da	-0.02917092
67	0xbc9ed22e	-0.01938733
68	0xbda18755	-0.07887141
69	0x3d93a1df	0.07208609
70	0x3d086eb5	0.033308703
71	0x3c2e7ae3	0.010649416
72	0xbccbcfd4	-0.024879374
73	0xbdf993bd	-0.12186382
74	0x3d139dc8	0.036039144
75	0xbd633c8e	-0.05547767
76	0x3d862745	0.06550459
77	0x3cee430a	0.029084701
78	0x3dc59b7f	0.09648799
79	0x3d2b5973	0.041833352
80	0xbd8662c9	-0.065618105
81	0xbc5286b9	-0.012849503
82	0x3d9b0db4	0.07570973
83	0xbaded3cc	-0.0017000376
84	0xbd2dd130	-0.042435825
85	0x3dcc8e19	0.099880405
86	0x3dd527b0	0.104079604
87	0x3e00b72b	0.12569873
88	0x3da90515	0.082529224
89	0xbd176fe5	-0.036971945
90	0x3d4ad45c	0.049518928
91	0xbd145011	-0.03620917
92	0xbde5f3f3	-0.1122817
93	0x3c867d39	0.016417133
94	0xbb89c21c	-0.004204048
95	0xbd3c6247	-0.045992162
96	0x3bc64d32	0.006051683
97	0xbc226144	-0.009910885
98	0x3d6c4ff1	0.057693426
99	0xbdbb5f6d	-0.091490604
100	0xbdb9da4f	-0.09074842
101	0x3d8d654c	0.069040865
102	0xbd0cf209	-0.03441051
103	0xba900a4e	-0.0010989399
104	0xbbb80262	-0.0056155184
105	0x3d05a630	0.032629192
106	0x3d943edb	0.07238551
107	0x3d51a71c	0.05118476
108	0x3dbebb0d	0.09313021
109	0x3dbdbcb0	0.09264505
110	0x3d861723	0.06547382
111	0xbd575499	-0.052570913
112	0xbc155049	-0.00911338
113	0xbd7bb2a5	-0.061449666
114	0xbd5d57a4	-0.05403866
115	0xbe190e5e	-0.14946887
116	0xbbb90e2f	-0.005647443
117	0xbca505e8	-0.020144418
118	0x3d02b088	0.031906635
119	0xbca37af5	-0.019956091
120	0xbe0fa349	-0.14027132
121	0x3db7d37e	0.08975886
122	0x3cbcc1b0	0.023041576
123	0x3d9e160e	0.0771905
124	0xbc86cad9	-0.016454147
125	0xbda12ecf	-0.07870256
126	0xbd7b4055	-0.06134065
127	0x3de9b1c1	0.11410857

output_layer.weight f4 [1, 128]
0	0xbe0966dc	-0.13418144
1	0xbe0ccc3b	-0.13749783
2	0xbd8fc80a	-0.07020576
3	0xbd7bd6dc	-0.061484203
4	0x3de88108	0.11352736
5	0xbd88c245	-0.06677679
6	0x3cfac0a0	0.030609429
7	0x3de06147	0.10956054
8	0x3d206ed1	0.039168183
9	0x3df79338	0.120886266
10	0x3dab1211	0.08353055
11	0x3dbfe58c	0.093699545
12	0x3d9d9a18	0.07695407
13	0xbdbcf3b0	-0.09226167
14	0xbde42581	-0.11139966
15	0xbdecb576	-0.115580484
16	0x3d8f11e3	0.069858335
17	0x3d7f78f1	0.062371198
18	0x3d99af47	0.075041346
19	0x3dc063c5	0.093940295
20	0xbdc332f3	-0.09531202
21	0xbdcf7c5b	-0.10131141
22	0x3d9b3d6d	0.075800754
23	0x3d9df98c	0.07713613
24	0x3db65970	0.089037776
25	0xbd367b6d	-0.0445513
26	0xbd7f0a12	-0.062265463
27	0x3dca6478	0.09882444
28	0x3dabdfab	0.08392271
29	0x3dc9afc7	0.0984798
30	0xbd8d68be	-0.069047436
31	0xbe103da5	-0.14086016
32	0xbd78fc95	-0.060787756
33	0x3de99b1b	0.11406537
34	0xbd9941d4	-0.07483259
35	0x3dcb8b96	0.09938733
36	0x3daa10bb	0.08303972
37	0xbdf12a97	-0.117757015
38	0xbdfb67b7	-0.122756414
39	0xbdbca1a3	-0.09210517
40	0xbdda7837	-0.106674604
41	0xbd2d8820	-0.042366147
42	0x3e0da34d	0.13831826
43	0xbd1ed75a	-0.038779594
44	0x3d34664a	0.044042863
45	0x3daa34a8	0.08310825
46	0x3dc3b622	0.095562235
47	0x3db099e9	0.08623106
48	0x3d4eae0e	0.05045896
49	0xbc93c76e	-0.018039431
50	0xbdc5fba5	-0.09667138
51	0xbd002232	-0.03128261
52	0x3ddaae5e	0.10677789
53	0x3d5afdd6	0.053464733
54	0x3cf95db4	0.030440189
55	0xbd72d987	-0.05928948
56	0xbdc145ea	-0.09437163
57	0x3d8be1c4	0.06830171
58	0x3d80c52f	0.0628761
59	0xbdd7cfbb	-0.10537668
60	0x3d02d609	0.0319424
61	0xbda5cab6	-0.08095305
62	0x3dbe0e4e	0.09280072
63	0xbdd60d8e	-0.10451804
64	0x3d023bf7	0.03179547
65	0xbdb9446a	-0.09046252
66	0x3dd787cd	0.10523949
67	0xbdafa90d	-0.08577166
68	0xbdc90c70	-0.098168254
69	0xbde80643	-0.11329319
70	0xbcfc9296	-0.030831616
71	0x3dd9132f	0.10599362
72	0x3d51d953	0.051232647
73	0xbdb78675	-0.089611925
74	0xbcc0c066	-0.023529243
75	0x3db18945	0.0866876
76	0xbdff8db5	-0.124782
77	0x3d6937c5	0.05693795
78	0xbdeabe78	-0.1146211
79	0xbd688551	-0.056767765
80	0x3dad75bd	0.084697224
81	0xbdf89376	-0.12137501
82	0x3df4007f	0.11914157
83	0x3d42c28c	0.047548816
84	0x3dd195aa	0.10233624
85	0x3e26a385	0.16273315
86	0x3dac8550	0.08423865
87	0x3e298457	0.1655439
88	0x3dd33e00	0.1031456
89	0xbd002f8f	-0.031295355
90	0xbde76dc1	-0.11300231
91	0xbd9fff78	-0.07812399
92	0x3cfc9eda	0.030837465
93	0xbd92a448	-0.071602404
94	0x3da94e3e	0.08266877
95	0xbd9b2982	-0.07576276
96	0xbd9add5c	-0.07561752
97	0x3d819f5d	0.06329224
98	0x3c51d895	0.012807985
99	0xbd9c8f9d	-0.076445796
100	0x3d79a7d4	0.06095107
101	0xbdeaf64c	-0.11472759
102	0xbda504d1	-0.08057559
103	0x3de5c1d6	0.11218612
104	0xbde087ce	-0.10963403
105	0x3da7e970	0.081988215
106	0x3d429cce	0.04751282
107	0xbdba16e8	-0.090864
108	0x3dcd03d0	0.10010493
109	0xbda11914	-0.078661114
110	0xbd5923ad	-0.05301254
111	0x3da9a227	0.08282881
112	0x3df7e521	0.1210425
113	0xbda7b788	-0.08189303
114	0x3d1e7120	0.038682103
115	0x3dd9ed66	0.10640983
116	0xbcf16163	-0.029465383
117	0xbdc7a699	-0.09748573
118	0xbcffecbc	-0.031240813
119	0xbdad5356	-0.08463161
120	0xbdb3da78	-0.08781904
121	0xbdf3e02e	-0.11907993
122	0x3c9fd5a1	0.019511046
123	0xbcf8e10b	-0.030380746
124	0x3cb5a0e9	0.022171455
125	0x3d822034	0.063537985
126	0xbd7b8b04	-0.061411873
127	0xbd84b447	-0.06479698
