pytorch/Laplace_eq_outputs/model_lr_1_layers_2_lambda_1.pt (torch, 71258 bytes, 5 tensors)

input_layer.0.weight f4 [128, 2]
00000000: f7af 08be 54a4 18bf 4717 103d f281 e23e
00000010: fab6 b1be 7cf5 7ebf 088f f5be 3a0f 2cbf
00000020: dac0 69bf e923 873e c5e9 50bf 0ad4 13bf
00000030: 293d e43e 24a9 d43e efc5 083e 18c0 4fbf
00000040: 7887 8a3f 1229 72bf 4faf 0ebf dd05 c03e
00000050: 71b8 2b3e 598c 81bf 3653 53bf ecfb 81be
00000060: 3e2d f43d a3cd 3c3f 79f2 813e 96b2 66bf
00000070: ed64 123f d125 0cbf 7fed 193f 0314 58bf
00000080: f7dc 3dbe 9b32 6b3f 6100 6a3f 6d39 113e
00000090: c597 2abf 1bb2 04bf 0dc7 42bf 83eb 073f
000000a0: d945 503e 10c5 50bf 38d0 813f 3e0a 68bf
000000b0: aeb1 9dbc d5a1 5d3f 2ac3 fcbe af46 253f
000000c0: dec7 bdbe 3250 473f 53a4 043f fe22 493f
000000d0: f21b acbe 79da 3e3f d234 bbbc 373b 1fbf
000000e0: 8851 fabd f812 3e3f d555 56be 131f 04bf
000000f0: 94ae 2c3e 60c3 d6be efb3 073f 1c0b 493f
00000100: 9790 ee3c c3fd 47bf d7dc 5b3f 6d7d 3e3f
00000110: 3dba 07bd 5028 5f3f d928 583d 9893 40bf
00000120: 900a 8ebd 8638 083f a23d 61be 69ae 4b3f
00000130: 50b0 533c 535c 3ebf 641f 363f b6c1 fb3e
00000140: f45b 5a3f ad7f 9e3d 0a1f 233f 9f1c 9f3e
00000150: 30b7 633f 6f3e 8ebd 37ba eebe 9cb9 b3be
00000160: d675 2b3d d87d 3e3f 0767 3fbf 14a5 803e
00000170: c59c b5bc 9322 3fbf 0e3f 08bd 204a 1b3f
00000180: 8890 13bf ffd0 d23c 015d 90bf f18f 9dbe
00000190: 888b 08be 7f76 103f 6309 3ebe 47bb 413f
000001a0: 9318 4f3f efa2 edbe 6e71 23bf bc3c 0d3f
000001b0: 5ce1 303f 9bbb 98be ddc2 84bf 9eba 663f
000001c0: 1c28 41bf 2e95 35bf 82ec 033c dace 513f
000001d0: 2d44 b33c 40fb 3f3f 5455 d3be d84a 333f
000001e0: 8d93 5e3f 2dd8 66bf 85e3 b8be 37c7 253f
000001f0: 47ad 0e3d 6050 193f bfa6 8cbd 0b8c 453f
00000200: 4daa babe 17b2 f9bd bd9b 12be 60c1 31bf
00000210: a22a ab3e 1fb6 2cbf 0837 87be 23b3 4dbf
00000220: 2956 29bf 345a ee3e d102 703f 4fc6 163e
00000230: 2bba e9bc d4fa 213f 92c2 093d 4883 27bf
00000240: a3f6 9bbd 8f3a 6abf e1cd b4be 9803 0c3f
00000250: 9672 ecbe 3852 f53e 453f 9c3e 7e99 9f3e
00000260: 27c7 2fbe a89e 0e3f 4db4 87bf c683 673f
00000270: 7363 c73e 42bc 663f 2116 2e3d 5288 75bf
00000280: b5f3 4b3e 0410 5f3f d0ae 133d c84f fbbe
00000290: 31c9 67bf fbf5 183f b513 aa3e 0c51 5abe
000002a0: f9ed 5cbf f63c a3be 4972 79be e90f 033f
000002b0: 11df 8c3c 92a3 57bf 86c0 84bf 562d 523f
000002c0: 4648 a63d fc42 153f 10db 1bbe f45b 1c3f
000002d0: 4ca4 99be fa68 47bf 7a2d fa3d 0ce4 28bf
000002e0: fcab 963e aa41 3c3f cd20 863e 4e3e 183f
000002f0: 5c9e c6be 16a5 243f ecb5 fc3e b6a3 6a3f
00000300: e5aa 183f a536 4dbf fbfb 20bf 1047 8cbe
00000310: 8f9a 4dbf 8015 363f 7014 52be 583f 01bf
00000320: 3c3d 26be dd7f 343f 9df8 a7be 013c 57bf
00000330: 9b5f dbbd f6d0 2ebf 1f99 4c3c a9b9 48bf
00000340: 0531 19be 1db2 7cbf 1e0a 603f d82d fc3e
00000350: b71a 89bc a435 3d3f 8a9a da3e 5335 323f
00000360: 8c28 afbe ae8a 41bf 5b8d 7bbd 71fb 4bbf
00000370: fb14 b2be 441d b7be 37fe 48bf c3dd b43e
00000380: f412 87be 512b 193f d63c 3ebf 052a 0f3f
00000390: e8df f03e 4614 09bf fe00 c2be 1077 9ebe
000003a0: ad7d 1ebb 6a91 603f 78d1 a9bb 8d81 27bf
000003b0: 8a37 363f a2dd f4be e39b 46bf b5b8 3b3f
000003c0: b4b2 21be bedc 033f 85b0 a7be 5c5d 22bf
000003d0: b91c 2ebf d9ad e53e 0ecd 2fbf d797 2dbe
000003e0: 583b 1a3d 8b2d 52bf afad 853f 5760 6bbf
000003f0: 5dca dd3e eaa5 043f 2f7c b8be ee48 f6bd
-0.13348375 -0.59625745 0.03517845 0.44239765 -0.34709913 -0.9959333 -0.47960687 -0.67210734
-0.91309893 0.26394585 -0.81606704 -0.5774542 0.44577911 0.41535294 0.13356756 -0.81152487
1.0822592 -0.9459392 -0.5573625 0.37504473 0.16769578 -1.0120956 -0.82548845 -0.25387514
0.11922692 0.73751277 0.25380304 -0.9011625 0.5718525 -0.54745203 0.60128015 -0.84405535
-0.18541323 0.9187409 0.9140683 0.14182062 -0.6663783 -0.5183427 -0.7608498 0.5309374
0.20339145 -0.81550694 1.0141668 -0.9064063 -0.019249763 0.8657506 -0.49367648 0.6456098
-0.3706655 0.77856743 0.5181324 0.7856902 -0.3361507 0.7455211 -0.022852335 -0.6219973
-0.12222582 0.74247694 -0.2093118 -0.51609915 0.16863471 -0.41945934 0.5300893 0.78532577
0.02912168 -0.78121585 0.8588385 0.74410135 -0.033136595 0.87170887 0.05277333 -0.7522521
-0.069356084 0.5321125 -0.21996167 0.79563004 0.012920454 -0.74359626 0.7114165 0.49171227
0.8529656 0.07739196 0.63719237 0.31076524 0.88951397 -0.06945502 -0.46626446 -0.35102546
0.041860424 0.7441077 -0.7476658 0.25125945 -0.02216948 -0.7466213 -0.03326326 0.6065998
-0.5764241 0.025734423 -1.1278383 -0.3077388 -0.13334477 0.5643081 -0.18558268 0.7567639
0.8089687 -0.4641337 -0.63844955 0.551708 0.6909387 -0.29830632 -1.0371968 0.90128505
-0.7545183 -0.70930755 0.008051993 0.81956255 0.021883095 0.7499275 -0.41276038 0.7003608
0.86943895 -0.9017361 -0.36111084 0.647571 0.03483322 0.5988827 -0.06867742 0.77166814
-0.36458054 -0.12192171 -0.14317222 -0.6943569 0.33430964 -0.67465395 -0.26409173 -0.80351466
-0.66147095 0.46553195 0.937543 0.14724086 -0.028531155 0.6327336 0.033632822 -0.65434694
-0.076154016 -0.91495603 -0.35313323 0.54692984 -0.46181172 0.4791429 0.3051702 0.31171793
-0.17165814 0.5571084 -1.0601898 0.90435445 0.3894306 0.9013101 0.042501573 -0.95911133
0.19917186 0.8713381 0.036055386 -0.49084306 -0.9054137 0.59750336 0.3321816 -0.2131998
-0.8630062 -0.31882447 -0.24360003 0.5119615 0.01719621 -0.84233963 -1.0371253 0.8210043
0.08119254 0.58305335 -0.15220284 0.6107781 -0.3000816 -0.77894557 0.12215705 -0.6597297
0.2942809 0.73537695 0.261969 0.5947007 -0.38792694 0.643144 0.49357545 0.91656053
0.59635764 -0.80161506 -0.6288449 -0.27397966 -0.8031396 0.71126556 -0.20515609 -0.5048728
-0.16234297 0.70507604 -0.32806864 -0.84075934 -0.10711595 -0.682876 0.012487679 -0.78408295
-0.14960106 -0.9870928 0.8751544 0.49253726 -0.016736371 0.73909974 0.4269603 0.69612616
-0.34210622 -0.75602233 -0.061414104 -0.79680544 -0.34781632 -0.35764515 -0.785129 0.3532544
-0.26381648 0.5983172 -0.7431158 0.5592349 0.47045827 -0.5354656 -0.37891382 -0.30950212
-0.0024183795 0.87721884 -0.0051824413 -0.65432054 0.71178496 -0.47825342 -0.77581614 0.73328716
-0.15790826 0.515087 -0.3275186 -0.63423705 -0.6801258 0.44859198 -0.68672264 -0.16952454
0.03765425 -0.82100743 1.0443629 -0.9194388 0.43318453 0.51815665 -0.36032245 -0.12025629

input_layer.0.bias f4 [128]
00000000: 181c 15bf ecc6 91be 2952 5fbf 9fed d93e
00000010: b84d 76bf 15ed 5e3e f119 9dbd 4461 293f
00000020: d6ee 333e fcf0 143f 2469 52bf 7da2 3e3f
00000030: 857d e93e e34a 543f 9eab 16bf 93f7 ffbe
00000040: c6db 463f 8046 82bf 7560 dbbe 498b 4fbf
00000050: 6c67 603f 01be 55be 45e3 51bf fcff e3be
00000060: 8e3b e63e 96d9 f2be 158a 3a3f b5c1 0a3f
00000070: 3b14 283f 99b6 35bf 5265 33bf 8fe1 35bf
00000080: adec 06bf b67d 633e 16fc 4d3f 7e0e 473f
00000090: 62bd eabe ca11 4e3f 3101 163f 5981 30bf
000000a0: 1b38 4bbf 1577 503f 3cf5 763f ce4b 4a3e
000000b0: 07fe 47bf f73a 03bf 5000 51bf 6b5c 19bf
000000c0: f826 24bf e71f c13e 3728 b03e 5df4 15bf
000000d0: a35b f5be 2e5b 20bf b4ad 423f 0c19 87be
000000e0: 640a 4f3c ad2e 573f ab1d 23bf e8bf bfbe
000000f0: 9be9 80be af84 23bf d223 1f3f 2a07 3e3f
00000100: 5872 42bf 152b 563f cb4b 1ebf ddc4 21bf
00000110: f145 e7be 67b6 8fbf e521 0cbf 3ff2 51bf
00000120: 3511 603f f697 303f 0221 3a3f 56fd a63e
00000130: e47d 07bf edb0 663d 8fee 46bf 9a92 67bf
00000140: 05d4 42bf 701b 3fbe 4348 853e bac7 d13e
00000150: beb8 d5bd cf81 e23c 10ee 50bf d72c 1a3f
00000160: cc3c 323f a020 1b3f b6a3 1ebf 5f81 0b3f
00000170: bc12 c83e f8dc 463f 7b28 86be 1479 853f
00000180: 9b42 a8be 6f7a 3e3e 217e 1abe 9771 a73e
00000190: a01f fcbe 5385 4dbf 2ecb 413f 9be5 d0be
000001a0: 7c40 6fbf b868 a43e a709 4dbf 6ab9 1f3f
000001b0: 2336 05bf 07c5 19bf fb20 423f ac02 153f
000001c0: c017 bfbe 802b a53b 148d 57bd 0e1b fb3d
000001d0: fa26 2f3f 2952 c23e a3c6 c43e c198 623e
000001e0: 4e0e e6be 2dd2 a63d e64b 363f 5b25 37bf
000001f0: 6b9e 523f 00ab c03d 4cc3 3d3f 30c3 2fbf
-0.5824599 -0.28472078 -0.8723474 0.42564103 -0.9621234 0.21770127 -0.076709636 0.6616404
0.17571577 0.5818021 -0.8219168 0.7446669 0.45603576 0.8292677 -0.5885562 -0.49993572
0.776791 -1.0177765 -0.42847028 -0.8107191 0.8765781 -0.20873262 -0.8198741 -0.44531238
0.44967312 -0.4743163 0.72866946 0.54201823 0.6565587 -0.70981747 -0.7007648 -0.710473
-0.5270489 0.22215924 0.8046278 0.7775649 -0.45847613 0.80495894 0.5859557 -0.6894737
-0.79382485 0.81431705 0.9646795 0.1975548 -0.7812199 -0.5126185 -0.816411 -0.59906644
-0.6412196 0.37719652 0.34405681 -0.58575994 -0.47921476 -0.6263913 0.760463 -0.26386297
0.012636755 0.84055597 -0.63717145 -0.374511 -0.25178227 -0.63874334 0.6216403 0.7422968
-0.75955725 0.8365949 -0.618344 -0.63191015 -0.4517055 -1.122754 -0.5473922 -0.82010263
0.87526256 0.68981874 0.72706616 0.32615155 -0.5292647 0.056321073 -0.7770776 -0.9045807
-0.76104766 -0.1866281 0.26031694 0.40972692 -0.104356274 0.027649788 -0.81613255 0.6022467
0.6962402 0.60596657 -0.61968553 0.5449428 0.39076793 0.7768092 -0.2620276 1.0427575
-0.32863316 0.18601392 -0.15087177 0.3270385 -0.49242878 -0.8028156 0.7570065 -0.40800175
-0.9345777 0.32111144 -0.80092853 0.62392294 -0.5203573 -0.60066265 0.75831574 0.582072
-0.37322807 0.005040586 -0.052624777 0.1226102 0.6841885 0.37953308 0.38432798 0.22128583
-0.4493279 0.081455566 0.7120956 -0.71541375 0.82272977 0.09407616 0.74126124 -0.6865721

hidden_layers.0.0.weight f4 [128, 128]
00000000: 58c8 603c 1542 403e 741e a4bc d379 cfbc
00000010: ac57 d23d 31b7 c0bc 79d8 333e 33e3 dcbe
00000020: 7af6 f53d 6578 8ebd 3f82 d93d cd94 17be
00000030: a4ab 303d 7ae8 84be 8227 203e 163b d43d
00000040: 1f81 f8bc 08f1 823e 7a4b 963d 3407 fa3d
00000050: 2e60 4abe 9e98 debc d04e 2b3f 0e12 af3d
00000060: b7a7 083d 38ce 853d 7fe9 e1bc 6b9d b9be
00000070: dbfc 06be d212 6abc a169 d63c 26b0 a83d
00000080: 4592 f3bc 686d 42bd 19f6 17be 5c5c d9be
00000090: d02f 0a3f 68ce 5f3c e54b a8be 6134 a83d
000000a0: 4836 5c3e a7c8 88bd 1896 21bc a6d3 31be
000000b0: db02 ea3e 9cda 53bd d92d df3d 4723 ff3e
000000c0: ec9c 693c db47 e5bb 1585 8cbd 0730 ed3e
000000d0: 9491 673e deb4 b13d 5fdd d93c e310 88bd
000000e0: 6826 ddbd 3775 00be 9111 d53e ecda f43d
000000f0: b080 9bbc 7591 b43d e6c1 1b3c 4ca6 ecbd
00000100: 2798 583d 2564 f7be 8ee8 0b3e a06e eabb
00000110: 17f8 5e3d d017 cc3e 9dcd f93e 720e 1e3e
00000120: ddfa eabe 7047 9abd 0006 37be 9129 72bc
00000130: df69 683e 1994 21be 458a 3b3e 7759 203e
00000140: 34c6 853e 8834 e8bd 856b 11bd 62e1 a2bd
00000150: 4e05 afbd acde d83c 40dc b53d deba 613d
00000160: 9051 30bd f428 a6bd 0549 f33b 057c c4be
00000170: bc9e cdbc b828 9dbc 6843 243e e425 b83d
00000180: 963d 3fbd 84bf 2ebe f13f 263d 353a 9abe
00000190: cf02 a53e cf49 963d a435 e8be 9786 863d
000001a0: 30ab 1dbd 9270 35bd 8a9f d13e b122 a4bc
000001b0: 5421 4d3d 4ba2 a03c 1661 e8be c68b 58be
000001c0: cc05 d33d 84be 07be dbb1 7c3d c929 3fbe
000001d0: bb7a 733c 6eeb 59be d3b8 153d 3c93 e4bd
000001e0: 7a73 893e f114 37bd 4c24 17be 6eb9 153d
000001f0: 8f77 17bf 6c10 7e3b 15e1 f23b b23b bf3d
00000200: dc09 7bbd 4a6d 443d 9c14 99bd 88d4 98bd
00000210: da9d a8be 61aa 7bbc ee2e bb3c bb5d 223d
00000220: 3e75 2bbd a7ef 373d ae31 1bbe 60a7 1bbd
00000230: 602a a1bd a7ce 713d b5aa 323d bfac 913c
00000240: 27bc 353e ab88 80bd 94d1 5bbd 7276 2abe
00000250: b37d 143e e3ae b83d 9181 bfbd d7aa d7bd
00000260: 0d5c 813d fd4c d53d e112 c73d ba2f 9b3d
00000270: 9b2f fe3d 78ef 2ebe e361 76bc b65d 303d
00000280: 8d29 ccbc e076 fc3c caef 093e 35bf 153e
00000290: 2b72 08be 23d7 1e3c ea7d 173e f307 8ebd
000002a0: 581e 8d3b 12a0 873e 4776 c13e 9f30 90bd
000002b0: 0441 3f3c 87ce 89be d0f7 e3bc 73f3 ae3c
000002c0: 615b b9be 8ad2 56bd ad29 903d 8133 dcbd
000002d0: fcd0 373d 87e0 42be 0c14 593e e4a7 d4bc
000002e0: 8214 febd cce2 e13d a09a bfbd adce 03bd
000002f0: aa5f ebbc c5b7 25be 3046 1b3e 9b9d f03d
00000300: 3f06 41be 09c4 2fbc 5b9f 383d e369 943d
00000310: 85d4 90be 989a 00bd b173 57bc 52f4 b9bd
00000320: 800a 0ebd 586c 98bd 7e18 abbd ed15 563e
00000330: bf27 58bd fb48 963a b83d 6c3d 42c4 46be
00000340: 5e12 22bd e033 473c 7975 f7bd 605a 2b3e
00000350: 81eb 13bc d843 d1bd 8ede 0fbe 4844 15bd
00000360: 8008 043e 6bb3 263d 0f0e 023d ed34 143e
00000370: f5bb ad3d ddc7 1b3e fbd2 f73c 7f66 663d
00000380: 8914 34bd 067b 04bd 5ed6 8a3c 2fda 813d
00000390: 8fb2 63bd f244 cbbd 5d38 c1bb a36c 5dbd
000003a0: 29aa e6bd 4339 433e 8095 bdbd a8fb 653d
000003b0: 49ce 55bd b54a bcbb 450c ecbb 8ad2 6abd
000003c0: 59f0 fabd d282 b4bd 1bac 113e c5a4 31be
000003d0: 9308 023e 949b 103c 0c62 553e 5637 a2bc
000003e0: 2b55 92bd 9049 ac3d 2c3a d1bd 75ba 4cbe
000003f0: 0ed0 fc3d 87b7 8e3d 92e3 763d 46d3 7cbe
0.013719641 0.18775208 -0.020034052 -0.025326645 0.10270628 -0.023524852 0.17563047 -0.4314209
0.12009902 -0.06956557 0.106205456 -0.14802857 0.04313244 -0.25958616 0.15640071 0.10362832
-0.030335007 0.25574517 0.07338615 0.12208405 -0.19763252 -0.027172383 0.66917133 0.085483655
0.03336307 0.06533474 -0.02757716 -0.36252913 -0.13182394 -0.014286714 0.026173415 0.08236723
-0.029732833 -0.04746762 -0.14839973 -0.42453277 0.53979206 0.013660051 -0.32870403 0.082131155
0.21505082 -0.066788964 -0.009862445 -0.17365894 0.45705304 -0.051722154 0.108974166 0.49831602
0.0142586045 -0.006997091 -0.06861321 0.46325704 0.22614127 0.08677076 0.026594816 -0.06643846
-0.10798341 -0.12544714 0.41614965 0.119558185 -0.018982261 0.08816806 0.009506678 -0.11555156
0.05287948 -0.48318592 0.13662931 -0.007154301 0.054435816 0.39861917 0.48789683 0.15435198
-0.45894518 -0.07533157 -0.17873383 -0.014780418 0.22696637 -0.15779151 0.18314464 0.15659128
0.2612778 -0.113381445 -0.03550293 -0.079531446 -0.08545934 0.026473366 0.088799 0.05510985
-0.043046534 -0.0811328 0.007424476 -0.3837587 -0.025100105 -0.019184455 0.16041338 0.08991602
-0.046689592 -0.17065245 0.040588323 -0.30122533 0.32228705 0.073382966 -0.45353425 0.0656864
-0.038493335 -0.04429681 0.4094203 -0.020036073 0.050080612 0.019608637 -0.4538657 -0.2114707
0.1030384 -0.1325627 0.061693054 -0.18668284 0.014860804 -0.21281216 0.036553215 -0.11160895
0.26845914 -0.044697706 -0.1475994 0.036553793 -0.59166807 0.0038767112 0.007412086 0.09337558
-0.0612887 0.04795579 -0.07474634 -0.07462412 -0.3293293 -0.015360446 0.022849526 0.03964017
-0.041859858 0.044906285 -0.1515567 -0.038001418 -0.078694105 0.05903497 0.04361983 0.017782567
0.17747556 -0.06276067 -0.053666666 -0.16646746 0.14501075 0.09017732 -0.09350885 -0.10530632
0.063163854 0.10415075 0.09720398 0.075774625 0.12411424 -0.17083538 -0.015037986 0.04305812
-0.024922157 0.030818403 0.13470379 0.14623721 -0.13324802 0.009694847 0.14794126 -0.0693511
0.004306596 0.2648931 0.3778555 -0.07040524 0.011673216 -0.2691538 -0.027828127 0.02135632
-0.3620253 -0.05244688 0.07039199 -0.10752011 0.044877037 -0.19030963 0.21199054 -0.025958963
-0.12406255 0.11029586 -0.09355664 -0.032179523 -0.02873214 -0.16183384 0.15163493 0.11748811
-0.18850039 -0.010727891 0.04507385 0.07246759 -0.2828714 -0.031397432 -0.013150142 -0.090798035
-0.034677982 -0.0744254 -0.08354281 0.20906802 -0.05277228 0.0011465842 0.057676047 -0.19410804
-0.039568298 0.012158364 -0.12082953 0.16733694 -0.0090283165 -0.10218018 -0.14049742 -0.03644207
0.12893867 0.04069845 0.03175169 0.14473315 0.084831156 0.1521296 0.03025197 0.05625009
-0.043964896 -0.032343887 0.016947921 0.06340443 -0.05559021 -0.0992526 -0.0058966116 -0.054058682
-0.11262924 0.19064812 -0.092570305 0.0561482 -0.052198682 -0.0057462105 -0.007203611 -0.057329692
-0.12252874 -0.088140145 0.1422581 -0.17348011 0.12698583 0.008826155 0.20838183 -0.019801777
-0.07145151 0.084124684 -0.102161735 -0.19993003 0.12344371 0.06968599 0.06027562 -0.2468997

hidden_layers.0.0.bias f4 [128]
00000000: 6e14 13be 1e4d ac3d b2c0 edba 66c7 8b3d
00000010: 4725 35bd 38f1 49bd 4a17 4d3d acf7 5e3d
00000020: 2926 7fbd 11d6 24bd 38e0 4a3d 4465 8bbd
00000030: eafc c93d a1b6 5abb 6043 7b3e 7f07 143d
00000040: 4b6c 403b 05be b8bd fb0a 7ebd 195e 4cbc
00000050: f012 b03d e072 5b3d 0ad2 083e a7bb 87bc
00000060: 70ee d7bc ecf9 0ebd a618 bc3d b590 b3bc
00000070: baa7 e9bd b719 b53c 240f 063e 8be7 2c3e
00000080: 8020 aabd fe83 9b3d f521 9abd 5bf1 28bd
00000090: 47a4 433e b139 3bbd 45a6 19bd ae9d 473d
000000a0: ae5e 5dbe e17b 9bbc 914e 1bbd 6eb8 6ebd
000000b0: 8db2 92bd 2891 163e 761a 0c3e c222 fcbc
000000c0: ba9b 963d 520b 723e 09b6 803e 2b6d 05be
000000d0: 4ace c63c 6a42 c5bd 0026 c5bc 2c23 9bbc
000000e0: ed72 da3c b779 fd3c 1c4b 82be bfe0 123d
000000f0: ac31 213d 1828 89bd 98f9 a73b 0e8c 30bc
00000100: 86e7 f63c 2497 9bba 6aae 0339 304a 36bd
00000110: 044f 1c3d c242 823d 61c6 b9bc 5acd 96bd
00000120: 8efb 1f3d f2c4 17be f4fb 223d 04cb d6bc
00000130: 87f1 d43d dca8 bb3d dfe3 213e dff7 813d
00000140: 4d0b fbbc 68c8 f4bd fe54 2bbc 3de6 f6bb
00000150: 3662 eebd 8a3d 8cbc 5fb7 073d e43a b93e
00000160: 6f9b 4d3d bfbe 1fbd 351b 2d3d 884b b73c
00000170: f1f5 433d eb45 cabd f8a3 6c3d f463 a03d
00000180: f119 9dbd 92e1 9bbd 5311 9e3d b5ce 933b
00000190: 429f f53d c46d 243e 0811 edbc 7435 2e3d
000001a0: 2568 833c 9cb4 31bd 0426 f93d 9a8f ad3d
000001b0: 7707 18bd 145e 35be b791 dd3d f73e 013e
000001c0: eb7c 0ebd 5ebd 2cbe 9e38 1a3d b5f1 b0bc
000001d0: 81d1 5f3b f7f0 bcbc 6057 593e 9fce 69bd
000001e0: 3292 ca3c 1c16 0a3d 7103 9fbc 2729 aa3d
000001f0: c900 83be 0df2 2cbc 2b57 863d 929e 383e
-0.14363262 0.084131464 -0.0018139093 0.068251416 -0.044225004 -0.04930231 0.05007104 0.054435417
-0.06229225 -0.040243212 0.049530238 -0.06806424 0.09862693 -0.0033373015 0.2453742 0.03613996
0.0029361423 -0.09020618 -0.06202219 -0.0124736065 0.08597362 0.05357635 0.13361374 -0.016568972
-0.026358813 -0.034906313 0.09184389 -0.021919588 -0.114089444 0.022106988 0.13091713 0.16885202
-0.0830698 0.07593535 -0.07526008 -0.0412458 0.19105636 -0.045709316 -0.037512083 0.04873436
-0.21618149 -0.018979969 -0.037916724 -0.058281355 -0.07162962 0.1470381 0.13681969 -0.030778293
0.07353921 0.23637131 0.25138882 -0.13029926 0.024268288 -0.09631808 -0.024065971 -0.01893767
0.026666129 0.030941827 -0.2544793 0.035858866 0.03935401 -0.066971004 0.0051261894 -0.010775579
0.030139696 -0.0011870605 0.00012558108 -0.044504344 0.038161293 0.06360389 -0.022677602 -0.073633865
0.03905826 -0.14821222 0.039791062 -0.026219852 0.1039763 0.09163067 0.15809582 0.06346106
-0.030645037 -0.11952287 -0.010457275 -0.0075347708 -0.11639826 -0.017119188 0.03313386 0.36177742
0.05019706 -0.03900027 0.042262275 0.022374883 0.04784197 -0.09876617 0.05777356 0.078315645
-0.076709636 -0.076113835 0.07718148 0.0045107254 0.11993267 0.16057497 -0.028938785 0.042531446
0.01604087 -0.043385133 0.12165454 0.084746554 -0.037116494 -0.17711669 0.108188085 0.12621675
-0.0347871 -0.16869113 0.03765165 -0.02159963 0.0034151974 -0.02306412 0.21224737 -0.057081815
0.024727914 0.03371249 -0.01941082 0.083086304 -0.25586537 -0.010555756 0.06559595 0.1802924

output_layer.weight f4 [1, 128]
00000000: 1c8d f4bd 306f 2abe 7d8e 36be 2b12 32be
00000010: ccb8 343e ada4 01be 6702 98be 9f9c fcbd
00000020: 4b57 eb3d b146 3ebe deed 1c3e 5f52 183e
00000030: 1148 4e3e 6cc1 e13d 3b8b 0bbf ede8 013e
00000040: f2f2 35be 4d2d 5c3e 49a8 b1be 94d3 4d3e
00000050: 70d3 ec3d 365c 843e fcd7 9a3d 2af3 803e
00000060: 6a0d 2f3e d781 1c3e 0f38 903e cfc4 2d3e
00000070: 62ee e1be c712 1ebe f783 eebd dadc 6a3e
00000080: 2754 223e cb5e 06bf 614b 17be edbf f0bd
00000090: 3342 813e 4e1e 283e f37f 19be fbc5 0f3e
000000a0: ea83 4fbe 2459 273e 7407 9bbe a62b fd3d
000000b0: 774e 4f3e 4c63 b2be 36a9 2e3e 342d 933e
000000c0: 9ba9 03be bce1 0ebe 35f0 0f3f 300c a4be
000000d0: e897 f63d 506c 033e a514 12be b7b2 f7bd
000000e0: d3d5 bb3d 7864 26be bbe9 8fbe 2f15 1e3e
000000f0: c33f 253e 43cf 45be c585 e63d 8b10 c13d
00000100: 5e37 6a3e 9fb6 2b3e 859c d6bd 6365 763d
00000110: 729c 173e f784 93be 8774 2a3e 5250 113e
00000120: 9d4b fc3d a37d cebe ce93 b9be c1c4 333e
00000130: 50b9 1abe c8bf ef3d 6621 b4be b4ac 33be
00000140: 914f 2c3e 0966 593e f087 783e 6e0b 43be
00000150: de75 be3d 3851 6bbe 4c85 34be 17eb 8dbe
00000160: 1a62 023e 1911 9fbe 9969 62be 2112 94be
00000170: c060 163e 9282 313e 3f83 453e a94d 1dbe
00000180: 6a99 61be 1932 84be 0dae 17be 5c52 443e
00000190: b70b 80be d1b5 073f 1a8c 68be 7e80 fa3d
000001a0: 9fd7 c1be 202a 4fbe 8b50 04bf 26aa 373e
000001b0: 9b24 173e c0c6 f53d d4cc e1be e636 e8bd
000001c0: ae96 da3d b750 e73e 0e11 a33e 1574 e73d
000001d0: 7f5f 1b3d 94de 493e 1407 fdbd 22c5 1e3e
000001e0: f70f e13d f524 023e a093 a3bd d29c 22be
000001f0: cb1d 10bf 4494 263e 5a05 13be 5a22 41be
-0.11940977 -0.16643977 -0.17827792 -0.17389743 0.1764862 -0.12660475 -0.29689333 -0.123345606
0.11491259 -0.18581654 0.15325114 0.14875172 0.20144679 0.110232204 -0.54509324 0.1268651
-0.17768458 0.21501656 -0.34698704 0.20100242 0.11563766 0.258516 0.07560727 0.2518552
0.17094961 0.15283905 0.2816777 0.16969608 -0.44127184 -0.1543685 -0.11646264 0.2293581
0.15852414 -0.5248839 -0.14774849 -0.11755357 0.25245818 0.1641781 -0.14990215 0.14040367
-0.20265165 0.16342598 -0.30279124 0.12361841 0.20244776 -0.34841383 0.17056736 0.28745425
-0.12857668 -0.13953298 0.562259 -0.32040548 0.120406926 0.12834287 -0.14265688 -0.12094634
0.09171643 -0.16249263 -0.2810801 0.15437768 0.16137604 -0.19317345 0.11255983 0.094269834
0.22872683 0.16768883 -0.104790725 0.060155284 0.14805773 -0.28812382 0.16646014 0.14190796
0.123191096 -0.40330228 -0.3624558 0.17555524 -0.15109754 0.11706501 -0.3518173 -0.1754635
0.16827227 0.2123033 0.24270606 -0.19047329 0.09299825 -0.22980201 -0.17628974 -0.27718422
0.12732735 -0.31067732 -0.22110595 -0.2892008 0.14685345 0.17334965 0.19288348 -0.15361656
-0.22031179 -0.2581947 -0.14812489 0.19172043 -0.25008938 0.53011805 -0.22709695 0.12231539
-0.37859818 -0.20230913 -0.516854 0.17936 0.14760058 0.12000799 -0.44101584 -0.11338596
0.10673271 0.45178768 0.3184895 0.11301438 0.03793287 0.19713813 -0.12354866 0.15504888
0.10989373 0.1270941 -0.079871416 -0.15880135 -0.5629546 0.16267496 -0.1435751 -0.1886076
