pytorch/Laplace_eq_outputs/model_lr_0_layers_1_lambda_3.pt (torch, 20826 bytes, 5 tensors)

input_layer.0.weight f4 [64, 2]
0	0xbf40e830	-0.7535429
1	0xbf5ac3c1	-0.85454947
2	0xbe6c32ed	-0.23066302
3	0xbf665069	-0.89966446
4	0x3ec2fea6	0.38084906
5	0xbf5f7db7	-0.873012
6	0x3ba06da5	0.004895883
7	0x3f9bdeb4	1.2177339
8	0xbe1e2694	-0.15444404
9	0xbf1bad15	-0.6081098
10	0x3f6fe1f7	0.9370417
11	0xbf42668f	-0.7593774
12	0x3e1b2722	0.15151647
13	0x3f0c670e	0.5484475
14	0xbfc2e593	-1.522631
15	0xbe0b16f1	-0.1358297
16	0xbe842a7e	-0.2581367
17	0xbf4cede8	-0.80050516
18	0xbb9a0196	-0.004699896
19	0x3f37829a	0.7168366
20	0xbf7ab503	-0.9793245
21	0x3f927da0	1.1444588
22	0xbf3f0e0d	-0.74630815
23	0x3d5d35b7	0.054006305
24	0xbf3da4c6	-0.7407955
25	0x3f42163a	0.75815165
26	0x3d216198	0.039399713
27	0xbfbcf480	-1.4762115
28	0xbeb98f2f	-0.36242053
29	0xbfb3e9da	-1.4055741
30	0xbd9f3bb5	-0.0777506
31	0xbf473a65	-0.7782348
32	0x3f77c743	0.96788424
33	0xbc013a79	-0.007887476
34	0x3e6c7cc3	0.23094468
35	0x3ebb7459	0.36612204
36	0x3e829d14	0.25510466
37	0x3ec7c17c	0.39014804
38	0x3e87146e	0.26382774
39	0x3f2299bf	0.6351585
40	0x3f7b98d3	0.98280066
41	0xbf808d2b	-1.0043081
42	0xbe11beaa	-0.14232889
43	0x3f16127e	0.58621967
44	0xbde0f104	-0.1098347
45	0xbf270b40	-0.6525154
46	0x3d2a12c8	0.041521817
47	0xbef11b3d	-0.47091094
48	0x3f8b8a32	1.0901549
49	0xbfa31bd4	-1.2742867
50	0xbdba453d	-0.090952374
51	0xbf684933	-0.90736693
52	0x3ee2596a	0.44208843
53	0xbf9a4a38	-1.20539
54	0xbcdb63f4	-0.02678106
55	0x3f6ef872	0.9334785
56	0xbedcf137	-0.43152782
57	0x3f398f6f	0.7248449
58	0xbf98ecd2	-1.1947272
59	0xbe8f8879	-0.28033808
60	0xbd2655d5	-0.0406092
61	0xbf5a0d45	-0.851765
62	0x3e32efab	0.17474239
63	0x3eaef85a	0.34173852
64	0xbe41b49f	-0.18916558
65	0x3f75f9ef	0.96084493
66	0x3f787385	0.9705127
67	0xbf817680	-1.0114288
68	0xbcc9b79e	-0.024623688
69	0xbec412b7	-0.38295528
70	0x3d2a9ecc	0.041655347
71	0x3f9e212c	1.2353873
72	0x3d2d4c69	0.0423092
73	0x3f3e65b3	0.7437393
74	0x3eae02e4	0.3398658
75	0x3f3f7072	0.7478095
76	0xbd54a6e0	-0.051916957
77	0xbf873a42	-1.0564654
78	0xbf155878	-0.5833812
79	0xbe5a7a1c	-0.21335644
80	0xbe1fd3f0	-0.15608191
81	0x3f2d8d56	0.67793787
82	0x3f31ab73	0.69402236
83	0xbf57bd85	-0.8427356
84	0xbe0edbca	-0.1395103
85	0x3f9e4b68	1.2366762
86	0x3f631849	0.8870893
87	0xbf629f52	-0.88524354
88	0xbe374ed0	-0.17901158
89	0x3e1797f2	0.14804056
90	0xbeff37c2	-0.49847227
91	0xbe1d9417	-0.15388523
92	0x3f9e7626	1.2379806
93	0x3ea5030b	0.32228884
94	0xbf84d4e6	-1.0377471
95	0x3f631315	0.8870099
96	0x3f5f67e8	0.87267923
97	0x3d89676a	0.06709178
98	0xbf047fdd	-0.51757604
99	0x3e9cfd9b	0.30662236
100	0x3f06a662	0.5259763
101	0xbf8cea29	-1.100896
102	0xbf9be8d7	-1.2180432
103	0x3e864870	0.2622714
104	0xbdb27646	-0.08713965
105	0xbf331b5e	-0.69963634
106	0x3f30e4e7	0.6909928
107	0xbf88a2fe	-1.0674741
108	0xbf3edc1e	-0.7455462
109	0x3eaff792	0.3436857
110	0xbe3a73cc	-0.18208236
111	0xbf9bfa39	-1.2185737
112	0x3f5d7bd9	0.865171
113	0xbf5c5404	-0.860657
114	0xbe03e54a	-0.12880436
115	0x3f5cdc5c	0.8627374
116	0x3e7ad28b	0.24494378
117	0xbf225c85	-0.63422424
118	0x3e895245	0.2682058
119	0x3f37a6d4	0.71738935
120	0x3ee86b0a	0.45394164
121	0x3f1538b9	0.58289677
122	0x3f062d92	0.52413285
123	0x3f5b78d0	0.8573122
124	0xbe1da25b	-0.15393965
125	0xbf80c982	-1.0061495
126	0x3e8dc4b1	0.27689126
127	0xbf4c6959	-0.7984825

input_layer.0.bias f4 [64]
0	0x3e88dcc6	0.26730937
1	0xbf5962cc	-0.8491638
2	0xbf2f8adf	-0.68571275
3	0x3f8bc255	1.091868
4	0x3f04b9fe	0.518463
5	0xbedbbb51	-0.4291635
6	0xbf7c75f3	-0.98617476
7	0x3fb374da	1.4020035
8	0xbf5361d5	-0.82571155
9	0xbee48dec	-0.44639528
10	0x3e0f9ef2	0.14025477
11	0xbf53e34d	-0.8276871
12	0xbde073d8	-0.109595954
13	0xbfa8585f	-1.3151969
14	0xbfc68bf8	-1.5511465
15	0xbeaa8d91	-0.33311132
16	0x3f455cd6	0.7709478
17	0x3f484983	0.7823717
18	0xbf85f691	-1.0465871
19	0x3f5a7c5e	0.8534602
20	0xbd6503d5	-0.055911858
21	0xbef5ac48	-0.47983003
22	0x3ef490d4	0.47766745
23	0xb94d6512	-0.00019587975
24	0x3e980c90	0.29697084
25	0xbf543bf9	-0.8290401
26	0xbf5bfa42	-0.8592874
27	0x3f3b2787	0.7310719
28	0xbf1faf88	-0.62377214
29	0xbf8cfd81	-1.1014863
30	0x3f43839b	0.7637269
31	0xbf38fc0c	-0.72259593
32	0x3f548732	0.8301879
33	0xbe70f735	-0.23531802
34	0x3ee4623e	0.44606203
35	0x3f962e33	1.1732849
36	0xbf3fdb22	-0.74943745
37	0x3f3f9a42	0.74844754
38	0xbf6d4c63	-0.9269468
39	0xbda3bcbf	-0.07994985
40	0x3e50f28f	0.20405029
41	0x3ec56a22	0.38557535
42	0x3f89b912	1.0759604
43	0x3eb8c21b	0.3608559
44	0xbf477b80	-0.7792282
45	0x3f29e571	0.66365725
46	0xbfcc8e83	-1.5980991
47	0xbde5b896	-0.112168476
48	0xbf2030bb	-0.62574357
49	0x3f30e9ea	0.69106925
50	0xbf30a907	-0.69007915
51	0x3f3d3c3f	0.73920053
52	0xbf045040	-0.5168495
53	0xbf138f16	-0.57640207
54	0xbd99bf19	-0.07507152
55	0xbf9c0be4	-1.2191129
56	0x3ead8429	0.33889893
57	0x3f1b0665	0.6055663
58	0xbed5a0f7	-0.4172437
59	0xbf798f2b	-0.9748408
60	0x3f2c31d5	0.6726354
61	0x3f8fcaa5	1.1233717
62	0xbf6b13fe	-0.9182738
63	0x3f1b7ddf	0.6073894

hidden_layers.0.0.weight f4 [64, 64]
0	0x3c996bd5	0.018728176
1	0x3d7817bb	0.060569506
2	0x3be402f3	0.0069583594
3	0x3dafa56e	0.08576475
4	0x3df22e85	0.11825279
5	0xbdf14ba5	-0.11782006
6	0xbd8a649a	-0.067574695
7	0xbd248053	-0.040161442
8	0xbde592d0	-0.11209643
9	0xbdb38344	-0.08765271
10	0xbdb0faff	-0.08641624
11	0xbcd31546	-0.02576698
12	0x3db9ca80	0.09071827
13	0x3d592464	0.05301322
14	0x3dd5e0cf	0.104432695
15	0xbd0f4cb8	-0.034985274
16	0xbdc8b642	-0.09800388
17	0xbcfc4c44	-0.030798085
18	0x3dd1415d	0.10217545
19	0xbde19b29	-0.110159226
20	0x3ce7dd0a	0.028303642
21	0xb947ce84	-0.00019055052
22	0x3d914596	0.070933506
23	0x3cd1358e	0.025538232
24	0xbda2eeda	-0.079557136
25	0x3dca8f88	0.09890658
26	0x3d30cc45	0.043163557
27	0xbdaa3b64	-0.08312109
28	0x3d5a87bb	0.0533521
29	0xbc8e7fb2	-0.017394874
30	0x3d497675	0.049185235
31	0x3df5b101	0.119966514
32	0x3a012416	0.00049263367
33	0x3dbf7d8a	0.093501166
34	0xbdc3bb62	-0.09557225
35	0x3db37f81	0.08764554
36	0xbdc5ddf4	-0.09661475
37	0xbdd0051e	-0.10157226
38	0x3dd7d99f	0.10539555
39	0x3e13ac36	0.14421162
40	0x3d87fe9f	0.06640362
41	0xbdad268f	-0.0845462
42	0x3cc352be	0.023843165
43	0x3da38eda	0.07986231
44	0x3e053c9c	0.13011402
45	0x3de05a28	0.10954696
46	0xbd83b60e	-0.064312086
47	0x3c804e25	0.015662262
48	0xbdf5f67f	-0.12009906
49	0xbd37be0d	-0.04485898
50	0xbd8e7ae8	-0.06957036
51	0x3e1b6001	0.15173341
52	0xbd9c7b3a	-0.07640691
53	0x3cf7a68f	0.030230789
54	0x3d5e33d3	0.054248642
55	0x3da67889	0.08128459
56	0x3df5c4f0	0.120004535
57	0x3d0d018b	0.0344253
58	0xbd89a97f	-0.06721782
59	0x3e0209c1	0.12699033
60	0xbde2a854	-0.11067262
61	0xbda25c20	-0.07927728
62	0x3ca9b316	0.020715278
63	0x3de978cf	0.113999955
64	0x3ec51d38	0.38498855
65	0xbddf79a9	-0.10911877
66	0x3e253072	0.16131762
67	0x3e1092a8	0.14118445
68	0x3ea9aff8	0.33142066
69	0x3e2fc9a0	0.17166758
70	0xbd86c033	-0.06579628
71	0xbd2082c0	-0.039187193
72	0xbe41b596	-0.18916926
73	0xbe992e77	-0.29918262
74	0xbd9e3b3f	-0.07726144
75	0xbe2392d7	-0.15973984
76	0xbe34b168	-0.176458
77	0xbe67f1eb	-0.22650878
78	0xbe44d115	-0.19220383
79	0x3dea984e	0.11454831
80	0x3e947f4b	0.29003367
81	0x3bcaf816	0.006194125
82	0xbe15f5e0	-0.14644575
83	0x3d1172ff	0.03551006
84	0x3d6b256c	0.057408735
85	0xbdcbdc57	-0.09954136
86	0x3eb4ab0a	0.35286742
87	0x3dfc4d7b	0.12319466
88	0xbc1bf842	-0.0095196385
89	0xbddb0049	-0.10693414
90	0x3ddd18ca	0.10795744
91	0x3e0ef930	0.13962245
92	0xbdb63ada	-0.08897944
93	0x3df7a25e	0.12091516
94	0x3ea30f98	0.31847835
95	0xbc93bb58	-0.018033668
96	0x3e0c99e4	0.1373058
97	0x3db71d27	0.08941107
98	0x3eafcc76	0.3433568
99	0x3e55cc5d	0.2087874
100	0xbe05a3ac	-0.13050717
101	0x3db9ef44	0.090788394
102	0xbe263e2b	-0.16234653
103	0x3eae6477	0.34061024
104	0xbdeddd75	-0.11614505
105	0x3dcc7f40	0.099852085
106	0x3d1145d7	0.035466995
107	0x3e53a1dd	0.20667215
108	0xbe449a56	-0.191995
109	0xbcb6fcec	-0.0223374
110	0xbd3e2f35	-0.04643174
111	0xbe231cc4	-0.15928942
112	0xbd614a94	-0.055002764
113	0xbb828039	-0.0039825705
114	0xbb813c35	-0.003943945
115	0x3d68ca35	0.056833465
116	0xbd095fa9	-0.033538494
117	0x3e17210e	0.14758703
118	0xbe0e2af5	-0.13883574
119	0xbeb96e83	-0.36217126
120	0x3e4302ac	0.19043988
121	0xbd179880	-0.03701067
122	0x3bd7d07d	0.006586133
123	0xbe3d813a	-0.18506327
124	0x3cff8bc8	0.031194583
125	0x3e8c995a	0.27460748
126	0xbe1fb072	-0.15594652
127	0x3e036df8	0.12834918
128	0xbca2cd6d	-0.019873345
129	0x3e372800	0.17886353
130	0xbe20ef2f	-0.15716241
131	0xbe260b10	-0.16215158
132	0x3dff5fb9	0.124694295
133	0xbe2a11b4	-0.16608316
134	0x3d103e2d	0.035215545
135	0xbcceea76	-0.025258284
136	0xbcf39989	-0.029736297
137	0x3d8a6d5d	0.06759141
138	0x3db36ec7	0.087613635
139	0x3c0e8a4d	0.008699966
140	0x3e058efa	0.13042822
141	0x3d9e5bae	0.0773233
142	0x3e8ec9ae	0.27888244
143	0xbe02ce21	-0.12773944
144	0xbd9e3476	-0.0772485
145	0xbe0faf29	-0.14031662
146	0x3d20120a	0.039079703
147	0xbe140daa	-0.14458337
148	0xbe33d486	-0.1756154
149	0x3de4b7ef	0.11167895
150	0x3aeecbe0	0.0018218718
151	0xbd523c29	-0.051326904
152	0x3dec1da4	0.11529091
153	0x3dfa7e40	0.122311115
154	0xbd675f20	-0.056487203
155	0xbe04d6ad	-0.12972517
156	0xbd8c7857	-0.068588905
157	0x3c97d993	0.018536365
158	0xbd27cadf	-0.040964957
159	0x3d57e82e	0.05271166
160	0xbd23b35b	-0.03996597
161	0xbe2c1dc0	-0.16808224
162	0x3db495d6	0.088176414
163	0xbcb5ada9	-0.022177534
164	0x3c2a17b3	0.010381627
165	0xbd818787	-0.06324678
166	0x3db61884	0.08891395
167	0x3ecaf7a4	0.3964206
168	0xbe0c09ba	-0.13675585
169	0xbd3b9fdc	-0.04580675
170	0x3d8400a5	0.064454354
171	0x3b8907df	0.0041818465
172	0x3d815068	0.063141644
173	0x3d058413	0.03259666
174	0x3dc174ce	0.09446107
175	0x3dd5661d	0.10419867
176	0x3bdb5f29	0.0066946936
177	0x3d0e553a	0.034749247
178	0x3d05760f	0.032583293
179	0x3e29e304	0.16590506
180	0x3dc89f6b	0.097960316
181	0xbe0585a4	-0.13039261
182	0x3e8513cf	0.25991675
183	0x3e579b29	0.21055283
184	0xbd5a3850	-0.05327636
185	0xbdd7343b	-0.10508009
186	0xbdc74e9a	-0.09731789
187	0x3dbdf060	0.092743635
188	0xbdabd864	-0.083908826
189	0xbe451601	-0.19246675
190	0x3d4bf93f	0.049798246
191	0x3d36c0b1	0.04461736
192	0xbdbf3063	-0.09335401
193	0xbe4a2a21	-0.19742633
194	0xbe1145ff	-0.14186858
195	0x3e92145e	0.28531164
196	0xbe119ca4	-0.1421991
197	0x3e166a34	0.14688951
198	0xbcb055d5	-0.021525303
199	0xbede894b	-0.4346412
200	0xbdab09b6	-0.083514616
201	0x3e3635ac	0.17793912
202	0x3d800813	0.0625154
203	0xbdcd757f	-0.10032176
204	0x3db4cb13	0.08827796
205	0xbee4a5d8	-0.4465778
206	0xbdb7a3eb	-0.08966812
207	0xbec89369	-0.39174965
208	0xbdcc72cd	-0.09982834
209	0x3e03874e	0.12844583
210	0x3c7da2ba	0.015480692
211	0xbd2e075a	-0.04248748
212	0xbd25784c	-0.040397927
213	0x3e4ce113	0.20007734
214	0xbd1edd22	-0.038785107
215	0xbe219512	-0.15779522
216	0x3bde16df	0.006777629
217	0xbdcca865	-0.09993056
218	0xbe3d751f	-0.1850171
219	0x3e98198d	0.29706994
220	0xbca46b2d	-0.020070637
221	0xbd274c1f	-0.04084408
222	0xba7bf3ff	-0.00096112484
223	0xbce74cfd	-0.028234953
224	0x3e0c8c36	0.13725361
225	0x3de3d011	0.1112367
226	0xbd722f9b	-0.05912743
227	0x3ea0d111	0.31409505
228	0x3d848ff1	0.06472767
229	0x3e619487	0.22029315
230	0xbe1f9686	-0.15584764
231	0xbea63843	-0.324648
232	0x3e15c575	0.14626105
233	0xbdc400d8	-0.095704734
234	0x3ea2ce0c	0.31797826
235	0xbdfce1c6	-0.1234775
236	0x3d4e6e20	0.050397992
237	0x3d8de482	0.0692835
238	0x3b9e1867	0.0048246863
239	0x3dcbbe0d	0.09948359
240	0x3d43ee0c	0.04783444
241	0x3ae14504	0.0017186706
242	0xbc67ffff	-0.014160155
243	0xbcd479f5	-0.02593706
244	0xbecf324d	-0.40468064
245	0xbc881c23	-0.01661498
246	0x3d898490	0.067147374
247	0xbe278560	-0.16359472
248	0xbd8381a9	-0.06421215
249	0x3ec833e1	0.3910208
250	0xbd2db60b	-0.042409938
251	0xbc2e6305	-0.010643725
252	0x3d86e042	0.065857425
253	0x3e5705fa	0.20998374
254	0xbebfada1	-0.37437156
255	0xbe781802	-0.24227908

hidden_layers.0.0.bias f4 [64]
0	0x3cf8fa0e	0.030392673
1	0x3d613f13	0.054991793
2	0xbd1a1468	-0.037617117
3	0x3dd1ae3b	0.1023831
4	0xbe2becef	-0.16789602
5	0xbdd1946e	-0.10233389
6	0xbdd52c5d	-0.10408852
7	0xbdaf6d4f	-0.08565771
8	0x3e443fe1	0.19164993
9	0xbcd0f629	-0.025508003
10	0xbdd03d8b	-0.101679884
11	0x3cda6d15	0.026663342
12	0xbd89c916	-0.06727807
13	0x3eb07b22	0.34468943
14	0xbda2be5c	-0.079464644
15	0xbdcf4e80	-0.101223946
16	0x3e100234	0.1406334
17	0x3dca16ba	0.09867616
18	0xbddea9b2	-0.108722106
19	0x3dbdfe0c	0.09276971
20	0xbca1c6a0	-0.019748032
21	0xbd9a4ba2	-0.07533957
22	0x3db0d954	0.08635202
23	0x3eb390b4	0.35071337
24	0x3dc3382d	0.09532199
25	0x3d44d780	0.04805708
26	0xbeaabb31	-0.3334594
27	0xbde74440	-0.112923145
28	0xbd9e3852	-0.07725586
29	0x3df28513	0.11841788
30	0x3d6a5512	0.057210036
31	0x3dd4891c	0.10377714
32	0xbdac0fac	-0.08401427
33	0x3e8f1ab2	0.27950054
34	0x3ee837c8	0.45355058
35	0x3dd5ab40	0.10433054
36	0x3d3c8b8a	0.046031512
37	0x3c9125e5	0.017718265
38	0xbd81203f	-0.063049786
39	0x3d4ef496	0.050526224
40	0xbd26d2c3	-0.04072834
41	0x3d45a032	0.048248477
42	0xbde0a7e0	-0.109695196
43	0xbe1a9da6	-0.150992
44	0x3d844d88	0.064601004
45	0xbd8b2b27	-0.0679534
46	0x3d7c6722	0.061621793
47	0xbe480774	-0.19534093
48	0x3da58697	0.080823116
49	0x3d14a202	0.036287315
50	0x3d37557e	0.044759266
51	0x3c43d51b	0.011952664
52	0xbcf294e9	-0.029612022
53	0xbdbfa11a	-0.093568996
54	0x3d7ea437	0.062168326
55	0x3e221fb9	0.15832414
56	0xbe0c91e1	-0.13727523
57	0x3bff4044	0.0077896435
58	0xbd90107f	-0.070343964
59	0x3a4f1d19	0.0007900759
60	0xbdb658b5	-0.08903638
61	0x3d8436d6	0.064557716
62	0xbd46ebcf	-0.04856473
63	0x3e40f5fe	0.18843839

output_layer.weight f4 [1, 64]
0	0x3dfad4a8	0.12247592
1	0xbdcf5d91	-0.10125268
2	0x3df462ce	0.11932908
3	0x3e3610b9	0.17779817
4	0x3e8712b7	0.26381466
5	0xbe4ccd94	-0.20000297
6	0xbe1292ec	-0.14313859
7	0x3df6ef05	0.12057308
8	0x3ecd9838	0.40155196
9	0xbd90cd4f	-0.070704095
10	0x3e1f1d55	0.15538533
11	0x3e3ddc3c	0.18541044
12	0x3df1ec8e	0.11812697
13	0x3e3020f6	0.17200074
14	0x3d9a0b42	0.075216785
15	0xbe2bd437	-0.16780172
16	0xbd4e38d2	-0.050347157
17	0x3d807faa	0.0627435
18	0x3e0d69ab	0.1380984
19	0x3e6a60b0	0.22888446
20	0xbe2f7979	-0.17136182
21	0xbe3ab6f9	-0.18233861
22	0x3e528877	0.2055987
23	0x3e5fd701	0.21859361
24	0x3da3c520	0.07996583
25	0xbe2068cf	-0.15664981
26	0x3f2e8416	0.681703
27	0xbe83d7a4	-0.25750458
28	0x3e6182a4	0.22022492
29	0xbe042264	-0.12903744
30	0xbddded3f	-0.10836267
31	0xbe868200	-0.26271057
32	0x3db0b035	0.08627359
33	0x3eb20d2c	0.34775674
34	0x3f52de32	0.82370293
35	0xbe533cac	-0.20628613
36	0x3e588fb4	0.21148568
37	0xbd652aaf	-0.05594891
38	0x3e6c36bf	0.23067759
39	0x3e066619	0.13124885
40	0x3df4d37b	0.11954399
41	0xbd546ad0	-0.051859677
42	0x3e24428b	0.16041009
43	0x3de7f633	0.11326256
44	0xbe77a56d	-0.24184199
45	0xbe7b8935	-0.24564059
46	0xbdd1d72a	-0.102461174
47	0xbdc2286e	-0.094803676
48	0xbe5718ed	-0.21005602
49	0xbd055a4c	-0.032556817
50	0xbdfd793e	-0.12376641
51	0xbe1be2a3	-0.15223174
52	0x3d62cae2	0.055369265
53	0x3eb2ac96	0.34897298
54	0x3e43f9bb	0.19138233
55	0x3e120a2c	0.14261693
56	0x3df2970c	0.11845216
57	0x3cdc5fa5	0.026901076
58	0xbd8c6fee	-0.068572864
59	0x3d4e27ce	0.05033093
60	0x3d8c1f44	0.06841901
61	0xbe806d82	-0.25083548
62	0x3e1a8f09	0.15093626
63	0x3e2b2d0e	0.16716406
