pytorch/Laplace_eq_outputs/model_lr_1_layers_1_lambda_3.pt (torch, 20826 bytes, 5 tensors)

input_layer.0.weight f4 [64, 2]
0	0xbee795b3	-0.452314
1	0xbe85353a	-0.2601717
2	0xbf28aad1	-0.65885645
3	0xbebc6de5	-0.36802593
4	0xbf7012ac	-0.9377849
5	0x3eab139d	0.334134
6	0x3f817efe	1.011688
7	0xbf990247	-1.195382
8	0x3ce6ac94	0.028158464
9	0x3ea027c6	0.31280345
10	0x3f10f612	0.56625473
11	0xbf1435f5	-0.5789483
12	0xbf2b0dc9	-0.6681791
13	0x3e9f815a	0.31153375
14	0x3f07d86c	0.5306461
15	0x3f541467	0.8284363
16	0x3e0d472e	0.13796684
17	0xbf44f641	-0.76938254
18	0x3dbd4b75	0.09242908
19	0xbfa1c92a	-1.2639515
20	0xbe8e00b5	-0.27734914
21	0xbf7a245d	-0.97711736
22	0xbe534b8d	-0.20634289
23	0xbebff0c0	-0.37488365
24	0xbf192b53	-0.5983173
25	0xbf40d5f5	-0.7532647
26	0xbe87e644	-0.26542866
27	0xbec03993	-0.37543926
28	0xbdd348da	-0.1031663
29	0x3edbc827	0.42926142
30	0xbe159caa	-0.14610544
31	0xbf2b3b81	-0.6688767
32	0x3e9ef7cd	0.31048432
33	0x3eb7a0c7	0.3586485
34	0x3e094cec	0.1340825
35	0x3f47e86a	0.7808901
36	0xbf430e33	-0.7619354
37	0xbe84318a	-0.25819045
38	0xbc3ceb21	-0.0115306685
39	0xbec06649	-0.37578037
40	0x3ed26297	0.41090843
41	0xbf03a03d	-0.5141638
42	0x3eaf2150	0.34205103
43	0x3f633084	0.88745904
44	0xbe8421a9	-0.2580693
45	0xbf6f333b	-0.93437546
46	0x3e5fc022	0.21850637
47	0xbf32d252	-0.69852173
48	0x3f891d3d	1.0712048
49	0xbed0d221	-0.40785316
50	0xbd519035	-0.051162917
51	0x3f371834	0.71521306
52	0xbf16f1e5	-0.5896285
53	0x3d97c3d1	0.07410396
54	0x3e99a652	0.30009705
55	0x3f50160e	0.8128365
56	0x3fb7eb04	1.4368596
57	0xbfb7975f	-1.434307
58	0xbe7d7a82	-0.24753764
59	0x3f2852a4	0.657511
60	0xbcf5ec2b	-0.03001984
61	0x3f73e1cd	0.9526642
62	0x3ed069f6	0.40705842
63	0xbf3bf77e	-0.7342452
64	0x3f110a31	0.56656176
65	0x3ed28bf8	0.41122413
66	0x3f1ad242	0.6047708
67	0xbf21aa25	-0.63150245
68	0xbe1b7488	-0.15181172
69	0xbf57056c	-0.8399265
70	0x3f288fd9	0.65844494
71	0x3e78a91f	0.24283265
72	0x3f633de2	0.887663
73	0xbf7d2a2c	-0.98892474
74	0xbda6005c	-0.08105537
75	0x3f83ae6a	1.0287602
76	0xbef8a5cb	-0.4856399
77	0x3f4e3b16	0.8055891
78	0xbe16b6f4	-0.14718229
79	0xbea1e08a	-0.31616622
80	0x3e04231c	0.12904018
81	0xbf3f9e19	-0.7485061
82	0x3f31093d	0.6915472
83	0xbf0cfccb	-0.5507323
84	0xbda501c8	-0.0805698
85	0x3f3eb3ec	0.7449329
86	0xbf535fd1	-0.8256808
87	0x3f78ff78	0.97264814
88	0xbf230857	-0.636846
89	0x3f39cc6d	0.72577554
90	0x3ce12e9f	0.027488051
91	0xbf2ed929	-0.6830011
92	0xbe864fa1	-0.26232627
93	0x3f15b071	0.58472353
94	0x3efa08ce	0.48834842
95	0x3f0fe041	0.5620156
96	0x3f5f32b5	0.8718675
97	0xbec89706	-0.39177722
98	0xbf349f92	-0.70555985
99	0xbea9da7f	-0.33174512
100	0xbd8f6822	-0.07002284
101	0xbf18a68e	-0.5962914
102	0xbf918b6b	-1.1370672
103	0x3f28a64e	0.6587876
104	0x3eedde5f	0.46458718
105	0xbcef00ae	-0.029175129
106	0xbf1fe67c	-0.62461066
107	0xbe71a37c	-0.2359752
108	0x3dabfdfe	0.083980545
109	0xbf32a21b	-0.69778603
110	0xbd1fd1cd	-0.03901844
111	0xbf0ad2df	-0.54228014
112	0x3ce2ab30	0.02766952
113	0x3f272910	0.6529703
114	0x3f05304f	0.5202684
115	0xbdbdc50e	-0.09266101
116	0xbc36df27	-0.011161602
117	0xbf4c9583	-0.79915637
118	0x3f6db73b	0.9285771
119	0xbf89bef5	-1.07614
120	0x3c4714b1	0.012150929
121	0x3f74d3d2	0.9563571
122	0x3f620d65	0.8830169
123	0xbd488bcf	-0.048961457
124	0xbd0b769b	-0.034048658
125	0x3f251584	0.64485955
126	0xbf2bd8cd	-0.67127687
127	0xbdae1a3d	-0.08501098

input_layer.0.bias f4 [64]
0	0xbebf9aac	-0.37422693
1	0x3e888565	0.26664272
2	0xbe7c049d	-0.24611135
3	0x3d7a1637	0.061056342
4	0x3e4d6ec0	0.20061779
5	0x3e2e70d1	0.17035224
6	0xbeecc3fc	-0.46243274
7	0x3f9b27c3	1.2121509
8	0xbf17c2e9	-0.59281784
9	0xbf9018a0	-1.1257515
10	0xbf858a02	-1.0432742
11	0x3f16c138	0.5888858
12	0xbdca455d	-0.09876511
13	0x3f574d7a	0.84102595
14	0xbe9a9a66	-0.30195922
15	0x3eb345e1	0.3501425
16	0xbf06e800	-0.52697754
17	0xbf2f1a48	-0.68399477
18	0x3f7704fd	0.96491987
19	0x3ed7236d	0.42019215
20	0x3e913910	0.28363848
21	0x3f3a9e82	0.72898114
22	0xbf305df5	-0.6889337
23	0xbf1ff767	-0.6248688
24	0xbf177a84	-0.5917132
25	0xbf010be2	-0.50408757
26	0xbf1b273f	-0.6060676
27	0xbf47297e	-0.7779769
28	0xbe3fde2c	-0.18737096
29	0xbf1f8047	-0.6230511
30	0x3f40c950	0.7530718
31	0x3eba7883	0.36420068
32	0x3f27799b	0.6541993
33	0x3e50e529	0.20399918
34	0x3f714305	0.9424289
35	0x3ea59e48	0.32347322
36	0x3bf9ae16	0.0076196296
37	0x3f6f102c	0.9338405
38	0x3f1550db	0.583265
39	0xbe78e8ad	-0.24307509
40	0xbf386bbf	-0.7203941
41	0x3f0eb40b	0.55743474
42	0x3f3075c5	0.689297
43	0x3d55eaaf	0.052225765
44	0xbca4cae4	-0.020116277
45	0x3f1f6b60	0.62273216
46	0xbeb67e9b	-0.35643467
47	0x3e129fca	0.14318767
48	0xbed37e83	-0.41307458
49	0xbe3038d4	-0.17209178
50	0x3f2b81c6	0.66994894
51	0x3e73b599	0.23799743
52	0xbcd913d4	-0.026498713
53	0x3f0972b5	0.53690654
54	0x3eea2b90	0.4573636
55	0x3ec84cd2	0.3912111
56	0x3ea78666	0.32719725
57	0xbdba6cd9	-0.09102792
58	0x3f492852	0.7857715
59	0xbe1029ff	-0.1407852
60	0xbf6289a6	-0.88491285
61	0x3f6fdb63	0.9369413
62	0x3f3e4559	0.74324566
63	0xbf52fb8b	-0.82415074

hidden_layers.0.0.weight f4 [64, 64]
0	0xbe45e0d4	-0.19324046
1	0xbd1903c3	-0.037357103
2	0xbe41de4c	-0.18932456
3	0x3e01909c	0.1265282
4	0x3ca661ad	0.020310247
5	0x3d615dd3	0.05502112
6	0xbe4dac36	-0.20085225
7	0x3e11ee4e	0.14251062
8	0x3d1f548b	0.038898986
9	0x3d9dd168	0.07705957
10	0xbe1acbc3	-0.15116791
11	0xbd9c310d	-0.07626543
12	0x3d61aa64	0.055094138
13	0x3cd94692	0.026522908
14	0xbdc00d93	-0.09377589
15	0xbd960af9	-0.073263116
16	0xbd45e997	-0.04831847
17	0xbdd13779	-0.10215659
18	0xbd82695c	-0.06367752
19	0x3dbf6552	0.09345497
20	0x3dca64e6	0.09882526
21	0x3da1ce3d	0.07900665
22	0x3d911061	0.07083202
23	0xbe3466c5	-0.17617328
24	0xbe11b6f4	-0.14229947
25	0xbd01136d	-0.031512666
26	0xbe50f28a	-0.20405021
27	0xbcbc2696	-0.022967618
28	0x3d3ca972	0.046060033
29	0xbdf531e6	-0.11972408
30	0x3d844ae6	0.06459598
31	0x3e590ddd	0.21196695
32	0x3dd7512a	0.10513528
33	0xbd010901	-0.031502727
34	0x3e17f73e	0.14840409
35	0x3e33c15b	0.17554228
36	0x3e314015	0.17309602
37	0x3d5cd714	0.053916052
38	0xbcd0ca34	-0.025487043
39	0xbe3f3aa5	-0.18674715
40	0xbd9608a5	-0.073258676
41	0x3e8d6e49	0.27623203
42	0x3e2aba72	0.16672686
43	0xbe0ab597	-0.13545834
44	0xbd872612	-0.06599058
45	0x3d940bfe	0.0722885
46	0xbe3ac1c7	-0.18237983
47	0xbb56ef85	-0.0032796573
48	0xbd9f0ee8	-0.07766515
49	0xbc54c9b6	-0.012987545
50	0x3d388147	0.045045163
51	0xbde198a5	-0.11015443
52	0x3def0e57	0.11672657
53	0x3d7eb1e4	0.06218137
54	0x3d9d787d	0.07688997
55	0xbcd47985	-0.025936851
56	0x3dd8b7e0	0.105819464
57	0xbc58764a	-0.013211796
58	0x3daa7568	0.08323175
59	0x3e0feffc	0.1405639
60	0x3d61af27	0.05509868
61	0x3e0a9368	0.13532794
62	0x3dd3e959	0.10347242
63	0x3ccef065	0.025261113
64	0xbdb29dd8	-0.087215126
65	0x3d31235f	0.043246623
66	0x3e608c62	0.21928552
67	0x3d8e4dd2	0.06948437
68	0x3d8b03f4	0.067878634
69	0x3c287bf6	0.010283461
70	0xbde05be6	-0.10955028
71	0xbd501b75	-0.050807435
72	0x3e161cec	0.1465947
73	0xbd7b118c	-0.06129603
74	0x3d722300	0.05911541
75	0x3d89911a	0.06717129
76	0x3d98dd4f	0.07464086
77	0xbdb2954e	-0.08719884
78	0xbe173664	-0.14766842
79	0x3e9ed382	0.31020743
80	0x3c65bb51	0.0140217105
81	0xbde40857	-0.11134403
82	0xbdcea4f4	-0.10090056
83	0x3e4e556b	0.20149772
84	0x3e6cddd1	0.23131491
85	0xbe765cb2	-0.24058798
86	0x3e5a5704	0.21322256
87	0xbd7ecad7	-0.062205162
88	0x3d66f407	0.056385066
89	0xbe09d2da	-0.1345934
90	0xbe01bde1	-0.1267009
91	0x3cb99393	0.022653377
92	0xbd2d7c35	-0.04235478
93	0xbe54c1f0	-0.20777106
94	0xbe4ed3fe	-0.20198056
95	0x3dcbcd7e	0.09951304
96	0xbe397829	-0.18112244
97	0x3cbdb2ba	0.023156513
98	0xbd72e041	-0.059295896
99	0xbc4316b5	-0.011907269
100	0x3dfbab5f	0.12288546
101	0xbb4b2af8	-0.0031000953
102	0xbdd4fd0f	-0.103998296
103	0xbdc94719	-0.09828014
104	0xbd695194	-0.056962565
105	0x3d80f2cc	0.0629631
106	0x3dac000b	0.08398446
107	0xbe3b9149	-0.1831714
108	0xbe4e1eca	-0.20128933
109	0x3dc90b0b	0.098165594
110	0xbe7f447a	-0.24928465
111	0xbe072889	-0.13199057
112	0x3dd0c9c4	0.10194734
113	0xbce4e2b2	-0.027940128
114	0x3e58d435	0.211747
115	0x3d23f7b8	0.040031165
116	0xbdbe31b2	-0.092868224
117	0xbdc7f419	-0.09763355
118	0x3e5a0a3c	0.21292967
119	0x3e78b6b9	0.24288453
120	0xbe59b11c	-0.21258968
121	0xbc98632b	-0.018601974
122	0xbd5d864c	-0.054083154
123	0x3e61ef9b	0.22064058
124	0xbe147d4f	-0.14500926
125	0x3da67b2e	0.081289634
126	0x3dcd0db8	0.10012382
127	0xbd6eca1a	-0.058298208
128	0x3db13da3	0.086543344
129	0x3c0a6667	0.008447266
130	0x3cde04c3	0.02710188
131	0x3d87cb7f	0.06630611
132	0x3cb837aa	0.02248748
133	0x3d7b0c09	0.061290774
134	0x3d6c9328	0.057757527
135	0xbd3fc281	-0.046816353
136	0x3d96d0b2	0.07364024
137	0xbd130a99	-0.03589878
138	0xbd00e4e6	-0.031468295
139	0xbd0db32d	-0.034594703
140	0xbb490515	-0.0030673195
141	0xbcd91bc8	-0.026502505
142	0xbcc48171	-0.023987504
143	0xbe0429ff	-0.12906645
144	0xbd4e6b11	-0.050395075
145	0x3ce24b90	0.027623922
146	0x3dbb0399	0.091315456
147	0x3bab0bbe	0.0052199056
148	0xbdceaa56	-0.10091083
149	0xbdfb03c9	-0.12256581
150	0x3e0c0791	0.13674761
151	0xbdb25186	-0.087069556
152	0xbd539e47	-0.051664617
153	0x3dd690ac	0.10476813
154	0x3c9c726c	0.01909753
155	0xbc97f7cd	-0.018550778
156	0xbd925ec7	-0.071469836
157	0xbd35deb4	-0.04440184
158	0x3d044d29	0.03230015
159	0xbdb24bc8	-0.087058604
160	0xbd1bb350	-0.038012803
161	0xbcc49ae8	-0.023999646
162	0xbd96b928	-0.073595345
163	0x3d9dfdc2	0.07714416
164	0x3b8ddd80	0.0043293834
165	0x3dc6b8dd	0.097032286
166	0x3e295cb7	0.16539274
167	0xbdaf3aab	-0.08556112
168	0x3d4cbd3a	0.049985148
169	0xbd79a2b8	-0.060946196
170	0x3d3a9715	0.04555424
171	0x3dc2cb4a	0.095114306
172	0xbcd8b723	-0.026454514
173	0x3d8b61fa	0.06805797
174	0x3b0d20e0	0.0021534488
175	0x3d8119b6	0.06303732
176	0x3dc5849b	0.09644433
177	0x3c7c41f3	0.015396583
178	0xbd9e6f98	-0.077361286
179	0xbd2c1333	-0.042010497
180	0xbc1df3ea	-0.009640673
181	0x3d84f352	0.06491722
182	0xbda2a112	-0.07940878
183	0xbd39ebf1	-0.045391027
184	0xbb982941	-0.0046435897
185	0x3cd5d233	0.026101207
186	0xbdb3dfc0	-0.08782911
187	0x3d98aabf	0.07454442
188	0x3d1cb67d	0.038259972
189	0xbdef1606	-0.116741225
190	0x3e292f51	0.16521956
191	0xbd6bcfd6	-0.057571255
192	0xbe1f3142	-0.15546134
193	0x3d522604	0.051305786
194	0x3d45c08f	0.04827934
195	0x3da401ab	0.08008131
196	0x3e2cb1da	0.1686472
197	0xbb85c29e	-0.004082038
198	0xbe0aa16d	-0.13538142
199	0x3c90fdd8	0.017699167
200	0x3ddf79df	0.10911917
201	0x3dc56c33	0.09639778
202	0xbd78d2da	-0.06074796
203	0x3b9d9f72	0.004810267
204	0xbe696991	-0.22794177
205	0xbda94d11	-0.082666524
206	0x3d14013a	0.036133982
207	0xbdd82412	-0.10553755
208	0x3e2aa88b	0.16665857
209	0x3b2d6040	0.0026455075
210	0x3dd0e7b3	0.10200443
211	0x3c28dce1	0.010306568
212	0x3cde489b	0.02713423
213	0xbdca9ba8	-0.0989297
214	0xbdc82cb7	-0.09774154
215	0xbe03d33f	-0.12873553
216	0x3da871bc	0.08224818
217	0x3d77cf71	0.060500566
218	0xbd6942e4	-0.056948557
219	0x3dedd34c	0.11612567
220	0xbd7cf07d	-0.061752785
221	0xbd8b314d	-0.06796513
222	0xbe1c2062	-0.15246728
223	0xbd8d842c	-0.069099754
224	0x3dbebaa8	0.093129456
225	0xbdc9e9b3	-0.09859028
226	0x3de58a7a	0.11208053
227	0xbd071ee2	-0.032988437
228	0xbd9ba4c3	-0.07599785
229	0xbd25edfb	-0.04051016
230	0x3db67d3d	0.08910606
231	0xbe2e2e2a	-0.17009798
232	0x3de1a1cf	0.11017191
233	0xbd1a2c76	-0.037640058
234	0xbd83b712	-0.06431402
235	0x3d58d157	0.052934017
236	0x3db4c636	0.08826868
237	0x3d3bdc34	0.0458643
238	0x3d3b0808	0.045661956
239	0x3e54902a	0.20758119
240	0x3c008f34	0.007846642
241	0x3d0c0e3e	0.03419327
242	0xbe0f8476	-0.14015374
243	0x3d92b19f	0.07162785
244	0x3d52cc04	0.051464096
245	0xbd73d632	-0.059530444
246	0xbdabb534	-0.08384171
247	0xbd8b8288	-0.06812006
248	0x3db1aa9e	0.08675121
249	0xbd98f6f8	-0.074689806
250	0x39dbd576	0.00041929976
251	0x3d966b79	0.073447175
252	0x3d0cbc1d	0.034359086
253	0xbc9541a7	-0.018219782
254	0xbdc2b828	-0.09507781
255	0xbdaf4cea	-0.08559592

hidden_layers.0.0.bias f4 [64]
0	0x3e1d4efb	0.1536216
1	0xbd1f121a	-0.038835622
2	0x3b9a5bce	0.004710651
3	0xbd763540	-0.060109377
4	0xbe03f020	-0.12884569
5	0xbd891ab0	-0.06694543
6	0x3d4699a9	0.048486385
7	0x3dc8f486	0.09812264
8	0x3dafc96b	0.08583339
9	0xbc0489dc	-0.008089509
10	0xbd33eaf9	-0.04392526
11	0xbddfc124	-0.109255105
12	0xbe036f3b	-0.128354
13	0xbe1e9c3d	-0.15489288
14	0xbdf46d93	-0.11934962
15	0xbe70e10e	-0.23523352
16	0x3e569789	0.20956244
17	0x3e36be88	0.1784612
18	0x3cca6c80	0.02470994
19	0xbe2d9bc6	-0.16953954
20	0xbeb12d87	-0.34605047
21	0x3ded906a	0.115998104
22	0xbd1ac926	-0.037789486
23	0x3d9c6a84	0.07637504
24	0xbd801e8c	-0.06255826
25	0x3e3457ba	0.1761159
26	0x3e045d86	0.12926301
27	0xbde96243	-0.11395695
28	0xbea02704	-0.31279767
29	0x3de72564	0.112864286
30	0x3dd1efde	0.10250829
31	0x3dfe3cc7	0.12413936
32	0x3e2184aa	0.15773264
33	0x3ddc2e3e	0.107510075
34	0x3c77cb21	0.015124113
35	0xbc140d9e	-0.00903645
36	0xbd88da43	-0.06682255
37	0xbd98d6da	-0.07462855
38	0xbb99aa25	-0.0046894723
39	0xbccdcee7	-0.025123073
40	0xbda3d524	-0.07999638
41	0xbcf9baf6	-0.030484658
42	0x3cc2b4d3	0.023767864
43	0x3e18c0c5	0.14917286
44	0x3e3683e7	0.17823754
45	0x3e3608f3	0.17776851
46	0xbd862a9b	-0.06551095
47	0xbd472fa2	-0.04862941
48	0xbcc2a913	-0.023762261
49	0xbddbe26e	-0.107365474
50	0xbba13c83	-0.0049205436
51	0x3d2f247a	0.042759396
52	0xbc90f3c6	-0.017694365
53	0xbdb683a3	-0.089118265
54	0xbcdbfdff	-0.026854513
55	0x3d8a1392	0.06742014
56	0xbe58f192	-0.21185902
57	0x3dbabe12	0.09118284
58	0x3e1b58ea	0.15170637
59	0x3df8a21f	0.12140297
60	0x3e18303b	0.14862148
61	0xbd64d9e4	-0.05587186
62	0x3da64561	0.08118702
63	0xbdb728ca	-0.08943327

output_layer.weight f4 [1, 64]
0	0xbe1d8363	-0.15382151
1	0xbe6ad0f1	-0.22931267
2	0xbe1b7f3e	-0.15185258
3	0xbe4136d6	-0.18868575
4	0x3e11e9db	0.14249365
5	0xbe217fc0	-0.15771389
6	0xbe137e12	-0.14403561
7	0xbe129be8	-0.14317286
8	0x3e0dfd46	0.13866147
9	0xbdd8f82c	-0.1059421
10	0x3dbd207e	0.09234713
11	0xbde464b2	-0.111520186
12	0x3e26afdd	0.16278024
13	0x3e4b9bb2	0.19883612
14	0x3db69226	0.08914594
15	0xbe528bea	-0.20561185
16	0xbe22a62d	-0.15883704
17	0xbdad182e	-0.084518775
18	0x3d545e2c	0.05184762
19	0xbe8f7950	-0.28022242
20	0xbe876687	-0.2644541
21	0x3df33ba0	0.11876607
22	0x3e1377a4	0.14401108
23	0xbe5f9749	-0.21835054
24	0x3e83b865	0.2572662
25	0xbe185bf8	-0.14878833
26	0xbe08d3c9	-0.1336204
27	0x3e022006	0.12707528
28	0xbe12e564	-0.14345318
29	0xbdb94145	-0.09045652
30	0x3e25c6ce	0.16189119
31	0x3e3ae512	0.18251446
32	0xbe5a45f4	-0.21315747
33	0xbdd2c501	-0.10291482
34	0x3e051833	0.12997513
35	0x3d8a1b2c	0.06743464
36	0x3e487444	0.19575602
37	0x3e56ba52	0.20969513
38	0x3e364ad5	0.17801984
39	0x3dadb8d0	0.08482516
40	0x3de9b5a8	0.11411601
41	0xbe288a83	-0.16459088
42	0xbe27a247	-0.16370498
43	0xbe07719e	-0.13226935
44	0x3ddb39e2	0.107044
45	0xbd914448	-0.07093102
46	0x3d4303ee	0.04761117
47	0xbdc01473	-0.093789004
48	0xbdeb8f10	-0.115018964
49	0x3e1c630d	0.1527216
50	0x3e370460	0.17872763
51	0x3e2aebce	0.16691515
52	0xbdadd3c1	-0.084876545
53	0x3e098048	0.13427842
54	0x3dc64f99	0.09683151
55	0x3d9fa824	0.07795742
56	0xbe59805b	-0.2124037
57	0xbd889d68	-0.06670648
58	0xbe52b25f	-0.20575856
59	0xbdf0a148	-0.11749512
60	0xbe309f74	-0.17248327
61	0x3e4e2f87	0.20135318
62	0xbd9b9ff3	-0.07598867
63	0x3dc4e7df	0.096145384
