pytorch/Laplace_eq_outputs/model_lr_1_layers_1_lambda_2.pt (torch, 20826 bytes, 5 tensors)

input_layer.0.weight f4 [64, 2]
00000000: bba9 833c 3d2f 8cbf 9ae0 6f3f 17bb 493f
00000010: f62a 18bf 308e cdbe f05e 533d 90f1 22bf
00000020: bcf9 823f d512 1abf d1d4 513f af24 5fbf
00000030: d8ba 3ebe fe7b 63bf 1564 793d 31ce 393f
00000040: bb20 6e3f a66e 14bf c1ef 683f 8b98 8b3d
00000050: d9ba a43c 1546 16bf 8e8e 993f 7763 96bf
00000060: be9b 383f cf3c fabe 5471 7bbe f95d 5e3f
00000070: c089 debd a216 4b3f eaf3 973f 14c9 8cbf
00000080: e3e0 cc3e 4db7 44bf bd96 68bd cad3 783f
00000090: a660 673e bb51 36bf 0018 993f 65b9 64bf
000000a0: 80c6 d73d b16c 5b3f b854 0ebf c890 ecbe
000000b0: be6b 4abf 04d4 8c3d a8a8 5dbf 8b23 173f
000000c0: e89d 0e3e 6ce1 663f 9f43 14bf 6fbf 243f
000000d0: 68bb a5bd 49cf 6d3f 361e 84bf 6ee0 8b3e
000000e0: a1bf 94bf f038 353f 1a42 fb3d eb40 243f
000000f0: 9cc5 a9bf 73d8 ae3f a769 3c3e 76d4 6dbf
00000100: 5677 50bf 3c1a c7bd 984a 803c 96a8 8fbf
00000110: 34dd 513e 51be 133f 374b 88bf c29a 03bf
00000120: 183b a13c 63e7 88bf 5938 eebe 9ace 293f
00000130: c9c3 453c 589d 98bf 0cc6 233e ebe3 063f
00000140: d496 72bf e092 5e3f a560 86bf 877c 683d
00000150: 72a4 05bd 0f2b 4f3f bc49 0a3f 4550 363e
00000160: cc13 27be 3ef8 a4bf e75c 9dbf 37b0 50bf
00000170: 908f 22bf cfd2 fcbe f218 653c 5083 64bf
00000180: 23da 2dbd 1ad7 373f e875 0d3f 40ae 66bf
00000190: c773 6d3f f626 90bd 8871 02be 8212 2cbf
000001a0: d1a1 df3d b2df 3e3f bd47 c8bd 331c 25bf
000001b0: 39d7 b2be e40b f4be 542c 1c3d e66f 923f
000001c0: 9441 c73e 54de 2fbf 7e6c 8a3f 8c24 c4bd
000001d0: 8607 5dbf dcea 2b3f 9d22 04be e1f8 7e3f
000001e0: fa80 cabe 8994 a7be c757 bd3d 320f 9e3f
000001f0: 7e53 963f 0756 42bf bf28 823f 8c3a 4d3f
0.016072145 -1.0951916 0.9370209 0.788011 -0.59440553 -0.40147543 0.05160421 -0.63649845
1.0232463 -0.60184985 0.8196536 -0.8716535 -0.18625963 -0.8886107 0.06088646 0.7258025
0.9301869 -0.57981336 0.90990835 0.06816205 0.020108627 -0.58700687 1.1996629 -1.1749104
0.72112644 -0.48874518 -0.2455495 0.8686214 -0.108661175 0.7933141 1.1871312 -1.0998864
0.40015325 -0.76842195 -0.05678438 0.97198164 0.22595462 -0.7121846 1.1960449 -0.8934539
0.10535908 0.85712725 -0.5559802 -0.4620421 -0.7907065 0.06876376 -0.86585474 0.5903861
0.13927424 0.90187716 -0.5791568 0.64354604 -0.080923855 0.9289442 -1.032172 0.27319664
-1.162098 0.70790005 0.12268467 0.64161557 -1.326343 1.3659805 0.18399678 -0.92902315
-0.8143209 -0.09721801 0.01566057 -1.1223323 0.20494539 0.57712275 -1.0647954 -0.51408017
0.019681498 -1.0695614 -0.46527365 0.66330874 0.012070605 -1.1923018 0.15993518 0.52691525
-0.94761395 0.86942863 -1.0498244 0.056759384 -0.03262753 0.8092508 0.5401876 0.17804058
-0.16316146 -1.2888258 -1.2293977 -0.8151888 -0.6350031 -0.49379584 0.013982998 -0.89262867
-0.04244436 0.71812594 0.55258036 -0.90109634 0.9275479 -0.07038681 -0.12738621 -0.6721574
0.10919536 0.7456008 -0.09779308 -0.64496154 -0.34929827 -0.47665322 0.038128212 1.1440399
0.3891722 -0.6869862 1.0814359 -0.09577283 -0.86339605 0.6715524 -0.12903829 0.9959851
-0.39551526 -0.3273051 0.09245258 1.2348387 1.174423 -0.7591252 1.0168685 0.8016746

input_layer.0.bias f4 [64]
00000000: ee45 81bf 0ff7 b03e 4e1a 763f 5e68 ff3e
00000010: bc9d 5abf 67ae dbbd dc84 3bbe 6f8c 17bf
00000020: 1265 463f cb7e 7ebf d350 af3e 3cf9 023e
00000030: 75c8 7c3f 8305 4a3f f3b6 183f f5a8 11bd
00000040: 2a2d 643f 9a24 5e3f f6b5 c0be ccb8 bebe
00000050: c112 63bf 023e 353e 2b20 773f 429a 753f
00000060: 74ca 22bd 2aca 863d 50ad 31bf 01f0 8dbf
00000070: f485 58bc 4967 2abf 78df 5cbe 4046 3b3f
00000080: a539 623f a69b 5abf f608 493f 7e04 833e
00000090: 388d 5dbf ddf1 9d3c 884c 91bf e8f4 2a3f
000000a0: 368e ad3e 4c9a a2bf 9ff4 3abf ea9f 773e
000000b0: b43c 97bf 3123 03bf 32ed f3bd 68d1 4f3f
000000c0: 70a7 193f f21c 2dbf 4241 3fbf bdfd 4ebf
000000d0: 35ba 52bf 4ef1 ddbd e321 f03d 18d6 85bf
000000e0: b265 c13e 2b12 a13f 8def 603f d8eb 51bf
000000f0: 0117 0dbf 6ef7 9d3f 6961 9e3e f4c5 5dbd
-1.0099466 0.3456349 0.9613389 0.49884313 -0.85396934 -0.10726624 -0.183124 -0.5919866
0.7749797 -0.9941222 0.3424135 0.12790388 0.98743373 0.7891466 0.5965416 -0.03556152
0.89131415 0.867746 -0.37638825 -0.37250364 -0.8870049 0.17699435 0.9653346 0.95938504
-0.039743856 0.065815285 -0.6940508 -1.1088868 -0.013215531 -0.6656385 -0.21569622 0.7315407
0.8836921 -0.8539375 0.785293 0.25589365 -0.8654361 0.019280368 -1.135148 0.6677995
0.3389756 -1.2703338 -0.7302951 0.24182096 -1.18154 -0.5122557 -0.11910476 0.81178904
0.60021114 -0.6762229 -0.7470895 -0.80855924 -0.8231538 -0.10837041 0.117252134 -1.0455961
0.377729 1.258367 0.87865525 -0.82000494 -0.55113226 1.2341135 0.30933693 -0.05414386

hidden_layers.0.0.weight f4 [64, 64]
00000000: 88c8 563d 963b 4a3d f0b4 86bd ea69 0abe
00000010: 0599 03be a0a2 eb3d 9338 b23d b18b 43bc
00000020: 2613 c0bd 476d 5abb 9976 a63d 8399 8b3b
00000030: 36af 26bd 9a56 873d 231a 0abc b497 25bd
00000040: 87f3 d7bd 62e5 9b3d 76d6 953d 7a96 df3d
00000050: b36f 093d c613 53bd e837 0c3c d16c 5cbd
00000060: fedd 81be 4341 68bd 40ee 82bd 84f2 f6bd
00000070: 0409 d5bd 353a 1b3e ea23 95bc 425f 5e3d
00000080: d6f8 813d d2fa 023e 3b3a 163c 765a 233d
00000090: 119d aa3d a26a 8f3d 455b b73c e86f d83c
000000a0: af64 0d3e 1845 593d fac9 8f3d 85ec f63d
000000b0: ebc6 4dbd 2862 ebbd 017f 95bd c859 033e
000000c0: 053b 3e3d abfe 963d f9da cdbd 3ab2 d5bd
000000d0: 2511 e9bc 2e26 e9bc aef0 873a 33c8 5c3d
000000e0: 747b e43c 299b c83d 19a3 ab3d c930 bc3d
000000f0: 0204 7cbd 8488 96bd af0f 27bd c7a3 51bd
00000100: 8a1a 57bd c372 61bd 4bc9 113e d7f8 083f
00000110: 247a 81bd 1633 453e e7d1 4a3c b067 fdbe
00000120: 6a82 e43c 9e31 e8bd 693d f23e fa85 ef3d
00000130: eeed 2a3e 1977 993d 1eb7 3f3d e385 743e
00000140: a30c a23e a9d5 5dbd c485 453c 77d7 03bd
00000150: 0b26 26bf 2bc8 bc3e 53d1 1f3e fcdb 5abd
00000160: 9e29 bdbd 38ea 85bd 34ea 78be f28f 8fbd
00000170: 970c b4bd 2e83 39bf 85f6 37be 0ecb be3e
00000180: 2c0b cf3c 1788 44be 6d71 fa3c 020b 013f
00000190: 6249 c9bd ca1b 2dbe e60f b9bd b7e9 ca3d
000001a0: 21e8 f3bc 6ecb acbd e99f 42bf fa83 96be
000001b0: 9a34 3bbe d2f9 e43d 7f00 343e 6924 413f
000001c0: e8f5 e73d 2090 723b 5e44 0bbe 53b8 5dbe
000001d0: 2d3b dfbe fce2 8f3e b3e5 943e 04bd 0cbf
000001e0: 708e 783e 11f2 f93b 230a a43d 313c a3be
000001f0: 06b2 b33c 17c4 013e 9b56 03bc 2090 f5bd
00000200: 3bc8 0abe 673b 33be 7281 333e c9c6 1dbe
00000210: 66c5 65be ce91 cabd 5528 3b3c 4ecb 0c3e
00000220: 778a ebbc b61e a9be 6901 04bd 3d9d df3d
00000230: 35f3 2b3e be49 b33e d1fb 973e db08 d53d
00000240: 6131 00be 6a2d cc3d fced b6be 2bf9 143e
00000250: 7003 603d d8b6 7f3d 74b0 113e 24a4 e23e
00000260: 129d 7d3d c335 343e 4b78 2f3c 68b1 46be
00000270: 365f 0bbe f413 cfbb e021 45bd fa99 69bd
00000280: 7571 ec3d 1b3c 75bb c1ac 193d b71a 463e
00000290: defc 183d 3a44 843e 19b1 1cbe 376b 053d
000002a0: da57 e6bd b7ff 7ebd 8be0 993d 2963 213e
000002b0: 489b 91bc 6e31 1f3d 662b db3d e632 21be
000002c0: e657 873e e510 1cbe 0735 7bbe 7a1f 0b3c
000002d0: f29e 73bb f4bc b2bd ca04 053e 7d40 cfbd
000002e0: 24e9 34be ec12 103e 8080 8f3e 9388 083d
000002f0: 6add 37be d556 c23c c87d 423e 9510 9abe
00000300: 677d de3d 6032 d23d f442 a9bb 8f70 d5bc
00000310: 52df c93d 7e2e f23d 7178 00bd b588 153e
00000320: 2ac0 05be 780a 923d bb02 5bbe 0586 f73d
00000330: 0180 473d f9b3 2abd 0e27 0d3e b19f b23d
00000340: d1b7 063d ab1d 01be cd44 23be 326e ab3d
00000350: 8d8b 0e3e f7cd abbe 3bc0 95bc d6fd 973d
00000360: a54a 76be ef88 873d 705b cebd 17e4 90bd
00000370: 79d2 363c 7e68 1b3e 7927 0fbd 95a7 c13b
00000380: 8c06 513a 0074 1e3e b003 a9bd e0f4 18be
00000390: 859e 7f3d c49c 163d ac73 eb3d 2b44 60bd
000003a0: 399a 953d c6b3 cdbd 66b9 453d f00f db3d
000003b0: 966a 25be db64 13be 1df2 8ebe b184 e8bd
000003c0: 18f5 d83d 88fa 1d3e 725a d53c de9d 753d
000003d0: 9637 2e3e 2239 a6bd 1d9c fcbd 96b5 353e
000003e0: b645 f5bd 6e95 8739 cd15 2a3d 938d 1b3d
000003f0: 0325 5ebe 0901 d13d eeb2 80bd c090 b23e
0.052437335 0.04937323 -0.0657748 -0.13516966 -0.12851341 0.11505628 0.08702197 -0.0119351605
-0.09378652 -0.0033329295 0.081280895 0.0042602434 -0.040694438 0.06608315 -0.008429083 -0.04042788
-0.10544496 0.07612111 0.07316296 0.10917373 0.03355379 -0.05153253 0.008558251 -0.053814713
-0.2536468 -0.056702863 -0.06393099 -0.12057975 -0.1040211 0.15158923 -0.018205602 0.054290064
0.0634629 0.12790993 0.009169157 0.039881192 0.08330739 0.070027605 0.022382388 0.026420549
0.13807939 0.05304441 0.07020946 0.12056831 -0.05023853 -0.11493331 -0.07299615 0.12827218
0.046443004 0.07372793 -0.10051531 -0.10434385 -0.028450558 -0.028460588 0.0010371411 0.053901862
0.027890898 0.097952195 0.08380718 0.091889925 -0.06152726 -0.07350257 -0.04078644 -0.05118158
-0.052515544 -0.055041086 0.14236943 0.535047 -0.063221246 0.19257769 0.012379146 -0.4949317
0.027894218 -0.11337589 0.47312477 0.11695476 0.16692325 0.07493419 0.046805494 0.23879199
0.31650266 -0.05415884 0.012055818 -0.032187905 -0.649018 0.36871466 0.15607195 -0.05343245
-0.092364535 -0.06538814 -0.24308091 -0.07009877 -0.08791464 -0.7246579 -0.17965133 0.37264293
0.025273882 -0.19192539 0.030571664 0.5040742 -0.0982845 -0.16905132 -0.090362355 0.09907859
-0.029773774 -0.08437239 -0.76025254 -0.29397565 -0.18281785 0.11180462 0.17578314 0.7544618
0.113262 0.0037012175 -0.13600299 -0.21652345 -0.43599835 0.28102863 0.29081497 -0.54975915
0.24273086 0.0076277335 0.08009746 -0.3188186 0.021935474 0.12672459 -0.008016254 -0.1199038
-0.13552944 -0.17503129 0.17529848 -0.15407862 -0.22438583 -0.09891091 0.01142319 0.1374943
-0.028752549 -0.33031243 -0.032227907 0.10918663 0.16791995 0.35017198 0.29684308 0.1040208
-0.12518837 0.099695995 -0.35728443 0.14548175 0.05469078 0.062430233 0.14227468 0.44265854
0.061917372 0.17598633 0.010709832 -0.19403613 -0.13610539 -0.0063195173 -0.04812801 -0.05703161
0.11545078 -0.003741986 0.037518267 0.19346128 0.037350528 0.25833303 -0.15301932 0.03257295
-0.11247225 -0.062255587 0.07513531 0.15760483 -0.01777424 0.0388655 0.10701637 -0.15742072
0.2643425 -0.1524082 -0.24531947 0.008491391 -0.0037173596 -0.08727446 0.12990108 -0.10119722
-0.17667061 0.14069718 0.28027725 0.033333372 -0.17955557 0.023723045 0.18993294 -0.30090776
0.10863762 0.102635145 -0.005165452 -0.026054649 0.09857048 0.11825274 -0.031364862 0.14602931
-0.13061586 0.07130903 -0.2138776 0.12086109 0.04870606 -0.04167554 0.1378443 0.08721865
0.032890145 -0.12608974 -0.15944214 0.083706275 0.13920422 -0.33555576 -0.01828014 0.07421462
-0.24051912 0.06617915 -0.10076034 -0.07074755 0.011158579 0.1517658 -0.034949753 0.00590987
0.0007973693 0.15473938 -0.082526565 -0.14937162 0.062407035 0.036770597 0.11496672 -0.05475251
0.07304806 -0.10044055 0.048272513 0.10696399 -0.1615394 -0.14393942 -0.27919093 -0.11353434
0.10593623 0.15427601 0.026044104 0.059965007 0.17013392 -0.08116366 -0.12334464 0.17745051
-0.11976187 0.0002586054 0.041524697 0.037976813 -0.21693806 0.102052756 -0.06284128 0.3487606

hidden_layers.0.0.bias f4 [64]
00000000: 7630 8b3d 019d 123e 853f 2c3e 1eb9 103e
00000010: 02d6 8dbc 99cc fb3d de7d 6e3e 4741 733e
00000020: 5b35 b83e fb32 a2ba 246b 16be 799e 01be
00000030: a617 453e 980a 503d b7e7 643e 8673 5dbd
00000040: 5503 3f3e b4c8 bf3a ce50 2abd 6cbd 263e
00000050: f1f9 eebd 6729 31be 6190 35be 68e6 18bd
00000060: e356 01be 7ac0 8bbd 235e 3c3e 4191 f0bd
00000070: 7e34 afbd 1390 203e 3bec 133e c22a 593d
00000080: 6386 28bd 0f93 4abc 31e8 033e c224 653c
00000090: 48ad 2abe 8491 77be dbaf 123c 0db6 fe3d
000000a0: 761e c63d 4bc3 5b3d d6c3 99bc 6b9f 20be
000000b0: b8a0 6bbe ef05 55bd a112 59bd 007f 253e
000000c0: 0832 d5be f13b a63d caf4 223e a92e 7bbd
000000d0: a7a3 d0bb 20f7 db3d 3922 843d 2b3e 34bc
000000e0: 36ce b03c d287 ca3c b4bc afbe 6f6f 993c
000000f0: 6957 1d3e 012e 743e e4cc aebd 720b a2be
0.067963526 0.14317705 0.16821106 0.14133117 -0.017313961 0.12294883 0.23290202 0.2375537
0.35978207 -0.0012374813 -0.14689308 -0.12658109 0.19247302 0.050791353 0.22354017 -0.05406525
0.18653615 0.0014631958 -0.041580968 0.16283196 -0.11668766 -0.1730095 -0.17730857 -0.037329108
-0.12630801 -0.06823821 0.18395285 -0.11746455 -0.08554934 0.1567996 0.14445584 0.053019293
-0.041143786 -0.012364163 0.12881543 0.0139858145 -0.16667664 -0.24176604 0.00895306 0.12437067
0.09673779 0.053653043 -0.01877014 -0.15685813 -0.23010528 -0.05200761 -0.05299628 0.16161728
-0.41639733 0.08116902 0.15913692 -0.061323795 -0.006367165 0.10740495 0.0645184 -0.01100115
0.021582704 0.024722967 -0.34323657 0.018729893 0.15365376 0.23845674 -0.085351735 -0.31649357

output_layer.weight f4 [1, 64]
00000000: 960c 9dbd 6fc2 9b3e 138d 72be ac66 53be
00000010: c2a3 48be 3a5e d3be 9021 b6be 7912 b33e
00000020: 1050 a1be 3df2 b7be b188 bb3e dd1a 523e
00000030: 8cda 903e b749 58be 7a2b 13be 4a56 27be
00000040: 5fca 8f3e e836 e43d 6ea5 923e 27ac 973e
00000050: e30d a8be 2805 713e 10de 9d3e afc4 5abe
00000060: 0faa 763e 9390 883e a6ad bd3e 4eb6 3fbe
00000070: 3a6b 193e 47d6 8ebe 3174 76be ea08 29be
00000080: 6146 413e 7ed5 843e ec59 0fbe b1cf df3d
00000090: 8f0a b3be f967 e23e 05a8 7abe 17ce 57be
000000a0: b9ca 393e d818 58be 7aae 70be e607 773e
000000b0: 1ba9 96be 6e52 683e 0e6e 343e c055 3bbe
000000c0: b410 14bf f7fe 66be 0643 33be ba56 2a3e
000000d0: f15e 13be 2567 103e eab0 7a3e 2e3d b23e
000000e0: d52b 8cbe 522a 243e 5441 b6be 9be7 75be
000000f0: b756 71be 43ec 7fbe 55fc 1f3e cb0f 8ebe
-0.07668416 0.3042178 -0.23686628 -0.20644635 -0.19593719 -0.41282827 -0.3557248 0.3497503
-0.31506395 -0.35927 0.36627725 0.2051806 0.28291738 -0.2112187 -0.14372054 -0.1634151
0.28084084 0.11143285 0.28641838 0.2962353 -0.32823095 0.23537123 0.30833483 -0.21364091
0.2408831 0.266728 0.37046546 -0.18721887 0.1498231 -0.27897856 -0.24067761 -0.16507307
0.18874504 0.25944132 -0.13999146 0.10928286 -0.34968993 0.4421995 -0.24478157 -0.21074711
0.18143739 -0.21103227 -0.23504058 0.24124107 -0.29425892 0.22687694 0.17620108 -0.1829443
-0.57837987 -0.22558199 -0.17506036 0.16634646 -0.14391686 0.14101847 0.2448155 0.348123
-0.2737719 0.16031769 -0.35596716 -0.24014132 -0.23568235 -0.2499247 0.15623601 -0.27746424
