pytorch/Laplace_eq_outputs/model_lr_0_layers_1_lambda_2.pt (torch, 20826 bytes, 5 tensors)

input_layer.0.weight f4 [64, 2]
0	0x3e756206	0.23963174
1	0x3f82ef6d	1.0229317
2	0x3f3fd79a	0.74938357
3	0xbf609699	-0.87729794
4	0xbf7c094f	-0.98451704
5	0x3f903e0b	1.1268934
6	0xbd142ee2	-0.036177523
7	0x3f52a602	0.8228456
8	0xbe7d8e82	-0.24761394
9	0x3f292ec9	0.66087013
10	0x3ec38cac	0.38193262
11	0x3ef8506d	0.4849886
12	0x3f47394e	0.77821815
13	0xbf56c2a2	-0.83890736
14	0xbeafe45d	-0.34353915
15	0x3f27e11d	0.6557787
16	0x3f54a239	0.8306003
17	0xbf57fe68	-0.8437257
18	0x3c206bea	0.009791354
19	0xbf6430b0	-0.8913679
20	0xbf718847	-0.9434857
21	0xbd5a2022	-0.0532533
22	0x3e4fa858	0.20279062
23	0x3ec68de9	0.38780144
24	0xbd77fdd4	-0.060544804
25	0x3f48ef9c	0.78490615
26	0xbdae4512	-0.08509268
27	0x3f22d7e1	0.63610655
28	0x3d9e6fb6	0.07736151
29	0x3f386abd	0.7203787
30	0xb8dd0cde	-0.00010540498
31	0xbf93263d	-1.1496044
32	0xbf842cea	-1.0326207
33	0x3f8f96b4	1.1217866
34	0xbf5e63b4	-0.86870885
35	0xbf529fbb	-0.8227498
36	0x3f8947f6	1.0725086
37	0xbf937b6b	-1.1522039
38	0xbe82667d	-0.25468817
39	0xbec133cc	-0.3773483
40	0xbe2b77b3	-0.1674488
41	0xbf087a02	-0.5331117
42	0xbf135a35	-0.5755952
43	0xbf18ea03	-0.59732074
44	0xbc0b65de	-0.008508174
45	0x3f8b2503	1.087067
46	0xbf825381	-1.0181733
47	0xbdef9993	-0.11699214
48	0x3d7bc2e3	0.061465155
49	0x3f48bf8b	0.7841727
50	0xbedf2803	-0.43585214
51	0x3e23a70d	0.15981694
52	0xbef69b00	-0.4816513
53	0x3f2ef59a	0.6834351
54	0x3ec82ef1	0.39098313
55	0x3f4b11a1	0.79323775
56	0x3e1ac141	0.15112783
57	0xbf544e1f	-0.82931703
58	0xbf1b1dff	-0.60592645
59	0x3f43f7e3	0.7655012
60	0x3e40b0c6	0.18817434
61	0x3efb5502	0.49088293
62	0xbf8358af	-1.0261439
63	0x3f655a6d	0.89591104
64	0xbdcf673f	-0.101271145
65	0xbf61e1ee	-0.88235366
66	0xbe283776	-0.16427407
67	0x3f60682b	0.8765895
68	0xbf06baac	-0.5262859
69	0x3f20f9b6	0.6288103
70	0xbe2a78b0	-0.16647601
71	0xbef26a9c	-0.47346961
72	0x3f625f57	0.8842673
73	0xbdf801fc	-0.121097535
74	0xbf034978	-0.5128398
75	0xbdcb59ff	-0.09929275
76	0xbd123309	-0.035693202
77	0x3f7517b7	0.9573931
78	0x3ecad533	0.39615783
79	0x3e865607	0.2623751
80	0xbf0a9aae	-0.5414227
81	0x3f1d4cdd	0.6144541
82	0x3f0854b2	0.53254235
83	0x3e5f06b5	0.21779902
84	0x3e873733	0.264093
85	0x3f325a3d	0.6966894
86	0x3db10049	0.086426325
87	0xbf1985ce	-0.59969795
88	0xbe68142d	-0.22663946
89	0xbf22a526	-0.63533247
90	0x3f100ca8	0.5626931
91	0xbf2c7618	-0.67367697
92	0xbecc023f	-0.39845464
93	0xbe2178ce	-0.1576874
94	0xbe265e6a	-0.16246954
95	0xbf3667a7	-0.7125191
96	0x3d08f9c4	0.03344132
97	0xbfafe848	-1.3742762
98	0xbe843115	-0.25818697
99	0xbe9f531d	-0.31118098
100	0xbd9ef3bd	-0.07761333
101	0x3f882df2	1.0639021
102	0x3d50cdbe	0.05097746
103	0x3f4b4aeb	0.7941119
104	0xbd50329d	-0.05082952
105	0xbf480e02	-0.78146374
106	0x3f1e64f3	0.61872786
107	0xbf287a69	-0.65811783
108	0x3f0e9ddc	0.55709624
109	0x3f558ac4	0.83414865
110	0xbd19979f	-0.037498113
111	0xbf6368b0	-0.88831615
112	0x3f442bfa	0.766296
113	0xbf3e1039	-0.74243504
114	0x3f25af08	0.647202
115	0xbf04f10c	-0.5193031
116	0x3db031aa	0.08603223
117	0xbf88759e	-1.0660894
118	0x3d87385d	0.06602547
119	0x3f24b704	0.6434176
120	0xbdf67ea3	-0.12035873
121	0x3fa09778	1.2546225
122	0xbf63bb0d	-0.8895729
123	0x3f518d88	0.81856585
124	0x3edf854e	0.4365639
125	0x3f5791b6	0.8420671
126	0xbf0dc590	-0.5537958
127	0x3f32e923	0.6988699

input_layer.0.bias f4 [64]
0	0x3f77299e	0.9654788
1	0x3ed7897a	0.42097074
2	0x3e8e35f0	0.27775526
3	0xbf47b856	-0.7801565
4	0xbf365fb2	-0.7123977
5	0x3e4833b3	0.19550972
6	0x3fbbe9e5	1.4680754
7	0x3f0fec3f	0.5621986
8	0xbdf8d719	-0.121504016
9	0xbf5e7d04	-0.8690951
10	0xbf71f9fd	-0.94522077
11	0xbdbb092a	-0.09132607
12	0xbf313c52	-0.69232666
13	0x3f0b9e5f	0.5453853
14	0xbef4fb22	-0.4784785
15	0xbf88d2c8	-1.0689325
16	0x3de0d83b	0.10978743
17	0x3f0eb58f	0.55745786
18	0xbe947845	-0.28998008
19	0xbed67807	-0.4188845
20	0xbf26cd14	-0.65156674
21	0x3e73f787	0.23824893
22	0xbf828e9a	-1.0199769
23	0xbef9ab8b	-0.4876369
24	0x3f04b0bb	0.5183217
25	0x3f5062aa	0.8140055
26	0xbf21383e	-0.62976444
27	0x3f35c6ad	0.7100628
28	0xbf53dbdd	-0.8275736
29	0x3f6f7afe	0.93547046
30	0x3ec560d1	0.38550428
31	0xbd9ced1b	-0.07662412
32	0x3f825836	1.018317
33	0x3f4a460c	0.79013133
34	0xbdd58d54	-0.10427347
35	0xbf2034ad	-0.62580377
36	0xbf330462	-0.6992856
37	0x3f8992bb	1.0747904
38	0xbf55b913	-0.83485526
39	0xbf7175bb	-0.9432027
40	0x3dac1bfd	0.08403776
41	0x3ef1d421	0.47232154
42	0x3cfb3226	0.030663561
43	0xbdcbb183	-0.09945967
44	0xbf4756e4	-0.7786696
45	0x3ea3615e	0.31910223
46	0x3f366d08	0.7126012
47	0x3f446c48	0.76727724
48	0xbf9e64c7	-1.2374505
49	0xbed142cf	-0.40871283
50	0x3f812f84	1.0092626
51	0x3f629833	0.8851349
52	0xbeebe8b2	-0.4607597
53	0xbe58e180	-0.21179771
54	0x3ee33685	0.44377533
55	0xbf2b64d7	-0.66950744
56	0xbe54807c	-0.20752138
57	0xbcc154bf	-0.02359998
58	0xbf7bb0d8	-0.9831672
59	0x3d19ace5	0.0375184
60	0x3f94b6f2	1.161833
61	0xbf7a6e90	-0.97824955
62	0xbf0f23c0	-0.55913925
63	0x3e88f501	0.26749423

hidden_layers.0.0.weight f4 [64, 64]
0	0x3d818adf	0.06325316
1	0x3d142443	0.036167394
2	0x3d654840	0.055977106
3	0xbdb9fab8	-0.09081024
4	0x3c5cf1d5	0.013485392
5	0x3dbab9cc	0.09117469
6	0xbc965d8a	-0.01835515
7	0x3d2b8cca	0.041882314
8	0x3d3379e1	0.043817405
9	0xbd64c173	-0.05584855
10	0xbe113818	-0.14181554
11	0x3d85d5f1	0.06534947
12	0x3d79b44f	0.06096297
13	0xbdb7600d	-0.08953867
14	0x3c012659	0.007882678
15	0x3cbd8df2	0.023138974
16	0x3dc4bee6	0.096067235
17	0xbd810bf2	-0.063011065
18	0x3dca1208	0.098667204
19	0xbdb60e0f	-0.088894
20	0xbe23b1f4	-0.15985852
21	0xbca2a3cb	-0.019853493
22	0xbd9efbf4	-0.077629
23	0x3e35f476	0.17769036
24	0xbe26aa3c	-0.16275877
25	0x3c1c96f3	0.0095574735
26	0xbcc5d2b5	-0.024148325
27	0xbd64ce88	-0.055861026
28	0xbdb2e34d	-0.087347604
29	0xbd217ea9	-0.039427433
30	0xbda843ef	-0.08216082
31	0xbd431fef	-0.047637876
32	0x3b7ceb13	0.0038592264
33	0x3dd63819	0.104599185
34	0xbdc311d4	-0.09524885
35	0xbdf429b5	-0.119220175
36	0xbe5b666a	-0.21425787
37	0xbd399e1b	-0.045316797
38	0x3e1307eb	0.14358489
39	0xbb6ac874	-0.0035825046
40	0x3e218ebf	0.1577711
41	0x3da9e311	0.082952626
42	0x3d42052c	0.047368214
43	0x3d731be3	0.059352767
44	0x3b0f4c8d	0.0021865696
45	0xbd10d3ac	-0.035358116
46	0xbdeb056f	-0.11475646
47	0xbd612030	-0.054962337
48	0x3dce59ce	0.10075723
49	0xbd4baad7	-0.049723472
50	0x3de33449	0.11093957
51	0xbbad85dd	-0.0052954988
52	0x3c801a21	0.01563746
53	0x3d89c964	0.06727865
54	0xbca76dbc	-0.020438068
55	0x3e3364d0	0.17518926
56	0x3d8fc38a	0.07019718
57	0x3da5e08f	0.08099472
58	0x3db2a22b	0.08722337
59	0xbe17b10e	-0.14813635
60	0x3bd27094	0.0064221118
61	0xbc7e9a37	-0.015539697
62	0xbc099c87	-0.008399135
63	0x38d14e0c	9.980434e-05
64	0x3daf5657	0.0856139
65	0xbe02a5b6	-0.12758526
66	0x3da413e4	0.08011606
67	0xbd205ea9	-0.039152775
68	0x3dfe21b2	0.124087706
69	0x3de54a1e	0.11195777
70	0xbdc87661	-0.09788204
71	0x3d7d3934	0.06182213
72	0x3db7d347	0.08975845
73	0xbd0b9d56	-0.034085594
74	0xbde5afe1	-0.11215187
75	0xbe403d2a	-0.18773332
76	0x3d9f7b01	0.07787133
77	0xbe0d9104	-0.1382485
78	0xbe0753db	-0.13215582
79	0xbab7998c	-0.0014007553
80	0xbcb14096	-0.021637242
81	0xbaff8212	-0.001949372
82	0xbde79e35	-0.113094725
83	0x3e179e1a	0.14806405
84	0x3c04b372	0.008099424
85	0xbe07923c	-0.13239378
86	0xbd94b682	-0.07261373
87	0x3c5609b3	0.013063836
88	0x3e044499	0.12916793
89	0xbd5dd062	-0.054153807
90	0x3dc28153	0.09497323
91	0x3d996183	0.07489302
92	0xbd405a67	-0.046961214
93	0x3cf6436c	0.030061446
94	0x3d301268	0.042986304
95	0xbd03c5df	-0.032171126
96	0x3c71fa42	0.014769139
97	0xbb26f0f1	-0.0025473202
98	0xbe0c334f	-0.13691448
99	0x3c8fecb8	0.017568931
100	0x3e36d2db	0.17853872
101	0xbe0ad2b4	-0.1355694
102	0x3d0ab1d2	0.03386099
103	0xbdb674b6	-0.089089796
104	0xbd7c19e2	-0.06154812
105	0xbcc04db9	-0.023474561
106	0x3e1626a0	0.14663172
107	0xbc76ce30	-0.015063807
108	0xbd6bd824	-0.057579175
109	0x3d4b3a19	0.049615953
110	0x3dab28d9	0.083574004
111	0x3da733b9	0.08164162
112	0xbe033227	-0.128121
113	0xbc12739a	-0.008938694
114	0xbbc0f41a	-0.005888474
115	0xbd722504	-0.059117332
116	0x3d9996e4	0.07499483
117	0x3ce28b33	0.027654266
118	0x3a1bb08e	0.00059390895
119	0x3c17158b	0.009221445
120	0x3d708711	0.05872256
121	0xbb7e0c11	-0.0038764516
122	0xbcaaa841	-0.020832183
123	0xbd3627d5	-0.04447158
124	0x3d0393d7	0.032123413
125	0x3de8451e	0.11341308
126	0xbd875cd1	-0.066095
127	0x3dcf0f26	0.10110311
128	0x3d05084d	0.03247862
129	0xbdbc4472	-0.091927424
130	0xbd703a16	-0.058649145
131	0xbcca050c	-0.02466061
132	0xbcd5a839	-0.026081191
133	0x3c8a4d56	0.01688258
134	0x3d3af0bf	0.04563975
135	0xbd915cc5	-0.070977725
136	0x3e17cfce	0.14825365
137	0xbd96c83c	-0.073624104
138	0xbc283705	-0.010267024
139	0xbbbe75dc	-0.00581239
140	0x3e1ca10e	0.15295812
141	0x3d6ea8eb	0.05826656
142	0x3db6bd07	0.08922773
143	0x3dcd7dc5	0.10033754
144	0x3d178e42	0.037000902
145	0xbddcc0da	-0.10778971
146	0x3e0d4b6d	0.13798304
147	0x3d162aa8	0.036661774
148	0x3d3d516f	0.04622024
149	0xbdb65e56	-0.08904712
150	0x3d5d1edd	0.05398451
151	0xbe29765c	-0.16549057
152	0xbe044507	-0.12916957
153	0xbdcedca9	-0.10100681
154	0x3df07a9c	0.11742136
155	0xbcefe930	-0.029285997
156	0x3d25d683	0.040487777
157	0x3d3d4e86	0.046217464
158	0x3c814641	0.01578057
159	0xbe2bb4ba	-0.1676816
160	0x3d54d109	0.051957164
161	0x3e00343d	0.12519927
162	0x3c85b00b	0.016319295
163	0xbdf894e9	-0.12137777
164	0xbe4b1688	-0.19832814
165	0xbc3d9c88	-0.0115729645
166	0x3d3316b2	0.043722816
167	0xbd6b4962	-0.05744303
168	0xbbc0b8fa	-0.005881426
169	0x3cece061	0.028915586
170	0xbe059725	-0.13045938
171	0xbdd010b7	-0.10159438
172	0x3d1d031f	0.038333055
173	0xbdc6bb39	-0.09703679
174	0x3de75ad3	0.1129662
175	0x3d9d0d2d	0.07668529
176	0x3c781d9d	0.015143779
177	0x3d41d126	0.0473186
178	0xbdb8b019	-0.09017963
179	0x3da2cec8	0.07949597
180	0x3d6cd063	0.05781592
181	0x3e03a150	0.12854505
182	0xbe0d131c	-0.13776821
183	0x3dea2fa9	0.11434872
184	0xbdaa9c68	-0.083306134
185	0xbdc4df4a	-0.096129015
186	0xbc9b117d	-0.018929237
187	0xbd8ca8e6	-0.06868152
188	0x3cd77544	0.026301034
189	0x3d96f121	0.073702104
190	0xbdaebccd	-0.08532105
191	0x3dea8027	0.11450224
192	0x3d858bc6	0.065208
193	0x3dfc759e	0.12327121
194	0xbd20777d	-0.039176453
195	0xbdf4cd56	-0.11953227
196	0xbe017d2f	-0.1264541
197	0x3d057554	0.032582596
198	0x3e026faa	0.12737909
199	0x3c50cc26	0.012743985
200	0x3c99ecac	0.018789612
201	0x3cfd6817	0.030933423
202	0xbe679c7b	-0.22618286
203	0x3e423bba	0.18968096
204	0x3d3c3011	0.045944277
205	0x3dd29a72	0.10283364
206	0x3c2f61e8	0.010704495
207	0xbe2774a9	-0.16353096
208	0xbbdb5a7b	-0.0066941357
209	0xbdaa4f83	-0.08315947
210	0x3e052f19	0.13006248
211	0xbe07bc44	-0.13255411
212	0xbd0552a8	-0.03254953
213	0xbcb9d0b4	-0.022682525
214	0xbd7d9ea7	-0.06191888
215	0x3dd77aa4	0.10521439
216	0x3d8b30e0	0.067964315
217	0x3a08dbd0	0.0005220743
218	0xbe2a42b6	-0.1662701
219	0xbd5fe78a	-0.054664172
220	0xbc67a6db	-0.014138903
221	0xbcb592b3	-0.022164678
222	0x3e08e936	0.13370213
223	0xbe38d37f	-0.1804943
224	0x3deb5c05	0.11492161
225	0x3e12ae75	0.14324363
226	0x3db98d9c	0.09060213
227	0xbce4404b	-0.027862689
228	0xbe9e7389	-0.3094752
229	0x3db53fc4	0.08850053
230	0xbdc5e985	-0.09663681
231	0x3d2eafad	0.042648006
232	0xbd76c261	-0.060243968
233	0x3e39e7f3	0.18154888
234	0x3d1a5698	0.03768024
235	0x3d0b9390	0.034076273
236	0x3c4a07ea	0.012330988
237	0x3d1cf787	0.038321998
238	0x3de02b8d	0.10945807
239	0x3db86b60	0.09004855
240	0xbd859beb	-0.065238796
241	0xbe4f16ae	-0.20223495
242	0x3ccc6d04	0.024954326
243	0x3e2f6570	0.17128539
244	0x3db52eed	0.08846841
245	0x3e1919d6	0.14951262
246	0xbe688540	-0.22707081
247	0x3d491437	0.049091544
248	0x3df6bf05	0.12048153
249	0x3d8e1488	0.0693751
250	0xbd303390	-0.043017924
251	0xbddba8eb	-0.10725578
252	0x3d4e3671	0.050344888
253	0xbc83acf7	-0.016073687
254	0x3e069d6a	0.13145986
255	0x3b711066	0.0036783456

hidden_layers.0.0.bias f4 [64]
0	0x3d5aa578	0.05338046
1	0x3d3b054e	0.045659356
2	0x3c151ae1	0.009100647
3	0x3c0eb0ae	0.008709116
4	0xbe80add9	-0.25132635
5	0x3d4f1d2b	0.050564926
6	0x3ea34e77	0.318958
7	0x3c10ae67	0.008830643
8	0x3f0a1191	0.53933054
9	0x3dcde636	0.10053675
10	0x3daedd96	0.08538358
11	0xbd49a785	-0.049232025
12	0x3e6589c1	0.2241583
13	0xbde507d1	-0.111831315
14	0xbd8afff1	-0.06787098
15	0x3e78ef8e	0.24310133
16	0x3cc0faea	0.023557145
17	0x3df9fed9	0.122068115
18	0x3d2b3ed6	0.041807972
19	0x3de700a5	0.1127942
20	0xbd884771	-0.06654251
21	0x3dbe7dfa	0.09301372
22	0xbe32a9f4	-0.17447644
23	0xbd8fbf45	-0.07018904
24	0x3dd21b4e	0.10259114
25	0x3d5a6640	0.05332017
26	0xbe311152	-0.17291763
27	0x3dcfb5f2	0.10142125
28	0x3d5ae6a8	0.053442627
29	0xbe8827a5	-0.26592746
30	0xbd1916f3	-0.0373754
31	0x3e2cf181	0.16889001
32	0xbee068c0	-0.43829918
33	0x3e218f4b	0.15777318
34	0xbe1cc25b	-0.15308516
35	0x3e0b0da3	0.13579421
36	0xbe316fae	-0.17327759
37	0x3df802a1	0.121098764
38	0xbd92f80f	-0.0717622
39	0xbded8a68	-0.115986645
40	0xbc4837c4	-0.012220327
41	0xbc3b186a	-0.011419395
42	0xbd3dbcbf	-0.04632258
43	0xbdbf07fb	-0.09327694
44	0x3d64eae2	0.055888064
45	0xbcca37e6	-0.024684858
46	0xbbbc428a	-0.0057452368
47	0xbdb45275	-0.0880479
48	0x3b823f57	0.003974836
49	0xbe21d8ef	-0.1580541
50	0x3e2ff272	0.1718233
51	0x3d4aec23	0.049541604
52	0xbe3a6956	-0.18204245
53	0xbb0d02e4	-0.0021516616
54	0x3e18a3fa	0.14906302
55	0xbdbdc635	-0.092663206
56	0xbb70db29	-0.0036751723
57	0xbe015047	-0.1262828
58	0xbe856875	-0.26056257
59	0xbde188fc	-0.11012456
60	0x3e4f57b7	0.20248304
61	0x3b06d167	0.002057159
62	0xbd93e113	-0.07220664
63	0xbd1bf12d	-0.0380718

output_layer.weight f4 [1, 64]
0	0xbe80c0c2	-0.25147063
1	0x3ee49f73	0.446529
2	0xbe864f18	-0.2623222
3	0xbe182568	-0.1485802
4	0x3f8608c7	1.0471429
5	0x3e84d60c	0.25944555
6	0x3f0d1a5d	0.5511835
7	0x3e20159e	0.15633246
8	0x3f2549a5	0.645655
9	0xbe49cb28	-0.19706404
10	0xbe41fd34	-0.18944246
11	0x3e2aacd7	0.16667496
12	0xbcd234ba	-0.025659908
13	0x3e866f5d	0.26256838
14	0xbe1ba68a	-0.15200248
15	0x3e98e53f	0.298624
16	0x3e27c601	0.16384126
17	0xbe759ad8	-0.2398485
18	0x3e549b33	0.20762329
19	0x3f5bf25b	0.8591668
20	0xbe06ef18	-0.13177145
21	0x3ee26d7e	0.4422416
22	0x3e6a474b	0.22878759
23	0xbe2a4f38	-0.16631782
24	0xbeb83407	-0.35977194
25	0x3e8ab165	0.27088466
26	0x3e9cdf06	0.30638903
27	0xbe25b0be	-0.16180703
28	0xbea7104f	-0.3262963
29	0x3ede409d	0.4340867
30	0x3e85f046	0.26159877
31	0x3e32b5e6	0.17452201
32	0x3e97b849	0.29632786
33	0xbeecd565	-0.46256557
34	0x3e40b8aa	0.18820444
35	0x3e37498d	0.17899151
36	0xbe5cdc70	-0.21568465
37	0xbeb4bea7	-0.35301706
38	0x3e156e74	0.14592916
39	0x3eba4352	0.36379486
40	0xbe179df4	-0.14806348
41	0xbe9e4070	-0.30908537
42	0xbe21e511	-0.15810038
43	0x3eaa247e	0.33230966
44	0xbeb6c5c4	-0.35697758
45	0xbe4562cb	-0.19275968
46	0x3e2bcf8a	0.16778389
47	0x3e6c1825	0.23056085
48	0x3e841efe	0.25804895
49	0xbe15bcf6	-0.14622864
50	0xbe547c83	-0.20750622
51	0xbe71d672	-0.2361696
52	0x3dfb9d20	0.122858286
53	0x3e9cfe5c	0.3066281
54	0xbdb3285c	-0.08747932
55	0x3dde9405	0.10868076
56	0xbea29ee3	-0.31761846
57	0x3dbc4784	0.09193328
58	0x3ee3fd3b	0.44529137
59	0x3e9722bb	0.29518685
60	0xbec1f397	-0.37881157
61	0xbdf89174	-0.12137118
62	0xbe8f2af7	-0.27962467
63	0xbe81e826	-0.25372428
