pytorch/Laplace_eq_outputs/model_lr_0_layers_0_lambda_0.pt (torch, 7898 bytes, 5 tensors)

input_layer.0.weight f4 [32, 2]
00000000: 9c05 c73c 88a8 e6bf 2661 a33c 5b14 91bf
00000010: 0d69 afbf aceb 953f edda 363f 7d97 c33d
00000020: 13a3 093f 3acd 5abf 72a3 383e c5f5 543f
00000030: 4cd2 11bd b6c9 5bbf ee53 a8bc e969 803f
00000040: b073 d23f c4fd c2bf adc4 7e3d 2495 8d3f
00000050: da08 813f 4533 25bf dc18 8f3d 7a46 963f
00000060: 1754 89bf f1f1 54bf 64a6 913c 254c 873f
00000070: d5cd fdbe 8d86 443f 6556 083e de3e 69bf
00000080: 69a6 80bd 26d7 8abf 844a 4e3c 4805 a3bf
00000090: be2a c83d 05c2 ddbf dd9f 333e 0aa7 7bbf
000000a0: 38ec d23d 2d94 25bf 42e9 9bbe c0b1 86be
000000b0: 2405 96bf 90da e8bd 16dc 65bd 7358 c5bf
000000c0: 74b2 05bd 0f02 36bf b7cb a2bf 9c01 c4be
000000d0: a63d 1c3d e318 54bf f8e1 f53b f364 8e3f
000000e0: fec2 dabf a53e c33f d15a 303e bab5 20bf
000000f0: dd7e a53f 6ae2 a3bf 5fd7 1e3f 9c16 c53e
0.024294667 -1.8020182 0.019943785 -1.1334337 -1.3703934 1.1712546 0.71427804 0.095503785
0.53764457 -0.854694 0.180311 0.83187515 -0.035600945 -0.8585466 -0.020547833 1.0032321
1.6441555 -1.5233693 0.062199283 1.1061139 1.0080826 -0.64531356 0.069871634 1.1740258
-1.0728787 -0.83181673 0.017779537 1.0570112 -0.495711 0.7676781 0.13314207 -0.9111155
-0.0628174 -1.0846908 0.012591008 -1.2735987 0.097737774 -1.7324835 0.17541452 -0.98301756
0.102989614 -0.64679223 -0.304514 -0.26307487 -1.1720319 -0.113698125 -0.056118093 -1.5417618
-0.03264089 -0.7109689 -1.2718419 -0.38282478 0.03814473 -0.82850474 0.007503744 1.1124557
-1.7090757 1.5253493 0.17222144 -0.6277729 1.2929341 -1.2803471 0.6204738 0.38493812

input_layer.0.bias f4 [32]
00000000: f462 dfbf 25ea 773f 494a e3be 9812 94bf
00000010: 1bb5 45bf abe6 0ebf dbc3 4fbe c562 75bf
00000020: 6982 33bf 0a1b 8ebf 267d 4cbf b23a 98bf
00000030: 2e9a e0be 7424 853f efdc 02bc 1e55 4abf
00000040: 4b1a 933f 0ad5 55bf 1fb2 ca3f 9755 6d3f
00000050: 907d ed3e f7d0 44bf ce8b 0ebf 06d6 bdbf
00000060: ce62 31bf a7fc 683f d3b9 c9be a226 8e3f
00000070: 072d 783c 85fc 823e 46d7 a63e cf50 09be
-1.7452073 0.9684165 -0.44392613 -1.1568174 -0.7722947 -0.5582072 -0.20289557 -0.95853835
-0.70120865 -1.1102002 -0.7987846 -1.1892912 -0.4386763 1.040175 -0.007987245 -0.7903613
1.1492399 -0.83528197 1.5835608 0.92708725 0.4638486 -0.76881355 -0.55682075 -1.483094
-0.6929139 0.91010517 -0.39399585 1.110554 0.015147454 0.25583282 0.32586116 -0.13409732

hidden_layers.0.0.weight f4 [32, 32]
00000000: 2428 3b3d 3d01 b63d 56a3 1ebc 0395 68bd
00000010: 82f2 85bd d275 45be 4f6a e8bd c97f a4bd
00000020: 3199 b5bc e8b8 f7bd c824 e23d c2b5 e63d
00000030: 5c05 1bbe a819 25bc 9abb 2abe c3e2 703e
00000040: 06de 79bc 87ac 15be 93ef f5bd 52bb 863d
00000050: 4d48 5a3e 84c0 a4bd 9380 c33c d51c cdbc
00000060: 39cc 693e 780c 2ebe 7572 43be 1a8e a53d
00000070: 03df 893d f6c2 8a3e e58b c5bd 0d45 b6be
00000080: 1884 b43e fe02 4b3e de9c 1e3f 3429 2c3e
00000090: d93c 3b3d 4493 9dbe faec 40bd 54df 443e
000000a0: c9ba cebe b058 633e cfab 72bd 78f7 113f
000000b0: a20a b83e abed a6be a59f 143e 3733 443e
000000c0: bb67 ffbe 15df 9bbe 93d1 9ebd 2444 69bf
000000d0: 3a28 2abe ea70 073f 40fb dd3e 59ca 313e
000000e0: bc26 b23e 6d02 1e3e 6ecb 633e b319 f2be
000000f0: 582d 853e 1238 2b3e eb95 83be 6801 a9be
00000100: f702 0a3f 514a f13d 9940 04bc c36f 323f
00000110: 5aaa 923e 7387 6a3e c0d4 7cbd 6d90 1c3c
00000120: 48b2 b3be 8db0 473c bf09 9f3d 698b 47be
00000130: ef8f 13be ed1b 4cbe 198a 1fbf 465b c43e
00000140: 5aff 073e 21ea 16bb 3e70 e43c 939f 243e
00000150: 4543 e83e 136a cabd c3eb a1bd 800d 963e
00000160: a7e2 c43e 2d4b 5b3d e0cc 113d 3dda 06be
00000170: a42f 953d f40a b43e 4203 863e 28f4 a03d
00000180: b8bb 58bc 71ac aabf d18f 123e 9098 7dbd
00000190: c5af 0fbe 06bb 553f 8b43 75be 2f7f cd3f
000001a0: 1e91 bf3d ffb8 b23f 5635 87bd d9c8 7c3f
000001b0: 6046 3a3e 6f9d a6bd 945b 073f 879c 31be
000001c0: ebc3 51bf 8d93 803d d88b b2bf 8457 91bf
000001d0: 7906 42bf 2bc1 5dbe defa 293e 47a7 7a3d
000001e0: 7165 36bc 3b8c 86be 2027 d83c a77d 83bd
000001f0: 51e9 cbbd 21cd 1bbf 1567 f03c cbc8 573f
00000200: e04b acbe 1f59 393e 8082 62bd 46f3 41be
00000210: a553 b5bd b57e 50bd c5c6 70be c188 24be
00000220: 3a82 da3e 7a4b 623c d834 a8bd 2c26 603b
00000230: 9782 d43c ad9b 063e 642b 95be b2bd 053d
00000240: f160 753c 48b0 b6be 96ac 32be 0bde 26be
00000250: b0af 5f3e 9b04 bb3c 9801 babe ea0c 0d3d
00000260: 104c 14be a05c ebbd f00c 85be 2858 23bd
00000270: 9705 25be 56ea e53d 792e 2e3e 1fdc bbbe
00000280: ed69 1040 8ddd 4dbe f722 8a3e 0bb9 e43e
00000290: 9887 383f 248e a1bd ef16 263f c8a1 6fbc
000002a0: b230 c23e 10af 5a3e 56e1 b8bd 742f 2f3e
000002b0: b4ef 933f df8c 2cc0 0ae1 4bbe d791 a33f
000002c0: 8536 60be e714 8b3f a783 b2bc 9619 19be
000002d0: acf8 aa3e 85e6 a73e 8f84 26bf efca 6340
000002e0: 2be2 2540 745f efbd cbc8 543f 1d8d 1dc0
000002f0: 5c4e 893e a8ac b23e 431c acbd da08 06bc
00000300: 06f0 debd 2d5e e838 3d28 e3be 80d7 27be
00000310: 4f55 54be 4818 753d 91a3 ec3e cb84 a73d
00000320: cb32 d8bd e4cc 2cbd 4b39 7ebe 70bd cebd
00000330: 036f fc3c 75fd 863e 6469 f73e c809 26bd
00000340: 5038 d4bc 51cc c63e 5892 823e 8ba9 1bbe
00000350: f699 053d 94d9 00bc ba3f 14bd 2cc6 843d
00000360: 1828 91bb d7cf 643e 2f11 993e 896a 443e
00000370: 14ac 74be 6ece 8bbe 8585 8b3e e1f5 bb3e
00000380: e303 dabf ec29 8b3d 0909 023d f03b c23d
00000390: 41b9 fbbe feb5 1c3e 8120 4b3e 19de f5bd
000003a0: 9e80 7abe c615 5b3e 331c d9be 9427 0abe
000003b0: 91ea 3fbf b075 d83f 5f08 0e3f 094b 9dbf
000003c0: ec32 1a3d a5c6 36be 3bef 423e c556 49be
000003d0: 8f99 71be 88f6 b6be f94d d0bd 8e20 16c0
000003e0: 7bf2 02c0 d728 0c3c c9c1 4abe aa6a c33f
000003f0: ed4b 1d3c 9a73 12be c86d 893d 434d 9e3e
0.045692578 0.08886955 -0.009682497 -0.056782734 -0.06540395 -0.19283226 -0.11348402 -0.080321856
-0.022167774 -0.12095815 0.11042172 0.11265136 -0.15138763 -0.010076918 -0.16673127 0.23524003
-0.015250688 -0.14616595 -0.12008586 0.06578697 0.21316643 -0.08044532 0.02386502 -0.025038162
0.22831811 -0.16996944 -0.1908663 0.08083744 0.06731989 0.27101868 -0.096458234 -0.35599557
0.3525703 0.1982536 0.6195811 0.16812593 0.045712326 -0.30776417 -0.047101 0.19225818
-0.4037688 0.222018 -0.05924588 0.5701823 0.35945612 -0.326032 0.14514025 0.19160162
-0.49883828 -0.30443636 -0.07754817 -0.911196 -0.16616908 0.5290667 0.4335575 0.17362346
0.34795177 0.15430613 0.22245571 -0.47285232 0.26011157 0.16720608 -0.25700316 -0.33008885
0.53910774 0.11781753 -0.008072042 0.69701785 0.28645593 0.22903232 -0.06172633 0.009555918
-0.35096955 0.012188089 0.07765531 -0.19486775 -0.14410375 -0.19932528 -0.62320095 0.38350886
0.13281003 -0.0023027735 0.027885552 0.16076498 0.45363823 -0.09883513 -0.07906296 0.29307175
0.38454172 0.05353849 0.035595775 -0.13169189 0.07284477 0.35164607 0.2617436 0.07859069
-0.013228349 -1.3333875 0.14312674 -0.061913073 -0.14031895 0.834885 -0.23951547 1.6054438
0.09353851 1.3962706 -0.0660197 0.9874397 0.18190908 -0.08135497 0.5287411 -0.17344867
-0.8193957 0.06278143 -1.3948927 -1.1354833 -0.75791126 -0.21655719 0.16599604 0.061194684
-0.011132584 -0.26278862 0.026385844 -0.06420451 -0.09956611 -0.60859877 0.029346028 0.8429076
-0.33651638 0.18100403 -0.055300236 -0.18940458 -0.088538446 -0.050902087 -0.23513325 -0.16067792
0.4267748 0.01381194 -0.08213204 0.003420244 0.025941176 0.13145323 -0.29134667 0.03265161
0.014976726 -0.35681367 -0.17448649 -0.1629564 0.21844363 0.022829344 -0.3632934 0.034436144
-0.1448214 -0.11492276 -0.25986433 -0.039878994 -0.16115414 0.11226337 0.17009915 -0.36691377
2.2564652 -0.20104046 0.269798 0.44672427 0.720819 -0.07888439 0.64878744 -0.014625974
0.37927777 0.21355844 -0.090273544 0.17107946 1.1557527 -2.696098 -0.19910064 1.2778882
-0.21895798 1.0865754 -0.021791292 -0.14951167 0.33392847 0.3279306 -0.6504602 3.559261
2.5919292 -0.11688128 0.83118886 -2.4617379 0.26817596 0.3489735 -0.08403828 -0.008180821
-0.108856246 0.00011080164 -0.44366637 -0.163908 -0.20735668 0.05983761 0.4621854 0.08179625
-0.10556563 -0.042187586 -0.24826543 -0.10094726 0.030814653 0.26365247 0.48322594 -0.040536672
-0.025905758 0.38827756 0.25502276 -0.15201394 0.03261753 -0.007864375 -0.036193587 0.06483111
-0.0044298284 0.2234491 0.29895923 0.19181265 -0.23893768 -0.2730593 0.27250305 0.36711028
-1.7032436 0.06795105 0.031746898 0.094840884 -0.49164775 0.153038 0.19836618 -0.120052524
-0.24463126 0.21395025 -0.42404327 -0.1349166 -0.74967295 1.6910915 0.55481523 -1.2288524
0.03764622 -0.17849214 0.19036572 -0.19662006 -0.23593734 -0.35734963 -0.10171122 -2.345737
-2.0460498 0.008554659 -0.19800486 1.5266926 0.009600622 -0.14301911 0.06710392 0.3091832

hidden_layers.0.0.bias f4 [32]
00000000: d05e 64bd 112e 41be d412 b0bd a925 9abd
00000010: 70cf 29bd e734 afbe df36 f4bd 9ac2 163e
00000020: 910a 5c3e 08b6 efbe f532 45bd 4f55 563b
00000030: 4936 bebe 931e 513e c583 c73e 8855 ab3d
00000040: c342 2dbe fbdf 4fbc f062 36bd a803 fb3c
00000050: 9b0c 0c3e a954 eabe 4ae9 cdbd e3a4 443e
00000060: 2f63 b43e d778 81be 41f7 38be b1aa eabb
00000070: 46f9 2dbe 39b5 31be 0045 9ebd 8db9 3fbd
-0.055754483 -0.18865229 -0.08597341 -0.07526714 -0.041457593 -0.3422005 -0.11924528 0.14722672
0.21488406 -0.46818566 -0.0481443 0.0032704656 -0.3715079 0.2042182 0.3896772 0.08365923
-0.16919999 -0.012687678 -0.044527948 0.030641392 0.13676684 -0.45767716 -0.10054262 0.19203524
0.3523192 -0.25287506 -0.1806307 -0.0071614613 -0.16989622 -0.17354287 -0.077280045 -0.046807814

output_layer.weight f4 [1, 32]
00000000: c3a0 cb3e 3827 083f ca71 e13e ae68 b4be
00000010: e056 493f 90a2 98bf 2999 14bf f7a1 1dbf
00000020: de69 01bf 51c4 23bf 4abc f0be bf6b c23e
00000030: 2718 7f3f 83d3 aa3e 4497 bdbf 84e2 13bf
00000040: 98f3 d4be 5670 13bf b182 d83e 167c b5be
00000050: 6374 d0be ba5a 02bf 51b2 1abf f76b 0ebf
00000060: 29ef 243d 8b7e 25bf 4676 c63e 1381 07bf
00000070: fbfc 8abe c791 183f dfe6 ff3e dd5a 363f
0.3977109 0.53184843 0.44032127 -0.35236114 0.78648186 -1.192461 -0.58046204 -0.61575264
-0.50552166 -0.6397143 -0.47018653 0.3797283 0.9964623 0.33364496 -1.4811788 -0.5776751
-0.41592097 -0.57593286 0.4228721 -0.35446233 -0.40713796 -0.5091969 -0.6042834 -0.5563349
0.040267143 -0.64646214 0.3876211 -0.52931327 -0.27146134 0.5959744 0.49980828 0.71232396
