pytorch/Laplace_eq_outputs/model_lr_0_layers_0_lambda_2.pt (torch, 7898 bytes, 5 tensors)

input_layer.0.weight f4 [32, 2]
000000 16 e0 c2 3e 30 7e 30 3f 37 89 0e 3f ab dc de 3e
       0.3806159 0.68942547 0.55678123 0.4352773
000010 ea d4 83 3e 52 8a 24 3f a2 c4 64 bf 35 1f cb be
       0.25748378 0.6427356 -0.8936254 -0.39672247
000020 92 7c 64 3b cc ec 65 3f 1a 40 6c 3d 89 66 7b bf
       0.0034864289 0.8981445 0.05767832 -0.9820333
000030 4c cf 67 3f 2c cf 5a bf c6 9a d8 bc a2 a7 08 c0
       0.90550685 -0.8547237 -0.02644099 -2.1352315
000040 cf 46 56 3f d3 d2 3f bf eb ca 59 3f fe 3a 12 bf
       0.83701795 -0.7493107 0.85075253 -0.57121265
000050 77 bb 89 3f 28 55 ec be 4d 55 5d 3e e8 0e 9e 3f
       1.0760335 -0.4615872 0.21614571 1.2348299
000060 67 85 b6 bd ff c2 8f 3f a1 c0 22 3d 50 10 85 bf
       -0.08912163 1.1231383 0.039734486 -1.0395603
000070 be 86 88 3e a5 d4 70 bf 86 76 0d be 87 b9 87 3f
       0.266653 -0.9407447 -0.13814744 1.0603493
000080 d5 d2 fa bf ad f5 e3 3f 7e 88 a0 bf 14 78 ab 3e
       -1.9595591 1.7809349 -1.2541654 0.3349005
000090 3e 7a b5 bb ab 09 9e 3f e2 28 c9 3e 90 4e 58 bf
       -0.005538254 1.23467 0.39289004 -0.84494877
0000a0 c2 3f 9b bf 76 0f 90 3f 88 a3 13 c0 be 57 22 40
       -1.2128832 1.1254718 -2.3068562 2.5366054
0000b0 66 ca 64 bf 90 94 56 bf f2 e4 d8 bd a8 c5 92 bf
       -0.89371336 -0.8382044 -0.10590543 -1.146657
0000c0 7f e4 9a bd 2e 3b 48 3f 95 4e 9f bc 30 8c a9 bf
       -0.075631134 0.782153 -0.01944665 -1.3245907
0000d0 60 c3 4d bf 54 81 c1 3f 00 9c b8 bf 79 98 ab 3f
       -0.80376244 1.5117593 -1.4422607 1.3405906
0000e0 1d 4b 4f 3e 5b a3 5f 3f 87 87 83 3d 98 2d 7f 3f
       0.20243497 0.87358636 0.06422334 0.99678946
0000f0 45 b6 8f 3f cf 54 78 be af 89 a3 bd 4b 4e 8f bf
       1.1227499 -0.24251102 -0.079852454 -1.1195768

input_layer.0.bias f4 [32]
000000 31 5e 67 3f 00 f3 ca be 3d 59 14 3f 9b b0 8c 3f
       0.903781 -0.3963852 0.57948667 1.0991396
000010 0a 89 49 3f c5 52 5a 3f 0c ff 57 3e f6 19 04 c0
       0.7872473 0.85282546 0.21093386 -2.0640845
000020 6c 3c 95 be 95 f3 6b 3f e5 e2 b3 bf e3 05 9d bf
       -0.2914766 0.9216855 -1.4053618 -1.2267421
000030 c1 92 7d 3f f2 fa 4e bf f3 7b 6a 3f 3e 06 74 bf
       0.99052054 -0.8085166 0.9159538 -0.95322025
000040 ef 4b f8 3d 38 a8 b0 bf 67 e0 93 bf eb 8c 07 bf
       0.12123858 -1.3801336 -1.1552857 -0.529494
000050 a1 6d b3 3e 7e 92 58 3d f6 1c 28 bf ef 3a 77 bf
       0.35044578 0.05287408 -0.6566919 -0.965743
000060 f7 dd e7 be 17 b8 a1 3f a0 2e a7 3f 67 a9 f2 ba
       -0.45286533 1.2634305 1.3061104 -0.0018513621
000070 ed 80 4c 3f b9 5d 2b 3f 0a ed 65 bf c9 49 89 bf
       0.79884225 0.66939884 -0.8981482 -1.0725642

hidden_layers.0.0.weight f4 [32, 32]
000000 c9 12 25 3f 6c f7 48 be b0 1c 1c 3d b2 d1 24 bf
       0.6448179 -0.19625634 0.038113296 -0.6438247
000010 06 e5 27 bf 1d ec 36 3f 51 a9 4c 40 05 36 e9 3e
       -0.6558384 0.7145403 3.1978343 0.45549026
000020 83 0c 5c 40 75 57 15 40 5b 4c fd 3f 27 e5 e7 be
       3.4382637 2.333463 1.9788927 -0.45292017
000030 00 f8 d9 bf 66 15 2c 3e 59 68 19 40 36 ed bd bf
       -1.7028809 0.16805038 2.3969939 -1.4838016
000040 3e 53 62 c0 00 65 14 c0 6c b9 68 bf ed b1 27 40
       -3.5363307 -2.3186646 -0.9090793 2.6202347
000050 eb 39 44 c0 95 49 5d c0 ff ac ac 3d 05 d4 5b bf
       -3.066035 -3.457616 0.08431434 -0.8587039
000060 4a e9 28 bf b0 07 83 3e 3a d1 6f bf 68 c9 5f c0
       -0.6598097 0.25591803 -0.9367863 -3.4966679
000070 a4 58 19 3e 69 ca 23 bf c0 4b b2 3f 87 9f 0f 3d
       0.1497522 -0.6398073 1.3929367 0.035064247
000080 9a 29 23 bf 00 fa 28 3e 33 37 ee bf 28 46 e9 be
       -0.63735354 0.16501617 -1.8610595 -0.45561337
000090 07 b1 05 c0 a5 99 b8 bd 3c 26 68 3e 11 11 5b 40
       -2.08893 -0.0901368 0.22670835 3.4229167
0000a0 41 37 0f 3f 53 5b f2 3c 07 2e 81 3e 66 e4 87 3e
       0.55943686 0.029584562 0.2523043 0.26541442
0000b0 59 1f 01 c0 05 ff 8e 3f 77 e5 20 bd b2 c1 6a bd
       -2.0175383 1.1171576 -0.039281335 -0.05731363
0000c0 1e 3f b5 bc 65 10 18 3e a6 65 82 3e fd ea 1a 3f
       -0.022124823 0.14850004 0.25468177 0.60514814
0000d0 32 b5 da be 88 b5 2e 3f 8b 6c a4 3f 67 9d 8b 3f
       -0.42716366 0.68245745 1.2845625 1.090741
0000e0 a9 79 d9 be 1e f1 19 be 2d d7 d4 bf aa ea 88 be
       -0.42475632 -0.15033385 -1.6628166 -0.26741534
0000f0 ce b1 13 c0 4c b6 48 bf c2 97 be 3c 62 73 03 40
       -2.3077273 -0.7840316 0.023265723 2.0539174
000100 96 64 3a bd 23 76 ac 3f 05 d0 f4 3d 76 24 68 bf
       -0.045506082 1.3473552 0.11953739 -0.90680635
000110 21 6d 8a 3d 8c 4a 1d c0 92 47 73 be d6 95 b8 3e
       0.06759096 -2.457675 -0.2375777 0.36051816
000120 f8 e8 f3 bd d0 8e 45 bf 58 b9 4a 3d fd d9 05 40
       -0.1190967 -0.7717104 0.049493164 2.09143
000130 00 38 0f bb 06 bb 9e 3e 84 e6 bb bf bc e3 03 40
       -0.0021853447 0.31002063 -1.4679723 2.0607748
000140 db e0 59 3b 1e 10 d0 be ba 78 7e 40 cd 84 1c 3d
       0.0033245597 -0.40637296 3.9761186 0.038212586
000150 99 71 c7 bd 7c 8e ab 3e 11 cf ca be 98 fa 52 3d
       -0.09738464 0.33507144 -0.39611104 0.051508516
000160 41 54 60 3f cd 53 69 c0 ee 0b 59 be d5 56 5a bd
       0.8762856 -3.6457398 -0.21195957 -0.053305466
000170 77 db 9f bd d6 b0 c9 bd 67 79 63 3e d8 0e 81 3b
       -0.078055315 -0.09848182 0.2221428 0.003938537
000180 19 fb 1d be a1 7d 64 be 70 b6 63 be de d7 84 3d
       -0.15427817 -0.22313549 -0.22237563 0.06486486
000190 ec 70 6d be 5f be 77 be 32 b8 45 3f 18 00 b5 3c
       -0.23187608 -0.24193715 0.77234185 0.022094771
0001a0 6a a9 b1 3d 9f 7d fb 3e 5b 79 51 be 31 74 8b 3d
       0.08674891 0.4911928 -0.2045645 0.06809271
0001b0 c7 7e 73 be 12 ed eb be a5 ab 06 3f 91 e7 4d be
       -0.2377883 -0.46079308 0.5260566 -0.20107867
0001c0 7b dc 60 bf 5a 2a 78 3d 4c 5f be bd c6 bd cd 3e
       -0.87836426 0.060587265 -0.0929552 0.40183848
0001d0 98 ac 86 bd 37 fe 8b be 02 ab 60 3d 2d 99 aa be
       -0.065758884 -0.27342388 0.054850586 -0.3331999
0001e0 75 31 4f 3e c6 76 3e be 43 74 d8 bd 86 76 99 bf
       0.2023371 -0.18599996 -0.1056905 -1.1989295
0001f0 5e 88 00 be f3 f4 e0 3e 63 1f f3 bc d8 cc 99 3e
       -0.1255202 0.4393688 -0.029678052 0.30039096
000200 01 79 b3 3c 11 d1 0d 3e e5 77 95 be 56 e3 80 3d
       0.021908285 0.13849284 -0.29193035 0.06293361
000210 9d 7b ce be 5e 44 15 be 91 e4 a6 3e 14 af 62 3e
       -0.40328684 -0.14576861 0.32596257 0.221371
000220 d1 25 eb bc 6e 36 0b 3e 02 1f a7 3e 39 77 b8 bd
       -0.028704556 0.13594982 0.32640845 -0.09007115
000230 9a de d5 bd 89 27 11 bc 3b b9 3a be 52 90 d7 3d
       -0.104428485 -0.008859524 -0.18234722 0.10525574
000240 91 0f a1 3e 54 bc c6 bd 0f 24 31 3e 37 05 a2 3e
       0.3145719 -0.097038895 0.17298912 0.31644604
000250 47 67 b2 bd 0b f0 a4 3e c3 12 48 be 4a 45 f0 3d
       -0.08711105 0.32214388 -0.19538407 0.11731966
000260 d8 d9 1f 3d 1d 34 86 bc 28 0a 46 bd 36 e7 fb bd
       0.03902611 -0.016382271 -0.04834953 -0.12299959
000270 b6 ab ba bd a1 10 22 bd eb 66 8b 3e c7 c5 b1 3e
       -0.091147825 -0.03956664 0.27226958 0.34721205
000280 3d c6 b9 bd ce 3a 46 3e 0f 6e 7d 3e e6 39 ae 3d
       -0.09071014 0.1935837 0.24749015 0.08507137
000290 75 05 43 3d 9a 1a 99 bc da 53 1b bd b9 7d 3c be
       0.047612626 -0.018689442 -0.037921764 -0.18407334
0002a0 69 68 79 3b 8f 00 8c 3d a6 0d b9 be c8 97 c1 3e
       0.0038056618 0.06836044 -0.36143225 0.37811112
0002b0 81 d2 38 bd 67 60 ff 3d b8 44 66 3e a5 07 c9 3c
       -0.045122627 0.12469559 0.22487152 0.024539778
0002c0 3b ba ad be 4b dc bb be d5 71 0d 3e 37 36 f5 bd
       -0.33931145 -0.36691508 0.13812955 -0.11973231
0002d0 a6 a7 2a be 83 6c 15 be 4e e9 7e 3e 40 4b 9a 3e
       -0.16665515 -0.14592175 0.24893686 0.30135536
0002e0 a3 99 71 bb 8c e7 2e be ee d2 4f 3d 97 4a 42 3d
       -0.0036865256 -0.17080516 0.050738268 0.047434416
0002f0 36 51 07 3e 5f b4 c1 be 2f 26 c6 be 2a df 8e be
       0.13214573 -0.37832925 -0.38701007 -0.27904636
000300 4f b7 6e 3e 64 fa 1c 3d 3b e2 ae 3e 0c 82 dc 3d
       0.23312114 0.03832473 0.34156975 0.10766992
000310 cb ac b2 3e 6f 8c c8 3d 06 7e d3 bd 6f 76 9d be
       0.34897456 0.097924106 -0.103267714 -0.3075442
000320 c4 33 5e 3e ec 5d 3b bd 80 bd 8b be c4 5c 31 3e
       0.21699435 -0.045743868 -0.27293015 0.17320544
000330 fc 22 46 3d df 63 6f 3e 28 26 ce bd 71 6b 46 be
       0.048373207 0.23377942 -0.100658715 -0.19376923
000340 99 58 f6 be 82 38 40 be 77 ca 43 be 45 d9 7a be
       -0.4811447 -0.18771556 -0.19120203 -0.24496944
000350 74 7e 7c 3d ec 7f c8 be d9 ce 92 bd 76 66 72 3e
       0.061644033 -0.39160097 -0.07168359 0.23671898
000360 28 d9 ce 3c ff 89 21 bd d0 3d 75 3d 4a 26 b2 3d
       0.025250033 -0.039438244 0.059873402 0.08698709
000370 42 07 42 3e b4 dd 30 be 78 10 b4 be 15 25 de be
       0.18948081 -0.17272073 -0.35168815 -0.43387666
000380 a6 34 92 bf f1 f2 8d 3d a4 54 04 c0 17 0c 3c bc
       -1.1422317 0.06931103 -2.067666 -0.011477492
000390 a4 c2 18 c0 5f 6c bf 3c b5 5f 06 3e 50 45 5f 40
       -2.38688 0.023367105 0.13122447 3.4886055
0003a0 8b 85 eb 3e 4f e4 f2 bd a7 4b c4 3e 08 91 61 3e
       0.46000323 -0.11859953 0.38338968 0.22027981
0003b0 46 ee e7 bf 37 0b 2b 3f 49 2c c1 bd 0e a2 49 3e
       -1.811959 0.6681399 -0.09432275 0.19690725
0003c0 89 65 8a be 90 92 a1 3e 5e 83 88 3e a3 86 93 3f
       -0.2703059 0.3155713 0.26662725 1.1525463
0003d0 a8 67 d5 be b3 83 db be 51 8f 08 3f b5 e8 58 3f
       -0.41680646 -0.42873916 0.53343683 0.8473008
0003e0 21 eb 6e 3b 1f b4 03 be b6 68 88 bf ca dc bc bd
       0.0036456066 -0.1286168 -1.0656955 -0.092218
0003f0 8f 66 15 c0 fa a2 00 bf e3 77 3e 3f 36 f2 12 40
       -2.3343847 -0.5024868 0.7440168 2.2960334

hidden_layers.0.0.bias f4 [32]
000000 a0 b7 83 3f 7f 5d 7a be 6b 77 37 be 77 49 ba bc
       1.0290413 -0.24449728 -0.17916648 -0.022740109
000010 7e db e1 bd bc fc 9e 3d 81 cd 00 3e d3 5f 01 bf
       -0.11028193 0.07763049 0.12578394 -0.5053684
000020 77 4b 97 be 80 b9 98 3c 7d 53 ca bc 98 2c 0a 3e
       -0.29549763 0.01864314 -0.024698013 0.13493574
000030 0c fd 21 bd 74 37 3d bb bd 6e 97 3e 49 99 1a be
       -0.039547965 -0.0028872164 0.29576674 -0.15097536
000040 5b fc d1 be 8d fc 94 3e 82 0b c1 be e5 97 b1 bd
       -0.41012844 0.2909893 -0.37704092 -0.0867155
000050 16 69 fa 3d de dc 67 be b5 9a fe be 80 10 1b be
       0.12227075 -0.22642848 -0.49727407 -0.15143013
000060 3b 29 20 bd 2a 12 fe bd 1d 5b 56 be 30 2f 2d be
       -0.03910182 -0.12405808 -0.20933194 -0.16912532
000070 1a 97 73 be 05 4c 20 bd ec ca 81 be 7a 68 5c be
       -0.2378811 -0.039134998 -0.2535013 -0.2152423

output_layer.weight f4 [1, 32]
000000 98 a0 ff b7 ae c7 a0 bf ca a5 d1 be 73 95 64 3e
       -3.0473151e-05 -1.2560937 -0.409468 0.22322635
000010 24 a1 a1 3e 4d dc 4b bf de 4d db be 5a 80 93 3f
       0.31568253 -0.7963303 -0.42832845 1.1523545
000020 b3 c1 cf be 97 2c 06 bf b3 22 e6 3e d3 7f df 3e
       -0.40577468 -0.5241179 0.44948348 0.4365221
000030 1a e3 6e be ed 42 fb be 3d bf c9 be 0a af cb 3e
       -0.2332882 -0.49074498 -0.39403716 0.39781982
000040 14 98 d6 be 14 94 4b bf 80 d8 d7 3e a0 f5 f5 be
       -0.419129 -0.79522824 0.42157364 -0.4803896
000050 4b ce a8 be 3b 48 09 bf 7d 4b 79 3f c9 61 eb 3e
       -0.3296989 -0.5362584 0.9738081 0.45973042
000060 fb be 0f bf 66 40 89 be ca 0a 0f 3f 71 fa 06 3f
       -0.5615079 -0.26806945 0.5587584 0.52725893
000070 83 b6 ea 3e cb 82 42 bf 50 56 7d 3f 5e 93 b6 bc
       0.4584237 -0.75980824 0.9895983 -0.022287067
