pytorch/Laplace_eq_outputs/model_lr_0_layers_2_lambda_2.pt (torch, 71258 bytes, 5 tensors)

input_layer.0.weight f4 [128, 2]
0	0x3efb39e9	0.4906762
1	0xbe9bc076	-0.30420274
2	0x3dc564bc	0.09638354
3	0xbf1cb5bb	-0.612148
4	0xbf0bc244	-0.545933
5	0x3f10610b	0.56398076
6	0xbc3e976d	-0.011632782
7	0xbeb20f57	-0.34777328
8	0x3d922e5a	0.07137747
9	0x3ec9660b	0.39335665
10	0x3db71ff3	0.08941641
11	0xbec96ae3	-0.3933936
12	0xbd27c44c	-0.040958688
13	0xbf560274	-0.83597493
14	0xbf8c9564	-1.098309
15	0xbf4e25a9	-0.80526215
16	0x3ef47b2b	0.4775022
17	0xbbf60d04	-0.007508876
18	0x3ea9f55e	0.33195013
19	0xbdd07f8e	-0.10180579
20	0xbd3d319e	-0.046189897
21	0x3f226859	0.6344047
22	0xbd3321d8	-0.043733448
23	0x3f25e3b8	0.64800596
24	0xbd33cfda	-0.043899395
25	0xbeae71a1	-0.34071067
26	0xbf2f1590	-0.68392277
27	0x3d522b2c	0.051310703
28	0xbf5a5c81	-0.852974
29	0xbf8998e1	-1.074978
30	0xbdc10660	-0.09425044
31	0xbf3a7335	-0.7283204
32	0xbe4a9c14	-0.19786102
33	0x3f389890	0.7210779
34	0x3f3bbd5f	0.7333583
35	0xbf266dd8	-0.6501136
36	0x3cfade22	0.0306235
37	0x3f09f85a	0.5389458
38	0x3de837e0	0.11338782
39	0x3e95b53f	0.29239842
40	0xbe029e17	-0.12755619
41	0xbf1b069a	-0.6055695
42	0x3f01c75f	0.5069484
43	0x3f246b19	0.6422592
44	0x3f15a504	0.5845492
45	0x3e05c1e2	0.13062242
46	0xbe275a1d	-0.16342969
47	0x3f281f29	0.65672547
48	0x3f2a80aa	0.66602576
49	0x3f38b14f	0.7214555
50	0xbf1da7f6	-0.61584413
51	0x3eea1b9e	0.45724195
52	0x3e084251	0.13306548
53	0xbf3caea3	-0.73703974
54	0xbd382a9f	-0.04496252
55	0x3f32e034	0.69873357
56	0x3f51f840	0.82019424
57	0xbf159e6d	-0.58444864
58	0xbfabe9bc	-1.3430705
59	0xbeb7fc08	-0.35934472
60	0x3e32d54e	0.17464182
61	0x3f0b6c9c	0.544626
62	0xbf329f39	-0.69774204
63	0x3f12c58b	0.57332677
64	0x3f9aedaf	1.2103785
65	0xbe8b99ed	-0.27265874
66	0x3db27134	0.08712998
67	0xbf469383	-0.77568835
68	0x3ee88850	0.45416498
69	0x3f85a2f1	1.0440351
70	0x3ecf2500	0.40457916
71	0x3eef3041	0.46716502
72	0x3f89db9c	1.0770144
73	0xbf51d830	-0.819705
74	0x3f0a222c	0.5395839
75	0x3e8f75e3	0.28019628
76	0xbd1efccf	-0.038815316
77	0x3f150dae	0.58224
78	0x3cdfc734	0.027316667
79	0x3f2ea5ae	0.6822156
80	0xbea7afff	-0.32751462
81	0x3cb64055	0.022247473
82	0x3e1c4989	0.15262426
83	0xbe829f65	-0.25512233
84	0xbee67db6	-0.45017785
85	0xbd1571eb	-0.036485594
86	0x3f47516f	0.7785863
87	0xbf38f740	-0.72252274
88	0xbe31dbd7	-0.17369018
89	0xbf60f92a	-0.87880194
90	0xbf874158	-1.0566816
91	0xbf520d1c	-0.82051253
92	0x3e13e346	0.14442167
93	0x3f11c313	0.56938285
94	0xbf1873de	-0.595518
95	0x3f22ce91	0.63596445
96	0xbf1dabb0	-0.615901
97	0xbf2b1ced	-0.6684101
98	0x3f376698	0.7164092
99	0xbe30d254	-0.17267734
100	0xbdd1b542	-0.1023965
101	0x3f24e460	0.6441097
102	0x3ee2c2d6	0.44289273
103	0xbe2de53f	-0.16981982
104	0xbdc20208	-0.09473044
105	0x3ee750e1	0.45178893
106	0x3da1f38c	0.07907781
107	0xbf19a97c	-0.6002424
108	0x3f6879d7	0.9081091
109	0xbf485ee8	-0.78269815
110	0x3eb29645	0.34880272
111	0xbe3d964d	-0.18514366
112	0x3f41fa05	0.75772125
113	0xbf478362	-0.7793485
114	0x3eba396e	0.3637194
115	0xbe931040	-0.28723335
116	0x3d232dff	0.039838787
117	0x3f5480c1	0.8300896
118	0x3f1c6a86	0.6110004
119	0xbed5b2a5	-0.41737857
120	0xbedc0c22	-0.42978007
121	0x3eb14522	0.34623057
122	0xbd38c4b2	-0.04510946
123	0x3f503c9f	0.813425
124	0x3e1b0699	0.15139236
125	0x3f3d4535	0.73933727
126	0x3f1877e4	0.5955794
127	0xbf0cbf11	-0.54979044
128	0xbf365a9f	-0.71232027
129	0xbf18ccf9	-0.59687763
130	0xbb4bf934	-0.0031123878
131	0x3f6d82c3	0.9277765
132	0x3dd1a79c	0.10237047
133	0x3f41872e	0.7559689
134	0x3d91269e	0.07087444
135	0x3f6b9346	0.92021596
136	0x3f15776a	0.58385336
137	0xbf2ee3fc	-0.68316627
138	0xbf37562d	-0.7161587
139	0x3f1a5e96	0.60300577
140	0x3f8eacff	1.1146544
141	0x3f572257	0.84036773
142	0x3e1518ae	0.14560196
143	0xbee9ff87	-0.45702764
144	0x3e506a13	0.20352964
145	0xbf0c82c5	-0.5488704
146	0xbeb953f1	-0.36196855
147	0x3e16cb1c	0.14725918
148	0xbd5423e0	-0.051792026
149	0xbf6a040c	-0.91412425
150	0x3cf02e54	0.029318966
151	0xbf482357	-0.78178924
152	0x3bbcbe8d	0.00576002
153	0xbf3e4146	-0.7431835
154	0x3d48f1ef	0.04905885
155	0x3f4edb0c	0.8080299
156	0x3f5ab2c1	0.85429007
157	0x3f5a2899	0.852182
158	0x3f3f169a	0.7464386
159	0xbef0d136	-0.47034615
160	0xbe95fc14	-0.29293883
161	0x3f6805c9	0.9063383
162	0xbbcbe89e	-0.0062227985
163	0xbf2585fd	-0.64657575
164	0x3e02f6c6	0.12789449
165	0x3f28c096	0.6591886
166	0x3f3621e7	0.7114548
167	0xbe29a798	-0.16567838
168	0xbe24f239	-0.16108026
169	0xbf6568bd	-0.8961294
170	0x3eeabf7a	0.4584921
171	0xbf0be3d4	-0.54644513
172	0x3f4a0cb8	0.7892566
173	0x3e82705b	0.25476345
174	0x3f439d0d	0.76411515
175	0xbf211163	-0.62917155
176	0xbea6fffd	-0.3261718
177	0xbe8c9deb	-0.27464232
178	0x3e301ca0	0.1719842
179	0xbefa664a	-0.48906165
180	0x3d04608c	0.032318637
181	0x3f57eaf6	0.84342897
182	0x3e60d779	0.21957196
183	0x3f067aa7	0.525309
184	0xbed88ca3	-0.42294797
185	0x3f19b3b7	0.6003985
186	0xbf13638f	-0.5757379
187	0x3f286080	0.6577225
188	0xbee7a4d2	-0.45242935
189	0xbebccbd7	-0.36874267
190	0x3dfcad8d	0.1233779
191	0xbf174a1a	-0.59097445
192	0x3e80ee82	0.25181967
193	0x3e8bd1f8	0.2730863
194	0xbe19d7cf	-0.1502373
195	0x3f0682fb	0.5254361
196	0x3cd07b29	0.025449352
197	0x3f37df1f	0.7182483
198	0xbedc70ab	-0.4305471
199	0xbe4d212f	-0.2003219
200	0x3f6c79ad	0.9237316
201	0x3f3a6885	0.72815734
202	0xbe89f587	-0.26945135
203	0xbe950345	-0.29104057
204	0x3f3a38ef	0.72743124
205	0xbf06db45	-0.5267833
206	0xbf1c9084	-0.61158013
207	0x3f427100	0.75953674
208	0x3d004a1c	0.031320676
209	0x3f7cf179	0.9880596
210	0x3d53dea3	0.051725995
211	0x3f5ffcb5	0.87494975
212	0x3f072cd1	0.5280276
213	0xbed0c502	-0.40775305
214	0xbcbd2ae1	-0.023091735
215	0xbf5b38ed	-0.85633737
216	0xbf03582a	-0.513064
217	0x3f2674f2	0.65022194
218	0xbd04217e	-0.032258503
219	0x3ea805bb	0.32816872
220	0xbbcfff2e	-0.0063475585
221	0x3f390f06	0.7228855
222	0xbf2a36b1	-0.664897
223	0x3f308700	0.68955994
224	0xbf189e42	-0.5961648
225	0x3d59118f	0.05299526
226	0xbe3e566a	-0.18587652
227	0xbecaa68c	-0.3958019
228	0xbd107114	-0.03526409
229	0x3f13096d	0.5743626
230	0xbeeca99a	-0.46223146
231	0x3f1b3cec	0.60639834
232	0x3e3bbc1f	0.18333481
233	0xbefedf8f	-0.49779937
234	0xbf04f241	-0.5193215
235	0x3ea5b20c	0.323624
236	0x3ed030df	0.40662286
237	0xbe0d458a	-0.13796058
238	0xbeaf1efd	-0.3420333
239	0x3f230fa8	0.63695765
240	0x3ae81d5d	0.0017708946
241	0xbf1073f9	-0.5642696
242	0x3f4897b7	0.783565
243	0xbf48be13	-0.7841503
244	0x3daa975e	0.08329652
245	0xbe5a930f	-0.21345161
246	0xbf5a2ac3	-0.852215
247	0xbf19da86	-0.60099065
248	0xbe9097e6	-0.2824089
249	0xbcfbee06	-0.030753147
250	0xbe28fe1c	-0.16503185
251	0xbf1ec439	-0.6201816
252	0xbcbb7e6f	-0.022887437
253	0xbee33f90	-0.44384432
254	0x3d52f7b0	0.051505744
255	0xbf3a9e28	-0.7289758

input_layer.0.bias f4 [128]
0	0x3f11feb4	0.5702927
1	0x3ee1557e	0.44010538
2	0x3e5f80bc	0.21826452
3	0x3f5ae3ae	0.8550366
4	0xbf63d681	-0.8899918
5	0xbd3c35e4	-0.04594983
6	0xbf445718	-0.76695395
7	0xbec608d7	-0.3867862
8	0x3f069a47	0.5257916
9	0x3ebc5991	0.36787084
10	0xbf0c34d7	-0.5476813
11	0xbf5ba509	-0.857987
12	0xbef61de5	-0.48069683
13	0xbf682abd	-0.90690213
14	0xbf552be1	-0.8327008
15	0xbe5acc32	-0.21366957
16	0x3f19e272	0.60111153
17	0x3d88515c	0.06656143
18	0x3ec15a82	0.37764364
19	0xbe643cd6	-0.22288832
20	0xbf448e10	-0.7677927
21	0x3eaad575	0.3336598
22	0xbf2daece	-0.67844856
23	0xbe0be8e4	-0.1366306
24	0x3e5af4f7	0.21382509
25	0x3f0a41ef	0.54006857
26	0x3f04349a	0.51642764
27	0xbf2b2ca8	-0.66865015
28	0xbf05c966	-0.52260435
29	0xbf247cf6	-0.64253175
30	0x3ee8e697	0.45488426
31	0x3e765c33	0.24058609
32	0x3e162004	0.1466065
33	0x3f3b9767	0.73277897
34	0x3f74c469	0.956122
35	0x3e87cb4f	0.265223
36	0xbe417852	-0.18893555
37	0xbe8767e5	-0.26446453
38	0x3e4cc23f	0.19995974
39	0xbf1cda0c	-0.61270213
40	0x3e5fd00f	0.21856712
41	0x3e5bf881	0.21481515
42	0x3efbb8c8	0.49164414
43	0x3f388a29	0.72085816
44	0xbf4edbfb	-0.80804414
45	0xbee21b99	-0.4416168
46	0x3f4def96	0.80443704
47	0x3efcbeee	0.49364418
48	0x3f0a471b	0.5401475
49	0x3f496a46	0.78677785
50	0x3e675e57	0.22594582
51	0xbf553491	-0.83283335
52	0xbf471d98	-0.7777953
53	0xbecde843	-0.40216264
54	0x3e423343	0.18964867
55	0xbeb89f29	-0.3605893
56	0xbf1609f6	-0.5860895
57	0xbf25ac74	-0.6471627
58	0x3f1c89a2	0.6114751
59	0xbec13eac	-0.37743127
60	0x3ead067f	0.3379402
61	0xbf3eb028	-0.74487543
62	0x3f5147bc	0.8175008
63	0xbc850697	-0.016238494
64	0x3eb353bb	0.3502482
65	0x3f652fa3	0.8952581
66	0x3ed7350c	0.4203266
67	0x3f5a8680	0.8536148
68	0xbf208296	-0.6269926
69	0x3e8c1001	0.2735596
70	0x3ecdfaa6	0.40230292
71	0x3f0001c4	0.50002694
72	0xbf4f2b21	-0.80925184
73	0x3efb9c9a	0.49142915
74	0xbf60b9c6	-0.8778347
75	0x3f3489d1	0.7052279
76	0xbf34e337	-0.706592
77	0x3f3c5d8e	0.73580253
78	0x3e3c33df	0.18379162
79	0x3f346236	0.7046236
80	0x3f50aeaa	0.81516516
81	0x3f4bf397	0.79668564
82	0x3f4a6cf8	0.79072523
83	0x3f41a019	0.75634915
84	0xbf675fc1	-0.90380484
85	0xbe28d895	-0.1648887
86	0xbf77a69e	-0.9673861
87	0x3d2af7af	0.041740116
88	0xbe0fa4eb	-0.14027755
89	0x3f011c61	0.5043393
90	0x3f4eabb0	0.80730724
91	0x3f406274	0.7515023
92	0x3ec311ff	0.38099667
93	0x3e9b32f4	0.30312312
94	0x3d2b84d4	0.04187472
95	0x3d81b317	0.06332987
96	0x3dc1a5cf	0.094554536
97	0xbed08048	-0.4072287
98	0x3f12e0b4	0.5737412
99	0xbe344c82	-0.1760731
100	0xbe35352d	-0.17696066
101	0xbf1b3470	-0.6062689
102	0x3ed24844	0.4107076
103	0x3df65269	0.12027437
104	0x3f6ea545	0.9322093
105	0x3f54ed46	0.8317455
106	0xbf0dba42	-0.5536233
107	0xbf5d6ca9	-0.8649393
108	0x3f440d66	0.76582944
109	0xbe8bc825	-0.27301136
110	0xbf622cda	-0.8834969
111	0x3f06eb1a	0.52702487
112	0xbf211a3d	-0.6293066
113	0xbe3b308f	-0.18280242
114	0x3e169513	0.14705305
115	0x3d7bc821	0.061470155
116	0x3ef635cf	0.48087928
117	0xbedbe58e	-0.42948574
118	0xbeabf9ad	-0.33588925
119	0xbe9e1ac6	-0.30879802
120	0x3d350451	0.04419357
121	0xbf4a604d	-0.79053193
122	0xbf060bc1	-0.52361685
123	0x3e7cd1c4	0.24689394
124	0xbeaee69d	-0.3416032
125	0xbf302bb6	-0.688167
126	0x3f463d89	0.77437645
127	0x3f313cfe	0.6923369

hidden_layers.0.0.weight f4 [128, 128]
0	0x3d1600d5	0.036621887
1	0x3d8c1d87	0.068415694
2	0xbd94abd3	-0.07259335
3	0xbba43fe9	-0.0050125015
4	0xbd86bbab	-0.065787636
5	0x3cd13c1e	0.025541361
6	0x3cb83b0e	0.022489097
7	0x3d85716e	0.065157756
8	0xbca94c86	-0.020666372
9	0x3cacf0b5	0.021110872
10	0x3d9993bc	0.07498881
11	0x3d445c18	0.04793939
12	0x3d0188cc	0.0316246
13	0x3d81683f	0.063187115
14	0xbd8199de	-0.06328176
15	0x3cc38b5e	0.023870166
16	0xbd933c0d	-0.07189188
17	0xbd9d04db	-0.07666942
18	0xbd14a7fe	-0.036293022
19	0x3d502cf0	0.050824106
20	0xbd880e7f	-0.0664339
21	0x3d9edb49	0.07756669
22	0x3d8eb028	0.06967193
23	0x3cff82bd	0.03119027
24	0x3d4633aa	0.048389114
25	0x3d646fe1	0.05577076
26	0x3d397b4e	0.04528361
27	0x3dab535e	0.083655104
28	0xbd862f32	-0.065519705
29	0xbd15214c	-0.036408707
30	0x3c948c71	0.018133374
31	0x3c9610f4	0.01831863
32	0xbd485aa8	-0.04891458
33	0xbd2250e9	-0.039627943
34	0xbdc7c91b	-0.09755155
35	0x3c44d0d6	0.012012681
36	0x3d88d3e4	0.0668104
37	0xbd9db095	-0.07699696
38	0xbd061b0f	-0.03274065
39	0xbcdcf304	-0.026971348
40	0xbd9a75d5	-0.07542006
41	0x3c81f978	0.015866026
42	0x3da900b5	0.08252088
43	0x3ce24c50	0.02762428
44	0x3d76135b	0.060077053
45	0x3d230e42	0.03980852
46	0xbd52e8f8	-0.051491708
47	0x3dbb401c	0.09143087
48	0x3c53f582	0.012936952
49	0x3da77f06	0.08178525
50	0xbdbde4a2	-0.09272124
51	0x3d834dd6	0.064113304
52	0x3cd0b426	0.025476526
53	0x3a43c694	0.000746825
54	0xbc34a513	-0.011025685
55	0x3d293a59	0.04131541
56	0xbd02d64a	-0.031942643
57	0xbdab2a80	-0.083577156
58	0xbd452714	-0.04813297
59	0xbd976221	-0.073917635
60	0xbc9b81f1	-0.01898286
61	0x3d643eac	0.05572383
62	0xbdbc4c87	-0.09194284
63	0x3d1534c7	0.036427286
64	0xbd9afa6d	-0.07567296
65	0x3d467eac	0.048460647
66	0x3d533bbf	0.05157065
67	0x3d0ecfe0	0.034866214
68	0x3b3c285c	0.002871058
69	0xbd046629	-0.03232399
70	0xbd622f48	-0.055220872
71	0x3d5ce679	0.053930733
72	0x3cc200c1	0.023682
73	0x3d55d449	0.052204404
74	0x3c690796	0.014223
75	0xbdb357e7	-0.087570004
76	0xbd6ff728	-0.058585316
77	0xbc95ca4c	-0.01828494
78	0x3db311b9	0.08743615
79	0xbd9c0c62	-0.07619549
80	0x3d925cf0	0.07146633
81	0xbd599ed4	-0.053129986
82	0xbc6794c7	-0.014134592
83	0x3d03e4a2	0.032200463
84	0xbc5b26f2	-0.0133759845
85	0xbd0f373f	-0.034964796
86	0xbd5c6666	-0.053808592
87	0x3da22573	0.07917299
88	0x3b9de79f	0.004818871
89	0x3c07d552	0.008290606
90	0xbc824f3c	-0.015906923
91	0x3c4b932d	0.012425226
92	0xbc585f97	-0.013206384
93	0xbc807a48	-0.015683308
94	0x3d9844dd	0.0743501
95	0x3ba4f091	0.0050335606
96	0x3e00ff67	0.12597428
97	0x3d14a04d	0.036285687
98	0x3d8539bf	0.06505155
99	0xbd8510af	-0.06497323
100	0x3cbceeeb	0.023063144
101	0x3d633de5	0.05547895
102	0xbd52638e	-0.051364474
103	0xbb924034	-0.00446322
104	0x3c2c02ff	0.010498761
105	0x3d7837cd	0.06060009
106	0x3d281cf4	0.041043237
107	0x3d209ba6	0.039210938
108	0x3cd7606e	0.026291098
109	0xbd0cfe42	-0.034422167
110	0x3be8e092	0.007106849
111	0xbd22ebf2	-0.039775796
112	0xbd810c5f	-0.06301188
113	0xbd31eb3d	-0.04343723
114	0x3d29c6e0	0.041449428
115	0xbd87d858	-0.06633061
116	0x3d5e919c	0.054338083
117	0xbd9d40ce	-0.07678376
118	0x3d5752b0	0.05256909
119	0x3d4c9be0	0.04995334
120	0x3d30140e	0.042987876
121	0xbdd25e44	-0.10271886
122	0x3da65919	0.08122463
123	0xbc4a50af	-0.012348338
124	0xbdce7005	-0.1007996
125	0xbdaf02bd	-0.08545444
126	0xbc1ff482	-0.009762885
127	0x3d891fcb	0.06695517
128	0x3e50ee55	0.20403416
129	0x3ec52536	0.38504952
130	0x3cef0525	0.029177258
131	0x3ea0d3d2	0.31411606
132	0xbec085f7	-0.37602207
133	0x3e534d54	0.20634967
134	0x3c655d27	0.01399926
135	0x3cb0d019	0.021583604
136	0x3e32a8e4	0.17447239
137	0x3e77ddf3	0.2420576
138	0xbf0d23d3	-0.5513279
139	0xbf172440	-0.5903969
140	0xbe17fc38	-0.14842308
141	0xbe18561d	-0.148766
142	0xbdb5d394	-0.08878246
143	0x3d7f8570	0.062383115
144	0xbca8141f	-0.020517407
145	0x3e48d043	0.19610696
146	0xbcb51d7c	-0.022108786
147	0xbf51fbf5	-0.8202508
148	0xbd8b84c5	-0.06812433
149	0xbdd344d6	-0.10315864
150	0xbe8fb4e2	-0.2806769
151	0xbe890dff	-0.2676849
152	0xbd981220	-0.07425332
153	0x3e2837de	0.16427562
154	0x3ee56534	0.44803774
155	0xbf3714e4	-0.7151625
156	0xbd9f6dab	-0.077845894
157	0xbd91e645	-0.071239986
158	0xbdc6231c	-0.09674665
159	0xbd083a4b	-0.033258718
160	0xbf053f0e	-0.5204934
161	0x3f483e6b	0.7822024
162	0x3d300289	0.042971168
163	0x3b8bd4f6	0.0042673303
164	0x3e83992f	0.25702807
165	0xbf431dea	-0.7621752
166	0xbe2cb798	-0.1686691
167	0xbf388971	-0.7208472
168	0x3f04da31	0.51895434
169	0x3ef24a9b	0.47322544
170	0x3ee10cb2	0.43954998
171	0x3d89bb38	0.06725162
172	0x3bafcffa	0.005365369
173	0xbc97cc72	-0.018530104
174	0x3dba8e34	0.09109154
175	0x3da85cde	0.08220838
176	0x3ec6ce44	0.38829243
177	0x3e0d1b4e	0.13779947
178	0xbe0b015c	-0.13574737
179	0xbe8b7839	-0.2724016
180	0xbed80280	-0.42189407
181	0x3de50ab1	0.1118368
182	0x3e9086cf	0.2822785
183	0xbe9a0d26	-0.30088156
184	0xbc65d66b	-0.014028172
185	0xbe49bec9	-0.19701685
186	0xbcee2fbb	-0.029075494
187	0xbe49f310	-0.19721627
188	0x3e092fd3	0.1339715
189	0xbf2fc154	-0.6865437
190	0x3de81624	0.11332348
191	0x3e272dff	0.1632614
192	0x3e573abd	0.210185
193	0x3e204f0e	0.15655157
194	0xbd95a734	-0.07307282
195	0x3d8603c9	0.06543691
196	0xbe0a5e02	-0.13512424
197	0x3c305a46	0.01076371
198	0xbd33d1f9	-0.043901417
199	0x3f8a8ddc	1.0824542
200	0xbde37856	-0.11106937
201	0x3e5874a6	0.21138248
202	0xbd56e168	-0.052461058
203	0x3f3c21b9	0.73488957
204	0xbc7e27ac	-0.015512388
205	0xbd04c0c5	-0.0324104
206	0xbd4e8b37	-0.050425734
207	0x3d5d5428	0.054035336
208	0x3e1af6e4	0.15133244
209	0x3f33b549	0.70198494
210	0x3e2e7923	0.17038397
211	0x3e3fa5ce	0.18715593
212	0xbe676d51	-0.22600295
213	0x3e079bf1	0.1324308
214	0xbece5969	-0.4030259
215	0x3e05bd19	0.13060416
216	0x3e476bd9	0.19474734
217	0x3f0dda35	0.5541108
218	0x3e1cfe02	0.15331271
219	0x3e17e445	0.14833172
220	0x3c9cace4	0.01912541
221	0xbdb6cf7c	-0.08926293
222	0x3eb35f68	0.35033727
223	0x3e60e859	0.21963634
224	0xbebe3bd1	-0.3715501
225	0xbf134f73	-0.57543105
226	0xbcf013fa	-0.0293064
227	0x3dd414e7	0.10355549
228	0xbe332e8a	-0.17498222
229	0xbe0fa985	-0.1402951
230	0x3d931ec5	0.07183603
231	0xbe6ace96	-0.22930369
232	0x3e1f55fb	0.15560143
233	0x3d0b3d3d	0.03399395
234	0xbdc628ae	-0.09675728
235	0xbd93564b	-0.071941935
236	0x3da18732	0.078871146
237	0xbf0c08a0	-0.5470066
238	0xbf36e6d6	-0.7144598
239	0x3d948497	0.07251852
240	0xbe6ebbda	-0.23313847
241	0x3e7aed94	0.24504691
242	0xbdc71ca1	-0.097222574
243	0xbe1ddcab	-0.1541621
244	0x3f33c2f7	0.7021937
245	0xbe4ff9a2	-0.20310071
246	0xbe3d1a03	-0.18466954
247	0xbe744e5c	-0.23858017
248	0x3e8ff358	0.28115344
249	0xbe0d9a6a	-0.13828436
250	0xbe8ce2c9	-0.27516773
251	0x3ea79f24	0.32738602
252	0xbe28431c	-0.1643185
253	0xbd5ff640	-0.0546782
254	0x3eb0fcb5	0.345678
255	0x3f4ab4a1	0.7918187

hidden_layers.0.0.bias f4 [128]
0	0xbd35cc32	-0.04438419
1	0x3e45ce43	0.19316964
2	0x3da5542d	0.08072696
3	0xbb1dd588	-0.0024083573
4	0xbd4f868d	-0.050665427
5	0x3d17730c	0.03697495
6	0xbd93e475	-0.07221309
7	0x3db1573e	0.08659218
8	0x3e4adf6d	0.19811793
9	0x3e06f1fa	0.13178244
10	0xbca32702	-0.019916061
11	0xbda313fd	-0.07962797
12	0xbbb21fbe	-0.005435913
13	0x3d068c2f	0.032848533
14	0xbc8c2f67	-0.017112447
15	0xbccc9f65	-0.024978349
16	0xbdb08d38	-0.08620685
17	0xbcfe05c2	-0.031008605
18	0x3c6a607a	0.014305228
19	0x3d78f5ca	0.060781278
20	0xbd14a667	-0.036291506
21	0x3db9abe4	0.09065989
22	0xbd645eb6	-0.055754386
23	0x3ded3d59	0.11583967
24	0xbd102e63	-0.035200488
25	0xbbf23d20	-0.0073925406
26	0xbceb01c5	-0.028687367
27	0x3daa5d19	0.08318538
28	0xbb59cfd9	-0.003323546
29	0xbdad17ba	-0.08451791
30	0xbc10907a	-0.008823508
31	0xbcd99677	-0.026561005
32	0x3d98741d	0.07444022
33	0x3c1a7879	0.009428137
34	0xbd2d69ab	-0.0423371
35	0xbdfd1aca	-0.12358625
36	0xbd3b35c2	-0.045705564
37	0x3d9a86f4	0.075452715
38	0x3caf2804	0.021381386
39	0xbe5f5ee7	-0.21813546
40	0xbc47c9fa	-0.012194151
41	0x3d3c4cc9	0.045971666
42	0xbddf283b	-0.10896345
43	0x3d9c6e7f	0.07638263
44	0x3de4c99d	0.11171267
45	0xbe1969ea	-0.1498181
46	0xbd60d654	-0.0548919
47	0x3ebad3d3	0.36489734
48	0x3cf563ea	0.02995487
49	0x3d058491	0.03259713
50	0xba5998ac	-0.0008300643
51	0x3db5eebe	0.08883427
52	0xbe009b55	-0.12559254
53	0xbd94360d	-0.07236872
54	0xbd89a8f0	-0.067216754
55	0xbd4dcc51	-0.05024368
56	0x3d946f99	0.07247848
57	0x3d981010	0.07424939
58	0x3e147c07	0.14500438
59	0xbda35120	-0.07974458
60	0x3d6933ed	0.056934286
61	0xbd878de6	-0.06618862
62	0xbc8b0ea6	-0.016974758
63	0x3d01dd71	0.031705324
64	0xbc64fe4d	-0.013976646
65	0x3d9b1612	0.07572569
66	0xbe003471	-0.12520005
67	0xbd5cc360	-0.05389726
68	0xbd3b0f2e	-0.045668773
69	0xbd8a120b	-0.06741723
70	0x3d9b2a1a	0.075763896
71	0x3d236c37	0.039898124
72	0x3d5d68b0	0.054054916
73	0xbbc4e565	-0.0060087913
74	0x3e443844	0.19162089
75	0x3d80e4b5	0.062936224
76	0xbd842272	-0.064518824
77	0x3c3dddf9	0.011588567
78	0xbdc2601f	-0.0949099
79	0x3c950325	0.018189976
80	0xbbc099b9	-0.0058777
81	0x3d2e9334	0.042620853
82	0x3d4dfe01	0.050291065
83	0x3c56fc6c	0.0131217055
84	0xbd1a5c4b	-0.037685674
85	0xb8b7eeb1	-8.77058e-05
86	0x3da1598d	0.078784086
87	0x3d856723	0.065138124
88	0x3d9305b1	0.0717882
89	0xbd5042f6	-0.05084511
90	0x3db9e751	0.09077323
91	0xbd113bf4	-0.035457566
92	0xbd76691a	-0.060158826
93	0x3da2ddf4	0.079524904
94	0x3e29cbe8	0.1658169
95	0xbc499610	-0.012303844
96	0x3d903a85	0.07042412
97	0x3d53b5fa	0.05168722
98	0xbeafdfbc	-0.34350383
99	0xbd0a42ce	-0.033755116
100	0x3d32de3f	0.04366898
101	0x3d904082	0.07043554
102	0x3c8c94de	0.01716083
103	0xbd13377a	-0.03594158
104	0xbc8c8df6	-0.017157536
105	0xbd7ebd59	-0.062192295
106	0x3d0c80f0	0.034302652
107	0xbd5abc1b	-0.053402048
108	0xbd4bf605	-0.04979517
109	0xbd1d904c	-0.03846769
110	0x3da6475b	0.08119079
111	0xbdbf7337	-0.09348147
112	0x3dbb7e7b	0.091549836
113	0xbd28b7c8	-0.041190892
114	0xbe1c03ba	-0.15235797
115	0x3d7e1c0c	0.062038466
116	0x3d581be0	0.05276096
117	0x3d47534a	0.048663415
118	0xbcf14a65	-0.02945442
119	0xbde68dd7	-0.112575226
120	0xbcb9305d	-0.02260607
121	0x3c626209	0.013817319
122	0x3c4f6f84	0.012660865
123	0xbd9824bc	-0.074288815
124	0xbd67bf98	-0.056579202
125	0xbc9ca29a	-0.019120503
126	0xbe3c7c7e	-0.18406865
127	0x3d8ffd5d	0.07030747

output_layer.weight f4 [1, 128]
0	0xbd14bea1	-0.03631461
1	0x3e741ca3	0.23839049
2	0x3df696a6	0.12040453
3	0x3dd17f4c	0.10229358
4	0x3d7efe8f	0.062254485
5	0x3d9f1eb9	0.07769532
6	0xbda60e55	-0.08108202
7	0xbd6bcc9b	-0.057568174
8	0x3e9bd0f0	0.30432844
9	0x3df1d500	0.11808205
10	0x3ddcbeca	0.107785776
11	0xbddefb09	-0.10887725
12	0xbe045483	-0.12922864
13	0x3d0d1d65	0.03445186
14	0x3d325402	0.043537147
15	0xbcf7797c	-0.030209295
16	0x3dae361d	0.08506415
17	0x3d2cd7c0	0.042197943
18	0xbd8ccb64	-0.06874731
19	0xbdc13e21	-0.09435678
20	0x3e675787	0.22591983
21	0xbddbb3c7	-0.10727649
22	0x3da3bd49	0.07995088
23	0xbd6ddba8	-0.05807081
24	0xbc23045b	-0.009949769
25	0xbe085907	-0.13315211
26	0x3dfc1f56	0.12310664
27	0x3d761f09	0.06008819
28	0x3dd55349	0.10416276
29	0x3d976da7	0.073939614
30	0x3de77709	0.11302001
31	0x3da49a29	0.08037216
32	0x3dc5f3a5	0.09665612
33	0x3e2ca28a	0.16858879
34	0x3e138cb4	0.14409143
35	0x3d4e5261	0.05037153
36	0xbd9149b9	-0.070941396
37	0x3e0862cd	0.1331894
38	0xbdc2c58d	-0.09510336
39	0x3f407ed5	0.7519353
40	0x3d35fe75	0.044432122
41	0x3d302069	0.04299966
42	0xbe72345e	-0.23652789
43	0x3e0e9b2d	0.13926382
44	0xbe1ba0ab	-0.15198009
45	0x3e830093	0.25586376
46	0x3dc32fc0	0.09530592
47	0xbdccd658	-0.1000182
48	0xbdb5f5d2	-0.08884777
49	0x3d7fd846	0.062462114
50	0x3d637082	0.055527218
51	0xbe864ccb	-0.26230463
52	0x3dcc69d3	0.09981122
53	0x3d927c8b	0.07152661
54	0x3d56f589	0.052480254
55	0x3de87e67	0.11352234
56	0xbd8ce693	-0.06879916
57	0xbda6240c	-0.08112344
58	0x3e2a2465	0.16615446
59	0x3ce59247	0.028023852
60	0x3e2a6776	0.1664103
61	0xbda32b28	-0.07967216
62	0x3de8cab8	0.113667905
63	0xbd7ee5ac	-0.06223075
64	0xbe15cf16	-0.14629778
65	0x3dbdd079	0.09268279
66	0xbddebe3c	-0.10876128
67	0xbd5a2a90	-0.053263247
68	0xbc755f1e	-0.014976291
69	0x3dbbfb63	0.091788076
70	0x3d8da18d	0.06915579
71	0x3dac6dc1	0.084193714
72	0xbda39c55	-0.07988802
73	0x3d85a198	0.06524962
74	0xbda42293	-0.08014407
75	0xbd8ab935	-0.06773607
76	0xbd3708a0	-0.04468596
77	0x3e05c867	0.13064729
78	0xbdd8b959	-0.10582227
79	0x3cb18cc9	0.021673577
80	0x3d98f78e	0.07469092
81	0xbd9f11f1	-0.07767094
82	0x3de27333	0.11057129
83	0xbd4e81e1	-0.05041683
84	0xbe049b5f	-0.12949894
85	0xbd70764d	-0.05870657
86	0x3dffa171	0.124819644
87	0xbd0f8108	-0.035035163
88	0x3da8dab4	0.08244839
89	0xbcd7350e	-0.026270416
90	0xbd47f65c	-0.04881893
91	0xbdc8dbd2	-0.098075524
92	0x3e4da4c0	0.20082378
93	0x3df628e6	0.120195195
94	0xbd8e1c62	-0.06939007
95	0x3dc0a0b4	0.09405652
96	0x3c883f28	0.016631678
97	0xbde8a857	-0.11360233
98	0xbf2694c3	-0.6507074
99	0xbdb13a77	-0.086537294
100	0x3da9afc5	0.082854785
101	0x3dc0fd22	0.09423281
102	0x3c80a9d0	0.015705973
103	0x3d8064f5	0.06269256
104	0x3cd190da	0.025581766
105	0x3d8f1d42	0.06988002
106	0xbdc184ed	-0.09449182
107	0xbd493bad	-0.049129177
108	0xbdaa5478	-0.083168924
109	0x3d9d33f2	0.076759234
110	0xbdaab859	-0.08335943
111	0x3d69a3ec	0.057041094
112	0xbd258504	-0.040410057
113	0x3d551411	0.05202109
114	0xbe0c333f	-0.13691424
115	0x3dd42077	0.10357755
116	0x3cf11cbb	0.029432645
117	0xbc312af1	-0.010813461
118	0x3ce5b275	0.028039197
119	0x3e358bb6	0.17729077
120	0x3d5fbf19	0.054625604
121	0xbc5df3a7	-0.013546861
122	0xbd8febdb	-0.07027408
123	0x3dc1cbaa	0.09462674
124	0x3df09f4b	0.11749133
125	0x3e33c62e	0.17556068
126	0x3ea02ba5	0.31283298
127	0xbe0ba863	-0.13638453
