pytorch/Laplace_eq_outputs/model_lr_0_layers_1_lambda_1.pt (torch, 20826 bytes, 5 tensors)

input_layer.0.weight f4 [64, 2]
-0.02909258 -0.92683905 1.0391805 -1.1531137 -0.08765051 -0.61891633 -0.68091077 -0.7786593
0.14922102 -0.92464256 -1.2092971 -0.04045179 0.7015059 -0.2528119 -0.60074437 -0.8352549
0.107730426 -1.1518081 -0.77349705 -0.67015517 0.202878 1.0120355 -0.295637 0.7754963
0.4405877 -0.7017428 0.14642005 -0.899568 1.0204958 -1.2436697 0.48564857 0.054543197
0.5678016 -0.49602935 0.49282917 -0.6884218 -0.6302859 0.8163179 -0.36050254 -0.52744275
-0.80536824 0.37401098 0.061187048 0.95089096 0.0011450442 0.88181883 0.60978246 -0.41831002
0.7414388 0.72496766 -0.06044467 -0.9365994 -0.48477927 0.15853994 0.131833 -0.6023791
-0.7454793 0.7759965 -0.019571235 -0.8137468 -0.20947713 0.9353882 -0.03948176 -0.7600435
0.36066946 0.41599363 0.8129663 -0.5234477 0.13693905 0.44614202 -1.0509652 1.248383
0.057584208 -0.7836406 -0.063925296 -0.90265876 -1.3075762 1.1491985 0.2601298 -0.6869002
-0.062192246 -0.7933396 -0.0521809 -0.6762287 0.015405128 -0.7265317 -0.91855776 0.25570935
1.2248144 -0.6012832 0.28419116 -0.572478 0.83454174 -0.057525113 -0.37930772 0.62340933
-0.04328245 1.1242982 1.0314946 0.07920938 -0.47619927 -0.121223226 -1.103061 0.8221599
-0.6053325 0.03780562 -1.3425725 1.0930357 1.2176299 -1.2585671 0.40353534 -1.0783298
0.24120572 0.75849915 0.100546405 0.45546132 0.88515615 -0.86272866 1.2149756 0.9655113
-0.5204366 0.6167462 1.0665566 -1.0173388 -0.015212801 -0.96106505 -0.040243108 0.9756037
00000000: 9053 eebc 5345 6dbf de03 853f 3b99 93bf
00000010: 1c82 b3bd 4d71 1ebf 2b50 2ebf 3756 47bf
00000020: 65cd 183e 60b5 6cbf 3fca 9abf c7b0 25bd
00000030: e495 333f 9070 81be 62ca 19bf 44d3 55bf
00000040: c5a1 dc3d 736e 93bf e703 46bf 4a8f 2bbf
00000050: 40bf 4f3e 618a 813f bc5d 97be ed86 463f
00000060: b694 e13e 6ba5 33bf 23ef 153e 174a 66bf
00000070: 9b9f 823f 9230 9fbf eea6 f83e b068 5f3d
00000080: 725b 113f 8ff7 fdbe 1b54 fc3e 693c 30bf
00000090: 6b5a 21bf 36fa 503f ca93 b8be 7d06 07bf
000000a0: 9d2c 4ebf 5e7e bf3e 459f 7a3d 976d 733f
000000b0: 4f15 963a e1be 613f b41a 1c3f bb2c d6be
000000c0: efce 3d3f 7b97 393f d594 77bd fac4 6fbf
000000d0: fd34 f8be 4b58 223e 3bff 063e 8435 1abf
000000e0: bbd7 3ebf b5a7 463f db53 a0bc b651 50bf
000000f0: 2c81 56be 9a75 6f3f a0b7 21bd 3692 42bf
00000100: aba9 b83e 1efd d43e 8f1e 503f ab00 06bf
00000110: c039 0c3e ba6c e43e 0786 86bf 04cb 9f3f
00000120: 6bdd 6b3d ac9c 48bf 44eb 82bd a514 67bf
00000130: a85e a7bf f018 933f bc2f 853e b1d8 2fbf
00000140: 4cbd 7ebd 4e18 4bbf a4bb 55bd 531d 2dbf
00000150: ca65 7c3c fbfd 39bf 9a26 6bbf 56ec 823e
00000160: b8c6 9c3f b2ed 19bf 8181 913e eb8d 12bf
00000170: 87a4 553f 749f 6bbd 9f34 c2be c197 1f3f
00000180: f048 31bd 01e9 8f3f 0408 843f 8738 a23d
00000190: 64d0 f3be e243 f8bd 1a31 8dbf 1279 523f
000001a0: 12f7 1abf 11da 1a3d 6ad9 abbf 98e8 8b3f
000001b0: 4cdb 9b3f ba18 a1bf 2f9c ce3e b606 8abf
000001c0: a2fe 763e 002d 423f 46eb cd3d 3a32 e93e
000001d0: 9899 623f c9db 5cbf 5284 9b3f c02b 773f
000001e0: 553b 05bf 14e3 1d3f ed84 883f 2838 82bf
000001f0: 1d3f 79bc 5c08 76bf f5d5 24bd 2ac1 793f

input_layer.0.bias f4 [64]
0.8536824 0.0311259 -0.54842085 0.12860121 -0.73888475 -1.421547 0.6683747 0.63208276
-1.1051193 0.44137004 0.7060791 -0.4648958 0.32718584 -0.8801426 -0.2199529 -0.3665405
0.19592646 -0.41626316 -0.1855735 0.9441728 -1.000625 -0.8782789 -0.7880558 0.74098283
-0.3504632 0.9637887 0.6985525 0.18389587 -0.16250658 0.71876216 -0.866476 0.714391
-0.48121822 -0.5973169 0.33371794 0.24192336 0.43002227 0.9234451 -0.17821698 0.5709526
0.73989975 -0.8288718 -0.8226304 -1.1114773 0.8277842 -0.05253966 -0.439048 -0.122189306
1.0575777 0.56315964 -0.73172486 -0.3873961 1.173355 -0.23849212 -0.091055214 -1.0209143
1.1838771 0.7113924 -0.09543727 1.188421 0.9106863 0.020930903 -0.925626 -0.827502
00000000: ee8a 5a3f befb fe3c 4f65 0cbf 09b0 033e
00000010: 8d27 3dbf 41f5 b5bf 9b1a 2b3f 2dd0 213f
00000020: 8d74 8dbf 41fb e13e 9ac1 343f d306 eebe
00000030: e784 a73e 0751 61bf 553b 61be 32ab bbbe
00000040: f2a0 483e 7220 d5be fb06 3ebe 4fb5 713f
00000050: 7b14 80bf e3d6 60bf 06be 49bf 0db1 3d3f
00000060: ea6f b3be dbba 763f 56d4 323f 334f 3c3e
00000070: 2068 26be cc00 383f 5fd1 5dbf 54e2 363f
00000080: 3c62 f6be c3e9 18bf 14dd aa3e c2ba 773e
00000090: e12b dc3e e666 6c3f 837e 36be f329 123f
000000a0: 126a 3d3f f130 54bf e897 52bf e344 8ebf
000000b0: aae9 533f d433 57bd e6ca e0be 633e fabd
000000c0: b55e 873f 3b2b 103f 5252 3bbf c858 c6be
000000d0: 7f30 963f 4737 74be 287b babd 52ad 82bf
000000e0: 4989 973f d01d 363f 9e74 c3bd 2e1e 983f
000000f0: bd22 693f 4977 ab3c d3f5 6cbf 2cd7 53bf

hidden_layers.0.0.weight f4 [64, 64]
-0.0216857 0.105939046 0.38030562 0.06378378 0.25232744 0.5676593 -0.3187439 -0.0385579
0.45159325 0.22883956 -0.12978339 0.17273486 0.015496092 0.373697 -0.0714466 -0.1692842
-0.1519713 -0.06978257 -0.09589045 -0.056073554 0.22999819 0.08820789 0.0005074232 -0.32050028
-0.104506545 -0.036658827 0.19390818 -0.016512606 -0.033444826 -0.048687153 0.07058112 -0.12420217
-0.029935297 -0.09053302 -0.6219719 -0.11968911 -0.034684666 -0.104901895 0.050789718 -0.15988639
-0.06347454 0.45820177 0.4927214 0.43175927 -0.25243485 0.068116516 -0.1878602 -0.034903407
-0.5905279 -0.2791508 0.49292922 -0.063447386 0.041290008 -0.105399996 -0.00895114 0.09459464
-0.2828469 -0.38331658 5.2072744e-05 -0.2822637 -0.03775006 0.04349135 0.5119436 0.23448478
-1.307463 0.15593034 -0.017923232 -0.15368171 0.11470383 -0.016902884 -0.112781875 -0.6168941
0.12691969 -0.42264876 -0.2284106 0.21634218 -0.17705058 0.14165866 -0.10681902 0.020692388
0.04018713 -0.14849162 0.2211588 -0.12928303 0.15799558 1.038239 0.79676694 -0.12566637
0.20884347 -0.79973114 0.017317893 -0.2583574 0.03496347 -0.9285887 0.6339045 -1.5295432
0.31170255 0.02646856 0.15122245 0.18667832 -0.075898506 -0.7430406 -0.031549543 -0.29385644
-1.4114988 -0.07137185 0.01923611 0.0681856 -0.16670585 0.0007410099 0.0910723 0.1280971
-0.20871001 0.15037897 0.12275195 -0.12598042 0.04949993 0.17754544 0.236998 0.061550334
-0.03854882 0.03378673 -0.027138699 0.13822573 0.13663967 -0.0034757133 0.15331577 0.43993637
0.043574903 -0.10443005 -1.8397937 -0.09242169 -0.45816034 0.053311218 -0.03988069 -0.089596026
-1.3258272 -0.15825038 0.15049036 0.08827719 0.009515076 -1.3197337 -0.20042883 0.045225926
0.031903334 -0.31424108 0.103233844 -0.04200186 -0.12623337 -0.09613861 -0.16529559 0.12072171
0.21133395 0.05593379 0.046581585 -0.089676075 0.17597029 -0.09613063 -0.103694856 0.07033983
-0.083779305 -0.35767114 1.08079 0.08830226 0.06644958 -0.005722387 0.002821223 -0.035297472
0.058186587 -0.5915299 -0.68537605 0.06901972 0.060912516 0.01963606 0.11153374 0.17890926
0.9549013 -0.12908055 -0.23282664 0.20772839 0.08141189 0.1824732 0.0076662023 -0.595486
0.34377676 0.41439462 -0.0852935 0.05791489 0.07985364 -0.06926646 -1.5806754 -0.18507099
-0.36511588 -0.19612709 0.13674144 -0.06430003 0.07140003 0.017470824 -0.08087929 -0.088820815
-0.022956809 0.0042936867 -0.10713823 0.19781604 -0.071476966 0.08835658 -0.011067551 0.32708657
0.14284207 -0.013735561 0.09806536 -0.3564358 -0.06252042 0.31897703 0.40550306 -0.019459395
0.06787104 -0.78063864 0.0064398698 -0.1301368 0.008296546 -0.29896715 0.27363408 -0.4387201
0.1818179 -0.13466923 -0.07323272 0.1789527 -0.09742244 -0.5229642 0.4021934 -0.13246241
-0.33075538 0.08307561 -0.02650628 0.011880796 -0.06810827 -0.081474625 0.04701951 0.12576169
-0.03270397 -0.01376703 0.16068052 0.031539515 -0.13267562 0.16384543 -0.35407072 -0.07856402
0.020523256 -0.06499915 -0.09670188 -0.12654932 -0.02737845 -0.15056343 -0.0032053525 0.23874217
00000000: 36a6 b1bc 92f6 d83d 6bb7 c23e 12a1 823d
00000010: 1031 813e 1f52 113f 6732 a3be e3ee 1dbd
00000020: 3b37 e73e eb54 6a3e f0e5 04be 68e1 303e
00000030: 52e3 7d3c 3755 bf3e 9852 92bd d658 2dbe
00000040: 5d9e 1bbe 2aea 8ebd 3662 c4bd 62ad 65bd
00000050: a584 6b3e 57a6 b43d 9804 053a 9d18 a4be
00000060: 8707 d6bd 9127 16bd de8f 463e 7245 87bc
00000070: 71fd 08bd 2e6c 47bd d68c 903d b55d febd
00000080: de3a f5bc 6069 b9bd 8d39 1fbf 901f f5bd
00000090: 8211 0ebd ced6 d6bd e108 503d 42b9 23be
000000a0: f1fe 81bd 6c99 ea3e fb45 fc3e 8d0f dd3e
000000b0: 243f 81be ac80 8b3d 6d5e 40be e0f6 0ebd
000000c0: d62c 17bf dbec 8ebe 3861 fc3e b4f0 81bd
000000d0: b61f 293d f4db d7bd cda7 12bc d6ba c13d
000000e0: 4fd1 90be 1242 c4be af68 5a38 de84 90be
000000f0: cf9f 1abd fc23 323d bc0e 033f c71c 703e
00000100: f35a a7bf 34ac 1f3e bed3 92bc bd5e 1dbe
00000110: d7e9 ea3d eb77 8abc 2ffa e6bd c6ec 1dbf
00000120: 3cf7 013e 6b65 d8be 78e4 69be ce88 5d3e
00000130: bf4c 35be f80e 113e eec3 dabd 1583 a93c
00000140: 439b 243d 300e 18be 7477 623e c562 04be
00000150: 98c9 213e 04e5 843f ebf8 4b3f afae 00be
00000160: 10db 553e 2ebb 4cbf 41de 8d3c 6c47 84be
00000170: db35 0f3d fdb7 6dbf 9147 223f 12c8 c3bf
00000180: 7a97 9f3e 98d4 d83c 0fda 1a3e 9a28 3f3e
00000190: ad70 9bbd e937 3ebf 183a 01bd 5a74 96be
000001a0: feab b4bf 682b 92bd 0c95 9d3c e4a4 8b3d
000001b0: f0b4 2abe 5540 423a 1d84 ba3d e32b 033e
000001c0: 14b8 55be f2fc 193e 6065 fb3d 0301 01be
000001d0: 70c0 4a3d 79ce 353e 9baf 723e 341c 7c3d
000001e0: 5ee5 1dbd f463 0a3d fa51 debc 0c8b 0d3e
000001f0: 45eb 0b3e cbc8 63bb cffe 1c3e 573f e13e
00000200: 997b 323d 6cdf d5bd 5c7e ebbf 9547 bdbd
00000210: fe93 eabe dd5c 5a3d ef59 23bd 1f7e b7bd
00000220: b5b4 a9bf 630c 22be 251a 1a3e acca b43d
00000230: 1fe5 1b3c 09ed a8bf 373d 4dbe d23e 393d
00000240: 12ad 023d 35e4 a0be 446c d33d 240a 2cbd
00000250: 5243 01be 52e4 c4bd 3f43 29be f23c f73d
00000260: ed67 583e d41a 653d 55cc 3e3d 17a8 b7bd
00000270: 8e31 343e 23e0 c4bd f85d d4bd 540e 903d
00000280: 7c94 abbd ac20 b7be 5457 8a3f d1d7 b43d
00000290: b816 883d dd82 bbbb 45e4 383b 1594 10bd
000002a0: 0f55 6e3d 816e 17bf ce74 2fbf 365a 8d3d
000002b0: 677f 793d cddb a03c cd6b e43d fd33 373e
000002c0: 6974 743f b12d 04be 1b6a 6ebe c0b6 543e
000002d0: 47bb a63d 41da 3a3e c434 fb3b c571 18bf
000002e0: 8203 b03e 882b d43e 5cae aebd 2a38 6d3d
000002f0: 4e8a a33d 93db 8dbd 9253 cabf 4083 3dbe
00000300: 78f0 babe 8ad5 48be f305 0c3e bcaf 83bd
00000310: 2e3a 923d f91e 8f3c 0ba4 a5bd b0e7 b5bd
00000320: eb0f bcbc 0eb2 8c3b 4a6b dbbd 4a90 4a3e
00000330: 8462 92bd 4bf4 b43d ac54 35bc e477 a73e
00000340: 3145 123e 1e0b 61bc 7ed6 c83d c17e b6be
00000350: b50a 80bd f550 a33e 199e cf3e 4f69 9fbc
00000360: f9ff 8a3d efd7 47bf 8b05 d33b 9542 05be
00000370: 3cee 073c 3912 99be c419 8c3e ec9f e0be
00000380: 792e 3a3e bbe6 09be 09fb 95bd 603f 373e
00000390: 6b85 c7bd fbe0 05bf 4bec cd3e 3aa4 07be
000003a0: c558 a9be 8c23 aa3d b323 d9bc aca7 423c
000003b0: 597c 8bbd 2bdc a6bd 8897 403d acc7 003e
000003c0: 99f4 05bd 1c8f 61bc 6f89 243e 942f 013d
000003d0: 1edc 07be 19c7 273e c248 b5be 2ce6 a0bd
000003e0: 6320 a83c 461e 85bd a30b c6bd 2596 01be
000003f0: c548 e0bc 4d2d 1abe e410 52bb d478 743e

hidden_layers.0.0.bias f4 [64]
-0.085396886 -0.1782606 0.039553963 0.018717963 0.18710305 0.1738416 -0.42856076 0.04671277
-0.1812545 0.20392227 0.005745785 -0.34787214 -0.026680471 0.11713888 0.09542998 0.36346582
-0.0054986626 -0.08544607 0.13570246 -0.47722715 -0.033703074 0.19661923 0.115570255 0.026156355
-0.3516318 -0.16334073 0.12886456 0.11140334 0.06177102 0.25418228 -0.14685875 -0.020873694
-0.09202623 -0.12823941 -0.1060017 0.07071134 -0.27492848 -0.00047008283 0.20915954 -0.033919282
0.31636137 -0.18224107 -0.5269565 0.024324398 -0.041310992 0.10018053 0.1026732 0.5146512
-0.1182691 -0.05922974 -0.2326301 -0.22546057 0.03245702 0.3279474 -0.10845446 -0.22085041
0.04660005 -0.13109885 0.0353253 -0.13162804 -0.05274351 0.015673393 0.094889365 0.16019653
00000000: 90e4 aebd f289 36be 5603 223d 6a56 993c
00000010: f197 3f3e 8803 323e 516c dbbe e455 3f3d
00000020: c89a 39be 00d1 503e 2347 bc3b 4c1c b2be
00000030: 0191 dabc 82e6 ef3d cb70 c33d 3118 ba3e
00000040: 202e b4bb 59fe aebd 96f5 0a3e 1e57 f4be
00000050: 3c0c 0abd 8d56 493e 19b0 ec3d da45 d63c
00000060: 1509 b4be cb42 27be 12f5 033e 6f27 e43d
00000070: 9c03 7d3d 2e24 823e 2462 16be 4fff aabc
00000080: 4078 bcbd 3151 03be 6b17 d9bd 1bd1 903d
00000090: 6dc3 8cbe 7375 f6b9 eb2d 563e f2ee 0abd
000000a0: 1efa a13e 679d 3abe 9fe6 06bf f643 c73c
000000b0: b735 29bd 732b cd3d 5446 d23d 2ec0 033f
000000c0: 1237 f2bd e29a 72bd 9636 6ebe 23df 66be
000000d0: a7f1 043d b9e8 a73e 5f1d debd 9c26 62be
000000e0: b2df 3e3d c73e 06be 43b1 103d 80c9 06be
000000f0: 9409 58bd 7d65 803c 5b55 c23d 8f0a 243e

output_layer.weight f4 [1, 64]
0.20373893 -0.3057205 -0.18998803 0.32215357 -0.20908347 0.8488378 -0.4721866 0.47730666
-0.69826794 0.4288566 0.28254506 -0.4291712 -0.31753287 -0.23244104 -0.33359227 -0.8887939
-0.34938607 0.26041007 -0.23039882 -0.055012416 0.6782916 0.39363238 -0.28773934 0.31490484
-0.25214434 -0.17555436 -0.34128752 0.42345932 0.37104437 -0.1532639 0.3138486 0.27784875
0.40356615 0.48147267 0.26937988 -0.34609768 0.62294537 0.51512176 -0.37616286 0.33196515
0.007183439 -0.24848293 -1.0748451 0.26839614 0.21137182 0.22940487 -0.23902434 0.21881703
0.08131223 -0.6821234 -1.2344397 0.37174043 0.69804376 -0.2549546 0.2065229 0.2720626
-0.21266118 -0.39187914 -0.35748124 0.32464117 -0.3403686 -0.39582047 0.40200537 -0.8273482
00000000: f0a0 503e 6687 9cbe 398c 42be 50f1 a43e
00000010: fa19 56be 6f4d 593f 71c2 f1be 8a61 f43e
00000020: b0c1 32bf 1893 db3e bfa9 903e 54bc dbbe
00000030: ab93 a2be 0605 6ebe 9bcc aabe ff87 63bf
00000040: bbe2 b2be 7854 853e abed 6bbe b354 61bd
00000050: 85a4 2d3f 2f8a c93e 9252 93be 353b a13e
00000060: 1019 81be 86c4 33be 3dbd aebe a9cf d83e
00000070: 87f9 bd3e 36f1 1cbe c4b0 a03e 3142 8e3e
00000080: 39a0 ce3e 9683 f63e 29ec 893e b733 b1be
00000090: 5979 1f3f 05df 033f 6b98 c0be 56f7 a93e
000000a0: 0e63 eb3b 4f72 7ebe 8694 89bf 386b 893e
000000b0: db71 583e 1ce9 6a3e ccc2 74be 9211 603e
000000c0: 0787 a63d a49f 2ebf 1f02 9ebf c354 be3e
000000d0: ffb2 323f 6989 82be bd7a 533e ca4b 8b3e
000000e0: dac3 59be 62a4 c8be c807 b7be 5e37 a63e
000000f0: cb44 aebe fba8 cabe a6d3 cd3e 17cd 53bf
